02_ffn_mnist_full.pth (torch, 106445 bytes, 6 tensors)

fc0.weight f4 [32, 784]
000000 59 d6 e9 3d 61 1c 7e bd fe 1c 38 bd 2e 2c 45 bd
       0.11417837 -0.062038783 -0.044949524 -0.048137836
000010 51 b7 95 3d df f8 80 3d 34 1c 82 3d c2 be 11 be
       0.073103555 0.062974684 0.063530356 -0.14232925
000020 0f c6 24 3d 11 8c 8e bd 71 13 86 bc cf 01 00 be
       0.040227946 -0.06960309 -0.016366692 -0.1250069
000030 70 20 a8 bd 8d 7b c8 bd d7 a5 96 bd c7 e1 0a be
       -0.08209312 -0.097891904 -0.0735585 -0.1356269
000040 b5 f5 e7 3d 67 19 cc 3d 9a 96 03 be 94 42 fc bc
       0.11326162 0.099657826 -0.12850419 -0.030793466
000050 ad fc e9 3d 5e 2e 03 be 80 b4 a4 bb ae 09 0e 3e
       0.11425147 -0.12810656 -0.0050264 0.1387088
000060 64 21 80 3c 10 15 ee bd 56 c4 85 3d 1a 6d 3d bd
       0.015640922 -0.11625111 0.06531589 -0.046246625
000070 90 4c a5 3d 90 47 08 bd 23 c3 b9 bd 06 20 3a 3d
       0.08071244 -0.033271372 -0.090704225 0.045440696
000080 c9 bd dd bd cb c5 18 bc 34 c3 a5 bd 3b a8 a4 bd
       -0.10827214 -0.009324501 -0.08093873 -0.080399
000090 91 43 3f be d8 d0 5d bd eb 1b 47 be 66 2f 57 be
       -0.18678118 -0.054154247 -0.19444244 -0.21014175
0000a0 1b 8d ea bd bf ae 2e be 4a 05 95 be 43 c0 6a bd
       -0.11452695 -0.17058848 -0.29105598 -0.05731226
0000b0 ee f4 b7 bd ba 6f a3 be 63 d2 6d be 8e 32 ac bc
       -0.089822635 -0.31921178 -0.23224787 -0.0210202
0000c0 dc f1 14 be fe 78 2a bb ad ab aa be 55 1c 00 be
       -0.14545387 -0.0026012058 -0.33334103 -0.12510808
0000d0 b4 57 03 be 83 7c db 3d 4a 6a 68 bb 81 b2 0d 3e
       -0.12826425 0.10717108 -0.0035463744 0.13837625
0000e0 ac 47 85 bd 50 be db bd 2a 39 df bc 0e d7 83 be
       -0.06507811 -0.107296586 -0.027248938 -0.2575001
0000f0 8a a6 9f be 15 39 9d be 3e 45 4a be ee 25 22 be
       -0.31181747 -0.30707613 -0.19752976 -0.15834782
000100 3c be c2 be 7d 73 c9 be 3c 45 8c be 1e b0 1c bf
       -0.38035762 -0.39345923 -0.27396572 -0.61206234
000110 5e 14 ba be e2 1b b2 be 25 b2 09 bf 14 c7 f9 be
       -0.36343664 -0.34786898 -0.5378745 -0.48784697
000120 4f bb 01 bf 54 6a c8 be f3 99 a2 bd 14 41 5a 3e
       -0.50676435 -0.39143622 -0.0793952 0.21313888
000130 eb 95 24 be 25 3d d8 bb 09 79 91 bd a2 f5 9f be
       -0.16072814 -0.006599086 -0.07103164 -0.3124209
000140 ff 04 5a bd 56 9c be 3d c3 d6 c3 3d 8c 57 77 3d
       -0.05322742 0.093071625 0.09562447 0.060386226
000150 aa af 0d 3d 5f 89 ec 3d 3e 15 79 bd 7e 90 e3 3c
       0.034591354 0.11549639 -0.060811274 0.02777886
000160 9a f9 81 3e a6 32 3c be 95 f7 40 be 88 f8 94 be
       0.25385743 -0.18378696 -0.18844445 -0.29095864
000170 5a e8 dd be db cb a0 be 6c 48 81 be 30 51 e2 be
       -0.43341333 -0.3140553 -0.25250566 -0.44202566
000180 ba b3 0e be 1d 16 81 be f2 f9 48 be 8f 1c 6a bd
       -0.13935748 -0.25212184 -0.19626597 -0.05715614
000190 34 f6 e6 bd fc 42 09 be 08 90 d4 3d 7f 1c 6b 3e
       -0.11277428 -0.13404459 0.10379034 0.22960089
0001a0 74 1b 8f 3d 6e da 79 3e 22 f4 db 3d f8 2e 1b be
       0.06987658 0.2439973 0.10739924 -0.15154636
0001b0 ca 4f 93 be e4 99 1b be c8 a0 60 3d d2 fa e5 bd
       -0.28771812 -0.15195423 0.054840833 -0.11229481
0001c0 80 80 7a 3d bf 89 08 bd 94 26 98 bd 78 a8 83 bd
       0.061157703 -0.03333449 -0.07429233 -0.06428617
0001d0 ce 3c d4 bc 28 20 26 3c c4 c6 90 bc 4a 49 70 3d
       -0.0259079 0.010139503 -0.017672904 0.058663644
0001e0 30 34 a4 3b c7 b3 3f 3d 55 e2 0b be 6b af 09 3e
       0.005011104 0.04680231 -0.13660558 0.13445823
0001f0 fa 29 b0 bd cc d7 f0 bd 13 4f 8e be 08 f3 dd bd
       -0.086017564 -0.1175991 -0.27794704 -0.1083737
000200 17 48 d1 bc d8 31 13 be 33 38 27 bd 80 85 00 3e
       -0.02554707 -0.14374483 -0.04082508 0.12550926
000210 b7 86 17 3e 4a fc 9f 3d 65 56 11 3d 54 ca d3 3b
       0.14797483 0.07811792 0.035482783 0.0064633284
000220 e3 f0 db 3c 9b 1b 08 be 1d 95 74 3d 07 3c 6a be
       0.026848262 -0.1329178 0.059712518 -0.22874461
000230 f4 7a b0 bd ee 2e b4 3d 3f 6a 99 bd f2 b3 90 bd
       -0.086172014 0.08798014 -0.07490968 -0.07065572
000240 00 27 4d bd 6d a8 0f 3e d3 98 98 3c e4 0c 71 3d
       -0.05008602 0.14029093 0.01862756 0.058850184
000250 7e c7 cd bd 0e 71 3c 3e d9 95 a9 3a 9b 72 9a 3d
       -0.10047816 0.18402502 0.0012938335 0.075413905
000260 02 32 c3 bd 96 c2 9e be a8 9f c1 be 20 73 7b be
       -0.095310226 -0.31007832 -0.3781712 -0.24555635
000270 c9 6d 3e 3c 2d d1 d1 3d 3a 7b c3 3d db e0 22 3e
       0.0116228545 0.10244975 0.09544988 0.15906088
000280 8e 8c 13 3e 4d b3 a3 3d 2c ba 8e 3d 19 8a 04 3e
       0.14409086 0.07993183 0.06969103 0.12943305
000290 a5 a1 0d be be a1 59 be ca bd 40 be 79 35 29 be
       -0.13831194 -0.21253106 -0.18822399 -0.16524304
0002a0 ec 95 bd 3c e4 ce 18 bc 40 9d 4a 3e bf e7 15 be
       0.023142777 -0.00932667 0.19786549 -0.14639185
0002b0 f1 74 ae bd 0a 5c e3 bc 90 90 60 3b 2a 08 01 be
       -0.085183986 -0.027753849 0.0034265853 -0.1260077
0002c0 07 3d ee bd 7e 60 ca 3d f1 20 bb 3d e9 0c 26 bd
       -0.11632734 0.09881686 0.091371424 -0.040539656
0002d0 5e 9e 2a bd f4 f8 15 be 2a 27 b8 be be 75 c5 be
       -0.041654937 -0.1464575 -0.3596738 -0.38566393
0002e0 b8 16 e6 bc 6a 7d 8d 3d b0 8d e4 3c 36 98 c1 3d
       -0.028087005 0.069086865 0.027899593 0.0945286
0002f0 1d 26 a4 3c 02 8a a6 3d a6 3f 7d bd 47 1d 84 3d
       0.020037705 0.08131792 -0.061828278 0.06450897
000300 be d3 14 bc 35 6c e4 bd 09 a5 07 3e 89 26 dc bd
       -0.009083686 -0.11153451 0.1324655 -0.107495375
000310 a4 e5 71 bd 19 ab e1 3d 53 f0 3f 3e 18 2d 9c be
       -0.059056893 0.110189624 0.1874402 -0.30503154
000320 af e0 22 be 03 71 c3 3d bf 31 9b bd a7 2d 9c 3d
       -0.15906022 0.0954304 -0.07577848 0.07625895
000330 4e db 1a 3e 51 23 f7 3d 5b 95 24 bd eb 67 da 3c
       0.1512272 0.12067283 -0.0401815 0.02666088
000340 6f 26 08 be 54 cd 6b be 3c 53 98 be 70 29 83 be
       -0.13295911 -0.23027545 -0.29751003 -0.25617552
000350 ad 07 3d 3e c1 4a 84 3e 3e cd 48 3d 71 6d 13 3d
       0.1845996 0.25838283 0.04902386 0.035993043
000360 b1 f8 07 3d fc 18 64 3c 12 2b 71 3e 93 3e 0d 3e
       0.033196155 0.013921972 0.23551586 0.13793401
000370 be 58 de 3d 32 dd cf 3d 32 91 bc 3e 73 31 7f be
       0.1085677 0.101496115 0.36829525 -0.24921207
000380 84 c4 0f 3e ce 55 57 be 7e 82 60 3e 80 c2 25 be
       0.14039809 -0.21028826 0.21924779 -0.16187477
000390 25 e1 5b bd 14 35 5d 3d 93 84 d5 bd b4 e1 2a bd
       -0.05368151 0.054005697 -0.10425677 -0.041719154
0003a0 eb 78 0b bb 19 82 8d 3d 01 1d 53 3e 8c 9e 13 3d
       -0.002128179 0.0690958 0.20616533 0.036039874
0003b0 3e b9 a6 3d 2a a1 85 be 5e d5 ac be 9b 66 f9 bd
       0.08140801 -0.2609952 -0.33756536 -0.121777736
0003c0 52 57 93 3d fe f0 49 3b d1 54 db 3c 9a 39 0c 3e
       0.071943894 0.0030813809 0.026773842 0.13693848
0003d0 9b 91 ae 3d 95 a9 3f 3e d6 14 24 3e 06 3f 83 3e
       0.08523866 0.18717034 0.16023573 0.2563402
0003e0 43 d0 47 3e f6 c5 69 3e bf 62 13 3e e1 2e 9f 3d
       0.1951304 0.22829422 0.14393137 0.07772613
0003f0 3e df cc 3d 26 d8 45 be 88 9b e0 3d 3d a5 8b bd
       0.100035176 -0.19320735 0.10967165 -0.06818626

fc0.bias f4 [32]
000000 b6 a6 3e 3d ee 8c 2a 3e da 73 2b 3e 02 db ff bd
       0.046545707 0.16655323 0.16743413 -0.12492944
000010 d6 5b 00 bf ca 32 31 bd e3 21 26 bd 64 d4 29 bd
       -0.5014013 -0.043261327 -0.04055966 -0.041462317
000020 db 7c 97 be d7 a5 e4 be 31 fb a4 3c bf f2 21 3d
       -0.29587445 -0.44657776 0.020139309 0.03953814
000030 06 f6 d3 bd cd 98 82 3c 83 9b 0d be ad d3 27 be
       -0.103496596 0.015942002 -0.13828854 -0.16389342
000040 02 b4 04 3e 3e 4c bc 3d d9 b7 0e 3e e0 c5 5a 3d
       0.12959293 0.091942295 0.1393732 0.053411365
000050 5b 1a f2 bd 94 ce 60 bd 5c ed 95 bd 35 89 62 be
       -0.11821433 -0.05488451 -0.07320663 -0.22122653
000060 fd 54 08 be be 2c 70 be d6 f1 43 3d d7 2d a1 3e
       -0.1331367 -0.23454568 0.047838055 0.31480286
000070 29 ee 4d 3e 88 25 4f be 87 eb 04 3e 25 38 05 3b
       0.20110382 -0.20229161 0.12980472 0.0020327654

fc1.weight f4 [16, 32]
000000 65 87 72 3e 2e d3 35 3f 4b 80 4f 3e 10 c3 fb 3e
       0.23684461 0.7102536 0.20263784 0.49172258
000010 c4 53 79 3e fd 2e a1 3e 9a 29 ff be 00 11 95 bb
       0.2434836 0.31481162 -0.49836427 -0.0045491457
000020 21 a3 33 3c cb 1a 66 3e 56 07 eb 3e c5 87 12 bf
       0.010964186 0.22471158 0.45904034 -0.5723842
000030 5a e9 fd 3c 16 c3 49 3e 8a 6f 65 3e 3c d5 02 3e
       0.03099506 0.19703326 0.2240583 0.12776655
000040 00 d4 cc 3e 05 1e d7 3e dc 1c e9 be b4 0b 72 3e
       0.40005493 0.4201509 -0.4552983 0.23637277
000050 c7 66 9f 3e 26 60 dd 3e c4 72 75 3e d5 af 0b be
       0.311331 0.43237418 0.23969561 -0.13641293
000060 ef 5c c9 be d5 e6 35 3f 8d 18 dc 3e 08 aa 85 3f
       -0.39328715 0.71055347 0.4298748 1.0442514
000070 01 ac 63 3d e5 44 98 3e 8f e8 1a bf 1b e7 04 bc
       0.055583958 0.29740062 -0.60511106 -0.00811174
000080 d2 24 ff 3e 70 84 f1 bb ed 47 22 bf 3a 96 07 3e
       0.4983278 -0.007370524 -0.63391 0.132409
000090 ed e6 1a be c3 56 41 3f a8 69 ed bd fc b7 2c be
       -0.15127154 0.7552301 -0.11592418 -0.1686706
0000a0 00 c7 b5 3e 60 7d 61 3f 17 56 fb 3d a1 bc b8 be
       0.35503387 0.8808193 0.1227228 -0.36081412
0000b0 bf 74 65 bd 1b 89 af 3e ae 32 82 bc 39 30 21 3f
       -0.05601954 0.3428429 -0.015893307 0.62964207
0000c0 61 ef 66 bf 14 09 c9 3e a9 00 47 3c de c8 b3 be
       -0.90209013 0.3926474 0.0121461535 -0.35114187
0000d0 3c 71 5c be c2 4b 35 3d e5 67 16 3e 26 37 df 3e
       -0.2152757 0.0442617 0.1468807 0.43596762
0000e0 94 b6 e1 3e 31 85 b8 be 2f 7a 83 be 0e c9 25 bf
       0.4408461 -0.36039117 -0.25679156 -0.6475991
0000f0 64 46 a3 be 5b 40 98 be 2b 7a 19 3f cd b6 b4 bd
       -0.3188964 -0.297366 0.5995204 -0.08823929
000100 49 1c 77 3d b5 09 d7 3e dd e5 45 3e fa ba bd be
       0.06032971 0.41999593 0.19325967 -0.37056714
000110 93 b8 9d bd 0e 93 3a 3f ff e4 09 bd 73 d4 3f 3e
       -0.0770122 0.7288064 -0.033665653 0.18733387
000120 b5 7a a0 be 11 35 ea 3e ad 45 44 bf dc db fd 3b
       -0.31343618 0.4574361 -0.76668817 0.0077471565
000130 49 3e 9c 3e 23 1e ea 3c 60 b8 49 bf 47 80 bc be
       0.3051627 0.028578823 -0.7879696 -0.36816618
000140 35 e6 df be 30 5a 3f 3e ee 78 9d 3e cf 80 d6 be
       -0.43730322 0.18686748 0.30756325 -0.41895148
000150 dc 44 aa 3e 44 29 48 3f 2c e4 f5 3e 81 ce 35 bf
       0.3325566 0.78187966 0.48025644 -0.71018225
000160 e9 bb 86 3e 2f ef 76 3c 75 78 9b bd 31 b6 d7 be
       0.2631524 0.015071674 -0.07591335 -0.4213119
000170 b8 56 09 bf 10 b7 ab bd 6d 65 03 bf ba 66 dc 3e
       -0.5364795 -0.08384526 -0.5132664 0.43047124
000180 aa f4 c2 be 82 aa 88 3e e2 41 3d 3e ed f8 47 3f
       -0.3807729 0.26692587 0.18482164 0.78114206
000190 95 04 89 3d 6f 4f 9f be 8e 07 24 be fa 51 78 3e
       0.06690327 -0.3111529 -0.16018507 0.24250022
0001a0 1d 15 e4 be a0 e8 10 3e c9 11 a0 3e b6 f9 14 bf
       -0.44547358 0.1415124 0.3126357 -0.5819353
0001b0 97 84 27 be ed c3 7f be e7 7a 9b 3f e0 89 0d 3e
       -0.16359173 -0.24977084 1.2146882 0.13822126
0001c0 26 47 e1 3e e6 b9 9c 3e f3 d0 33 be b6 5c 19 3f
       0.43999594 0.3061058 -0.17560177 0.5990709
0001d0 f9 26 ec be 70 de 26 3d 89 0c 98 be 95 bf 05 3f
       -0.46123484 0.040739477 -0.29697064 0.52245456
0001e0 99 9b bc 3e e8 78 d7 3e 84 d1 b3 bd 0e 32 0c 3f
       0.36837462 0.42084432 -0.08780196 0.5476388
0001f0 e9 bb ca be c3 b8 bf 3d 54 e5 05 bf 62 94 ce 3e
       -0.3959649 0.093614124 -0.5230305 0.40347582
000200 c9 7c 06 bf 57 00 21 bf 0e d5 28 bf c9 5e 6e be
       -0.5253416 -0.62891144 -0.65950096 -0.23278345
000210 5e d3 ee be b9 a8 90 3c 87 1e 30 bf 9d 89 bc be
       -0.46645635 0.017658578 -0.6879658 -0.3682374
000220 b5 34 e1 3e 57 6b 34 be ed f0 40 be 20 12 4e be
       0.43985525 -0.17619072 -0.18841906 -0.20124102
000230 2e 45 8c be dc cf f6 be 25 6f eb be ea 9d a7 3e
       -0.2739653 -0.4820546 -0.45983234 0.32737666
000240 ec fd 40 bf 3b 40 d0 be e4 2e 1f 3f 17 10 72 3e
       -0.75387454 -0.40674004 0.62180924 0.2363895
000250 dd 91 ad 3a 85 3d 07 3e 1f 1b 67 bf b4 82 2e 3e
       0.0013242323 0.13207062 -0.9027576 0.17042047
000260 9f 4b a5 be c6 7f f0 be 98 f3 3c be 23 a4 05 be
       -0.32284257 -0.46972483 -0.18452299 -0.13050894
000270 6e 50 02 3f e4 67 5c 3f 87 89 a9 3d 46 3a b3 bc
       0.50903976 0.86096025 0.082781844 -0.021878373
000280 36 1b 8b 3e 64 78 5f 3f bc e8 0c 3f 44 8c 11 bf
       0.27169198 0.87293077 0.55042624 -0.56854653
000290 ae 6b 88 be 99 7d 75 bf cf 39 e9 be 11 70 88 3e
       -0.26644653 -0.9589477 -0.45551917 0.26648
0002a0 95 68 7d be 86 bc f8 bd eb 5c 6a 3e e4 28 1a 3e
       -0.24746926 -0.12145333 0.22887008 0.15054661
0002b0 da b7 83 3e 49 4d c1 bd ba 6e 3b 3f cb 76 0f be
       0.25726205 -0.09438569 0.7321583 -0.1401016
0002c0 34 1b 36 3f 08 06 3f be 15 e9 e0 3b 0e 0e 0b 3f
       0.7113526 -0.18654644 0.006863723 0.5431832
0002d0 f2 13 ce bd f9 64 1e bf ae b1 a1 3e 44 13 3d be
       -0.10062398 -0.6187282 0.3158087 -0.1846438
0002e0 ce 8a 08 3f 50 fd 0f be bc 9d e1 3e c1 fd d3 3d
       0.533368 -0.14061475 0.44065654 0.10351134
0002f0 e7 96 eb be a3 16 bb be 6a 42 37 be d0 bf aa bd
       -0.46013567 -0.36540708 -0.17896429 -0.083373666
000300 a6 e1 3c bf d0 75 bf bc 40 1f f3 3e fb ed b9 be
       -0.7378181 -0.023371607 0.4748478 -0.36314377
000310 bb b1 ca 3e 9b 85 37 3c 92 5a e1 be c4 ab fb be
       0.39588723 0.011201288 -0.44014412 -0.49154484
000320 93 76 ff bd d2 66 f5 be f2 7e fd 3c d4 5c 3e 3e
       -0.12473788 -0.47930008 0.030944321 0.18590099
000330 ae ff 98 3e 18 2e a9 3d d8 95 cc 3e 9e 17 49 3f
       0.29882568 0.08260745 0.39958072 0.7855166
000340 c1 3d 0c 3f bf 6b 3e bd 28 d8 eb be fd 95 53 bd
       0.5478173 -0.046489473 -0.46063352 -0.05165671
000350 62 3b 86 be 36 ab b4 3d 51 de 08 3f 1a 03 7c 3c
       -0.2621718 0.088217184 0.5346423 0.015381599
000360 e2 1f d3 be e0 50 f3 3e 19 75 24 be 6b bc 0a 3f
       -0.41235262 0.4752264 -0.16060294 0.54193753
000370 62 99 8f 3c 92 91 4f 3e 70 35 27 bf 98 2a 0f bf
       0.017529193 0.20270374 -0.65315914 -0.5592437
000380 2c 74 f4 3e 60 c6 03 be 2c a1 26 3f 0c 9a e2 3e
       0.47744882 -0.12868643 0.6508968 0.44258153
000390 d3 ab 42 bf 64 51 3e 3f cc 47 c6 3d c5 1d 0a bf
       -0.7604343 0.7434294 0.09681663 -0.53951675
0003a0 87 0b 3b be 98 9b 8b be c4 0a d3 3e 4e 66 32 bf
       -0.18266116 -0.27267146 0.4121915 -0.69687355
0003b0 b3 a2 9d be 31 5a 41 3f 1b 9a 1c 3f 8d d9 f3 be
       -0.30788192 0.75528246 0.61172646 -0.47626916
0003c0 91 90 53 3e d4 15 23 bc 4b a8 2b be b8 48 49 3e
       0.20660616 -0.009953935 -0.16763417 0.19656646
0003d0 5c be 8c be 73 d9 08 be ab 9c 89 bd 85 cb 05 bf
       -0.27488983 -0.133642 -0.06719335 -0.5226367
0003e0 d4 a3 aa bd 3e a9 69 be c9 ff 92 be bf a9 d1 3e
       -0.08332029 -0.22818467 -0.28710774 0.40949818
0003f0 60 7b 0b 3f 1a 4c 0a be e4 68 42 be 7f d9 f6 3e
       0.5448513 -0.13505593 -0.18985325 0.4821281

fc1.bias f4 [16]
000000 5d b9 20 be ca 4d 9f bd 0b fd c7 bd d6 48 71 bc
       -0.1569571 -0.07778509 -0.09765061 -0.014726838
000010 d2 25 58 be 36 7c 93 3d 81 65 63 bd 77 bd e0 3e
       -0.21108177 0.07201426 -0.055516724 0.4389455
000020 5b 63 bb bb 88 72 74 be 6a 3f 08 be e0 b2 c6 3d
       -0.005718631 -0.23871815 -0.1330544 0.097020864
000030 37 82 63 be c0 44 33 3e b0 62 42 3e 58 f0 2f 3e
       -0.22217642 0.17506695 0.18982959 0.17181528

fc2.weight f4 [10, 16]
000000 4b d0 3d bf e7 65 53 3f 33 01 2a bf b8 b6 3b bf
       -0.74145955 0.82577366 -0.6640808 -0.7332568
000010 6d db 20 3f 3f 22 45 3f 5e 5e 87 bf 18 f2 98 bf
       0.6283482 0.7700538 -1.0575674 -1.1948881
000020 a2 21 16 3f 9e cb 8a bf 3c 75 98 3f 24 62 89 be
       0.5864507 -1.0843389 1.1910777 -0.26832688
000030 a6 2c 85 3f 3c 19 e5 bf 1a e5 33 bf 1f 2b 8c 3f
       1.0404251 -1.7898326 -0.70271456 1.095066
000040 b0 8d 11 3f 4c 39 8e bf df 48 a9 be bd c9 70 3f
       0.5685682 -1.1111236 -0.3306341 0.9405783
000050 90 77 91 bf fa 8d df be b9 26 57 3f ab f9 d6 3e
       -1.1364613 -0.43663007 0.8404346 0.41987357
000060 1f 50 d4 bf a8 60 2b 3f 82 61 27 3f cd 18 ab 3f
       -1.6586951 0.6694436 0.6538316 1.3366944
000070 5c 58 c8 3f b9 23 79 3f fc c5 97 3f 04 d7 39 3e
       1.5651965 0.97320133 1.1857295 0.18148428
000080 c2 ae 05 3f af 3c 68 3f 30 20 f1 bd 47 a3 99 3f
       0.52219784 0.90717596 -0.117737174 1.2002953
000090 ad 77 a3 3f b7 b7 9a bf 58 98 2b 3f 58 9a d9 3f
       1.2770897 -1.2087315 0.67029333 1.7000227
0000a0 88 47 3b 3f 70 0c fb be 83 b3 ba bf 86 35 b4 3e
       0.73156023 -0.49032927 -1.4586033 0.35197085
0000b0 8d 34 c6 3f 11 41 a9 bf bb 44 92 be ea 0b bd 3f
       1.5484787 -1.3222982 -0.28568062 1.4769261
0000c0 64 a1 8f 3f 33 41 96 3f e6 3a e1 3e 35 08 88 3e
       1.1221128 1.1738647 0.43990248 0.2656876
0000d0 34 4e fb be 15 51 10 3f c0 6b 42 3f a5 c8 90 bf
       -0.49083102 0.5637372 0.75945663 -1.1311232
0000e0 0f 72 86 bf 35 a6 8b 3e 38 8d a5 bf 12 3c 4e bc
       -1.0503558 0.27275243 -1.2933722 -0.012587564
0000f0 d0 76 b0 bf 3e e9 60 3d b2 49 5c bf b0 06 3d 3f
       -1.3786259 0.054909937 -0.8604995 0.7383833
000100 a0 e7 c1 be 66 6d b4 3e fc 97 9e 3d 41 53 c7 be
       -0.37872028 0.35239714 0.077438325 -0.38930705
000110 e1 7a 99 be cc df ce bf 77 32 a4 bf 8f 6d 9c bf
       -0.29976562 -1.6162047 -1.2827901 -1.2220935
000120 c7 af 1b 3e 9c ea c7 bf d7 30 34 bf 3e 5e b3 3f
       0.15203772 -1.5618472 -0.70387024 1.4013135
000130 b4 d1 dd be 7b 10 33 3f 5e fc d5 3f ca 04 ec be
       -0.43324053 0.6994702 1.6717641 -0.46097404
000140 bc ef 54 3f 67 4e 3b bf 1f 6c 71 3f 28 39 e2 3d
       0.83178306 -0.7316651 0.94305605 0.11046058
000150 7d 3c 63 be 6e 8a 6f 3f 45 db 8c bf 5a e2 08 40
       -0.22191043 0.935706 -1.1004416 2.1388154
000160 db 64 41 3f 4d 28 b2 bf b5 b1 8c 3f 8f f1 ad be
       0.7554452 -1.3918549 1.0991732 -0.33973357
000170 7e 6d 7c bf fe cc 24 3f 48 ee 80 bf 6d 47 df bf
       -0.9860457 0.64375293 -1.0072718 -1.7443672
000180 2a de ba bf fd 0c 22 be 97 2d 6f be a7 4a 83 bf
       -1.4599049 -0.15825267 -0.23357235 -1.0257157
000190 6b 59 cf bc b1 a0 55 bf ae c4 fb bf 43 31 8d 3f
       -0.025311192 -0.8344832 -1.9669397 1.1030658
0001a0 ed ff 8c be 63 a6 71 3f e1 2e e4 3f ae 6d 9a 3f
       -0.27539006 0.9439451 1.7826806 1.2064722
0001b0 20 bc 13 3c 88 f7 40 3f cd 95 82 bf 3a 4b 9b 3f
       0.00901702 0.753777 -1.0201966 1.2132332
0001c0 2f ae 6c bf c9 06 c8 bf d8 6b eb bf 76 56 2f 3f
       -0.92453283 -1.5627071 -1.8392286 0.68491304
0001d0 1a 5e 89 3f 0b 0d ad 3f 9c 18 5b 3f 66 7d c8 be
       1.0731843 1.3519605 0.85584426 -0.3915817
0001e0 41 17 d1 3e f2 0b 86 bf 7a e0 ad be 3a 8c 38 be
       0.40838054 -1.0472395 -0.33960325 -0.18022242
0001f0 11 e4 6b bf 8a 77 d4 be 4c 72 a5 3f c7 5d ae 3f
       -0.92144877 -0.4149745 1.2925506 1.3622369
000200 32 85 9b 3f e3 b2 25 3f d7 47 ad 3d d1 7b 55 3f
       1.2150023 0.64726084 0.08460968 0.83392054
000210 f3 ca 5c 3e b3 35 68 bf 68 e6 e8 be df 5d d7 bf
       0.21561794 -0.9070694 -0.45488286 -1.6825522
000220 4d 4b 70 3f cf ba 79 3f 59 37 b1 3f 9a fd a8 bd
       0.938649 0.9755067 1.3845016 -0.08251496
000230 4e 0f a6 3f 54 71 19 bf e2 c3 29 bf 3b 7b d3 bf
       1.2973421 -0.5993855 -0.6631452 -1.6521982
000240 29 51 34 bf 37 4c 3c bf 63 26 81 3f ee 4a ce bf
       -0.7043634 -0.73553795 1.008984 -1.6116617
000250 86 0b 20 3f 50 09 86 bf b2 be 69 3f b6 2f 7a bf
       0.62517583 -1.0471592 0.913066 -0.9772905
000260 8b 25 24 bf 8a e7 79 3f 7a df 0f bf a4 54 d9 bf
       -0.64119786 0.97618926 -0.56200373 -1.6978955
000270 b2 39 d4 be 0e 16 c0 bd a8 44 34 3e dc 60 61 bf
       -0.41450268 -0.093792066 0.17604315 -0.8803842

fc2.bias f4 [10]
000000 16 77 06 bf 5a a9 2d 3e 9c 71 56 be e3 4c 21 3e
       -0.5252546 0.16959134 -0.20941776 0.15751986
000010 fe 3e d6 bd b1 e7 e2 3e c8 47 8d be 24 67 c4 3e
       -0.104612336 0.44317392 -0.27593827 0.3835994
000020 b2 76 9b be d5 6f 87 bc
       -0.30363995 -0.016532818
