02_ffn_mnist_full.pth (torch, 106409 bytes, 6 tensors)

fc0.weight f4 [32, 784]
00000000: af65 1c3d 3e24 c6bd e900 81bb ff91 fc3d
00000010: 3c9a 98bc 328c 683d 92c9 9a3c 84bb b7bd
00000020: 649d bf3d cb7b 09be 598f 223c 46cc e3bc
00000030: 245d bd3d c5c1 483e eaaf d13d 0755 cd3c
00000040: dcb2 cb3b 621c 7dbd f032 cdbd a157 e5bd
00000050: 7d8f bdbd 1f3b d03c 8ecc 643c 972b 95bc
00000060: 7dc1 3ebd 4393 063e c85c 5bbc bb59 9dbd
00000070: 27ae fbbd 0f1c a83d b6f6 d8bc 57b1 a7bd
00000080: 38f9 5d3d b3ce fd3d 94df 0f3e 0cc2 133e
00000090: 9708 87bd 6f8b 6cbe 72f7 4ebe 499a e53d
000000a0: 29ac 9f3d 36f7 923d 3e91 563e d73d 723e
000000b0: da3e a63e 5cc3 893e 1fad 023e 560a 433e
000000c0: c73a 863e 2d44 ba3d d58a 9d3d f5cf 8d3c
000000d0: 8af8 84bd 6a03 9f3d 9ec7 883c bcca f7bd
000000e0: 5d42 093e 73b5 a93d 5681 643b 3890 993e
000000f0: f825 b63e 09bc 863d 8bd7 3e3d d27e 50bd
00000100: 09b9 663e c0fa a43e 3153 a3bc 8d25 68be
00000110: 2948 b83e 8663 553e 3f62 e13d b65e cfbe
00000120: 05dd bdbe 3e02 cb3d e1e7 a83e ca14 963e
00000130: 87d8 a63e 5971 9a3d 3af4 d33c 07a4 343e
00000140: 545d 62bd 3578 593d 7d39 523d 4290 0a3e
00000150: 6e58 52bd a74f 9e3d a443 a7bd 5230 383e
00000160: ec06 b93e ff2c 1c3e 38d5 b63e a553 273f
00000170: 8637 6c3f 6ea5 e03e 2f79 043e ea0e 8a3d
00000180: b677 86be 7d2e ddbc 1d24 1abd a11c 83bd
00000190: 7d07 9f3c 5de6 263e b5b6 02ba 72b0 803e
000001a0: c03d cb3e ed35 603d 77b3 973b d251 d93e
000001b0: bd68 283f 96a8 57bd 4571 9c3c 5169 9a3d
000001c0: e079 90bd 5f79 a33d 4abc 96bd 3302 f3bd
000001d0: 75b3 093f 95ef 0a3f 0ea3 2a3f c31c 023f
000001e0: d61c 923e 0709 463e 9d19 4e3e 4470 9e3d
000001f0: ddec 2a3e b026 3e3e 9c1c 813d 4ade 4fbc
00000200: d3c0 57bc 003d 363e d486 85bd 54d8 033e
00000210: 0df0 343e a5fd 943e e5b1 163f 6c18 483e
00000220: f744 993e 7529 573e f248 b33d 54c1 a33e
00000230: 83b9 2e3d 0310 c3bd c537 6cbd e09c 113d
00000240: 5ba1 ab3c 0e33 6ebe c886 113e 7b71 2f3e
00000250: 1f2f 463e fd79 2dbd f949 5c3e 2162 3b3e
00000260: ef09 b53e b27a b23e fbb8 b33d 897e e33d
00000270: 58d3 9b3c 16e5 4f3e b68c b13e b43a d8bd
00000280: c99d 83bd ff96 d63e 58da 913d 4b70 8d3e
00000290: 15e8 cf3e b8cd 2d3e 477e 37bd baf5 f33c
000002a0: 6a36 01be fe34 0e3e 4410 2fbe be2a 073f
000002b0: 7fff aa3e 01a5 193f 6c43 803e cb7c 793e
000002c0: a8e8 f0ba 2f64 ad3e de74 bf3e eb4a 0e3e
000002d0: abab 373e 1086 80bd 36ae a83d b39c 973d
000002e0: 0045 1d3d 7b73 883e 2def bb3e aac9 12ba
000002f0: fbed 0e3e 123c 423e 46ae 303e 27b4 38be
00000300: d4ef c03e 5437 1b3e 8f1c 02be fd2c 243e
00000310: 8a5c 9b3c a3cb d33e 6bf3 10be fe17 c93e
00000320: f5f9 1f3f 4a6c f73e a98b ce3e 7775 be3e
00000330: 58f9 65bc abd4 09bd 8aaa 133e 2b80 3e3d
00000340: 402b 95bd 12b7 02be e04b 8a3c 7939 063e
00000350: 94b3 e3ba 0b7b df3d 131d e3bc 712c a33d
00000360: 98ba 513e dd0b 97be be8e 44be 27fa 2cbe
00000370: fe2f 9c3d 94fa ac3e ae8c 393d 0513 e63d
00000380: 3103 f73d a43d 273e afd4 673e f1ce 943d
00000390: f280 db3e 7f9d 5a3e ce2e 33be 78d6 0d3e
000003a0: 673f 9f3b ee71 743d bfc2 613e 64da 263d
000003b0: 3f44 443d 0185 1cbe e178 033d c515 9b3d
000003c0: 2e30 883d 6f44 43bd 1b63 073e d551 1cbe
000003d0: 9645 f2bd 5f5b 6ebe 2b1c fcbd b442 3ebe
000003e0: 64fc debe 98e3 81be 54c1 3f3e 6844 8f3d
000003f0: 42b6 443e c346 8a3e d548 fd3e 970e b13e
0.03818291 -0.096748814 -0.003936876 0.12332534 -0.018628232 0.056774326 0.018894944 -0.08971313
0.09356192 -0.1342613 0.009921872 -0.027807366 0.09246281 0.19605167 0.10238631 0.025064958
0.00621639 -0.061794646 -0.10019481 -0.111983545 -0.09255884 0.025418816 0.013964785 -0.018209262
-0.046571244 0.13142113 -0.01338882 -0.0768313 -0.12289076 0.08208477 -0.026484828 -0.08188122
0.05419275 0.1239294 0.14050132 0.14429492 -0.06593435 -0.23100065 -0.2021158 0.11211068
0.07796509 0.07176058 0.20953843 0.23656403 0.32469827 0.2690686 0.12761353 0.19046912
0.2621672 0.09095035 0.07692496 0.017311076 -0.064927176 0.07764323 0.016696747 -0.120992154
0.13404222 0.08286562 0.003486713 0.29992843 0.35575843 0.065788336 0.046592277 -0.050902195
0.22531523 0.32222557 -0.01993713 -0.22670574 0.35992554 0.20838746 0.11005067 -0.40501946
-0.37082687 0.09912537 0.3298941 0.29312736 0.32587072 0.075411506 0.025873292 0.17640696
-0.055264786 0.053093154 0.051324356 0.13531592 -0.051353864 0.07730036 -0.08167198 0.17987183
0.36138093 0.1525154 0.35709548 0.65362006 0.9227222 0.43876213 0.12936853 0.06741126
-0.26263207 -0.026999706 -0.037632097 -0.06401945 0.01941275 0.16298814 -0.0004986332 0.25134617
0.3969555 0.054738928 0.004629548 0.42445236 0.6578482 -0.05265101 0.01909698 0.07539619
-0.07054496 0.07982134 -0.07360132 -0.11865654 0.53789455 0.54271823 0.6665505 0.50825137
0.28537625 0.19339381 0.20126958 0.07736257 0.16691919 0.18569446 0.06304285 -0.012687275
-0.0131685315 0.17796707 -0.06519857 0.12875491 0.17669697 0.29099765 0.58865196 0.19540566
0.29935429 0.21011908 0.087541476 0.31983435 0.042657387 -0.09524538 -0.057670373 0.03555
0.020950964 -0.23261663 0.14211571 0.17133133 0.19353913 -0.042352665 0.21512593 0.18299152
0.3535914 0.34859234 0.087755166 0.11108119 0.019021675 0.20302233 0.34677666 -0.10558072
-0.064265795 0.41912076 0.07121724 0.27624735 0.40606752 0.16973007 -0.04479816 0.029780257
-0.12618414 0.13887402 -0.17096049 0.52799594 0.33398053 0.600174 0.2505144 0.24364011
-0.0018379884 0.33865497 0.3739385 0.13895766 0.1793658 -0.062755704 0.08236353 0.07402935
0.03839588 0.26650605 0.36705914 -0.00055995083 0.1395797 0.18968228 0.1725398 -0.18037473
0.37682974 0.15157825 -0.12706207 0.16032787 0.018965025 0.413663 -0.14155357 0.39276117
0.6249078 0.48324805 0.40340927 0.37198994 -0.014036499 -0.03365008 0.14420524 0.04650895
-0.0728364 -0.12765148 0.016881883 0.13107862 -0.0017372244 0.109121405 -0.027723825 0.07967461
0.20481336 -0.29501238 -0.19195077 -0.168923 0.07626341 0.33784926 0.04530018 0.112340964
0.120611556 0.16332108 0.22639726 0.072660334 0.42871815 0.21349142 -0.17498323 0.13851345
0.004859853 0.059678964 0.22046946 0.040735617 0.047916647 -0.15285112 0.0320977 0.075725116
0.066498145 -0.047672685 0.132214 -0.15265591 -0.11829679 -0.23277043 -0.1231006 -0.18580133
-0.43551934 -0.25368953 0.18726093 0.06995469 0.19210151 0.27007112 0.4946963 0.34581444

fc0.bias f4 [32]
00000000: 7bf5 f03c 0c44 70be 8f1d 2abd 9ef9 7bbe
00000010: 779c fb3c 42ea 263e 85cb 253e 4ccc 083f
00000020: 6a11 d43d 2ffd 7bbe b41d 8a3e 524d 80bc
00000030: d375 57bd e5c1 47bd 1087 d63d 6a42 47be
00000040: 49ce b7bd 0d46 5d3e 1d31 36be 2478 0fbe
00000050: 2b72 0d3b 10d1 25be c9a1 493e ac27 2cbd
00000060: 8492 3d3d fb3d 7d3c 731e 263e 0511 c9bd
00000070: 2a82 acbd ee43 923d 5866 a03b 9e08 4f3d
0.02941393 -0.23463458 -0.041532096 -0.2460694 0.030714257 0.163003 0.16190918 0.5343673
0.10354884 -0.246083 0.26975787 -0.01566187 -0.0526026 -0.048768897 0.1047498 -0.19458929
-0.08974893 0.21608754 -0.17792173 -0.14010674 0.0021582942 -0.16193032 0.19690622 -0.04203002
0.046282306 0.015456672 0.16222553 -0.09817699 -0.08423264 0.07141863 0.004895013 0.050545327

fc1.weight f4 [16, 32]
00000000: fad3 79be 1536 d93c c204 46bf 28fe 83be
00000010: 3933 1e3f dc15 2a3f 521f 2abf 84ea 8e3e
00000020: 98d7 573f ad92 033f c9b2 5bbf 2150 d13e
00000030: 5cc3 61be d94a 75be 3695 3abd b1d2 0abe
00000040: 3abd 63be eb74 e4be b78c 4bbe 14b8 bf3e
00000050: 2902 3abe b162 cd3d 4b35 173f 0560 80bf
00000060: f5c9 9d3e 8aa8 543b 8b94 c5be 2f40 23bf
00000070: b0f8 093f fe98 ac3d 5632 323e d1da 84bc
00000080: 88fc 723e cf05 263d 499b 783e 1ef9 35be
00000090: b9f2 20bf 270f 613f 4e05 4fbd a7b7 7cbc
000000a0: 6457 0f3f dc64 3c3f e872 903d 9235 3fbf
000000b0: 502b 543f c050 483e d1ff cf3e f48d 3d3e
000000c0: 496e e83e 0c4a 9c3e 4c27 083f 8dca ffbe
000000d0: d563 ba3b f69d 3e3f 461e 2ebf 7258 023f
000000e0: ba5b 143f c105 4a3f eb00 b3bd 4625 393e
000000f0: 3671 cc3e e1bb ef3d 9157 bebd 9f9f 5bbe
00000100: 23f7 6c3f 41d5 2d3f 3831 c5bd 99fe c4be
00000110: ed99 67bf 0fae 25be a2f3 c53d 3b82 4cbf
00000120: a409 2a3f 33e0 943e 6776 dabe fbcd bbbe
00000130: d887 5f3f 0169 91be d649 ecbd 81e9 50be
00000140: d278 4cbe fbdd 7b3e f839 0ebe 0ae4 ff3d
00000150: 04cf c1be 3586 083f c4a5 ee39 0481 9d3e
00000160: 23ec 0b3d 8484 febe fc61 d8be b133 36bd
00000170: 0213 f03e 04d1 b7bd c0c9 8abe 8d38 32be
00000180: 6ee2 543f 38fd 5f3e 6170 2ebf 94a2 753e
00000190: be5e 5f3e 97fb cabe 0c4e 293f eb44 35bf
000001a0: c41b 113e 0d3f b1be 6b06 6cbe 4318 34be
000001b0: 9343 3a3d 8a43 20bd e5c5 243f 2f5c 553f
000001c0: 3b65 2ebc 5abf c93e 246a 8a3e 5748 213e
000001d0: 10fa 9bbe b797 483f 9369 3dbf 3181 093d
000001e0: 24d9 a0be ffe8 0f3e 957e 1d3f ee37 873f
000001f0: 1e1d 6bbe ccb1 533d c5ae 7abe 7304 153e
00000200: 850f d73e aa57 80be 876a 3bbf 0ed8 a63e
00000210: 8f7b 3cbe e0e4 1e3f 9e12 48bf 0ebe 39bf
00000220: 8f18 493f d19a 013f 7668 0c3e 06b4 803e
00000230: fab4 5b3d cd2c 523e 686d a93e aedd 77bd
00000240: e423 343f cc56 f63e 2004 bb3e a6fb 0abd
00000250: baa2 5fbf 692e e2bc d3da 19bd c861 05be
00000260: 0a97 853d e067 013f 010f c9be b5ca 003f
00000270: 5cf4 57be 6d15 b83e 087a 47bf 4d02 313f
00000280: f161 043f 866e 77be fb0c 0bbf fac4 72bd
00000290: 93a6 843e 7d07 4d3f d320 083f 7e7b f3bd
000002a0: 57a2 e0be 0f8c d43e 9087 32bf ad82 12bf
000002b0: 4e89 c7be 7b99 2bbf 75c7 60bf ef55 093f
000002c0: 4334 10bf 645c d9be a9f7 063e 6562 b83e
000002d0: c6f0 9fbe b5c3 003f 9a9c 473f c477 d13d
000002e0: 2f9b 423d e90a a8be 4109 113d b847 bfbe
000002f0: 9296 33be 3d0c 803e 7640 233e 97f0 62bf
00000300: 296e aa3e c446 df3e 807d 003f d232 55bc
00000310: c73f 2abf 9292 7ebe 1989 96bc 0869 3d3e
00000320: 5074 a83e 4ac8 a63e a422 18be 5920 a83e
00000330: ab33 923e 8db4 893d bfa4 08bf f882 33bf
00000340: 1e1c 59bf 9ca4 8a3e ef1d ac3e 36dd f0bd
00000350: 2d9c 3e3f 5124 22bf 3c98 ec3e 7351 c8be
00000360: d589 0cbf 14f9 3b3e 4a2e fbbd f463 1c3d
00000370: b70a ec3d 3a16 35bf 2ac2 de3e 202a 8d3e
00000380: b828 fbbd 3efe bd3e 56d2 0e3f 3b6d 9dbe
00000390: 32d4 2bbf 0826 03bf 5daa a83e 4eba bb3e
000003a0: a653 093f 30df 41be 3e08 063e 1f63 1c3f
000003b0: debe dcbe 9b8b acbe af3e aabe 9d71 50bf
000003c0: 041b 0e3f 2701 2dbd 8fe2 d03c 2eca 923c
000003d0: cf46 553f 882a 3dbe 703f 213e 2deb 953e
000003e0: 3033 103f a0c7 cc3d a32c 2bbe f116 5e3e
000003f0: 3fbe 70bf 1270 083f b390 1f3f 7b97 3bbe
-0.24397269 0.026515046 -0.7735101 -0.25779843 0.6179691 0.66439605 -0.6645404 0.27913296
0.84313345 0.51395684 -0.8581968 0.40881446 -0.2204718 -0.23954333 -0.045552455 -0.13556935
-0.22240153 -0.4462045 -0.19877897 0.37445128 -0.18164887 0.100285895 0.59065694 -1.0029303
0.30818143 0.003244909 -0.38589892 -0.6376981 0.5389509 0.084276184 0.17402014 -0.016217621
0.23729146 0.040532883 0.24277987 -0.17770812 -0.62870365 0.87913746 -0.05054217 -0.0154246455
0.5599272 0.735914 0.07053167 -0.74691117 0.8287859 0.19562054 0.4062486 0.18511182
0.4539664 0.30525243 0.5318496 -0.4995922 0.0056881704 0.7445978 -0.68014944 0.50916207
0.57952464 0.7891503 -0.087404095 0.18080625 0.39930123 0.11705757 -0.09294046 -0.2144761
0.925646 0.67903525 -0.09628528 -0.38475493 -0.9046925 -0.1617968 0.0966561 -0.79886216
0.6642096 0.290773 -0.4266846 -0.36680588 0.87316656 -0.28400424 -0.115375206 -0.20401575
-0.19967964 0.24596398 -0.13889301 0.12494667 -0.37853253 0.53329784 0.00045518402 0.30762494
0.034160744 -0.49710476 -0.42262256 -0.04448289 0.46889502 -0.089754134 -0.27107048 -0.17404385
0.83158004 0.21873939 -0.68140227 0.239878 0.21813485 -0.39645073 0.66134715 -0.70808285
0.14170748 -0.34618416 -0.23049323 -0.1758738 0.0454746 -0.03912691 0.64364463 0.83343786
-0.010644252 0.39403802 0.27034104 0.15750252 -0.3046422 0.783565 -0.7398922 0.033570472
-0.31415665 0.14053725 0.61521274 1.0563943 -0.22960326 0.051683232 -0.24480732 0.14552478
0.42004028 -0.25066882 -0.7320942 0.32586712 -0.18406509 0.62067986 -0.7815341 -0.72555625
0.785531 0.50626856 0.13711724 0.25137347 0.05363939 0.20524903 0.33091283 -0.060514145
0.70367265 0.48113096 0.36526585 -0.033931397 -0.87357676 -0.02761002 -0.037562203 -0.13025582
0.06522949 0.50549126 -0.3926926 0.50309306 -0.2108931 0.35953847 -0.7792058 0.69144136
0.51711947 -0.24163255 -0.5431668 -0.059269883 0.25908336 0.8008955 0.53175086 -0.11888789
-0.43873855 0.41513106 -0.697381 -0.57230645 -0.38971943 -0.6703107 -0.8780435 0.5364675
-0.56329745 -0.424533 0.13180412 0.3601257 -0.31238383 0.50298625 0.7797333 0.102279216
0.047511276 -0.32820824 0.035409216 -0.37359405 -0.17537907 0.25009337 0.15942559 -0.8864836
0.3328717 0.43608677 0.501915 -0.013012605 -0.66503567 -0.248606 -0.01837592 0.18497097
0.3290124 0.32574683 -0.14856964 0.3283718 0.28555045 0.067238905 -0.5337638 -0.7012172
-0.8480853 0.27078712 0.33616588 -0.11760943 0.74457055 -0.63336664 0.46209896 -0.3912464
-0.54897815 0.18356735 -0.12264688 0.03818126 0.11525481 -0.7073704 0.4350751 0.275712
-0.12263626 0.37108034 0.557897 -0.307474 -0.6712066 -0.51229906 0.32942477 0.36665577
0.5364326 -0.18932796 0.13089082 0.61088747 -0.4311437 -0.3370026 -0.3325095 -0.8142336
0.5550997 -0.042237427 0.025498657 0.017918672 0.8331117 -0.18473256 0.15746856 0.29280987
0.56328106 0.09999013 -0.16716246 0.21688439 -0.9404029 0.53296006 0.6233017 -0.18319504

fc1.bias f4 [16]
00000000: 9687 a4be cbbc 643e 148d 19bf 3a87 243e
00000010: 8a55 b0be de3a 7abe e374 613d 1dc5 603d
00000020: 46f2 b43d 14a8 fc3e 3dd3 21bf 80e3 a63e
00000030: 5dea e4bb 2644 d5bd 020c ab3d 34e6 813c
-0.32134694 0.22337644 -0.59980893 0.1606721 -0.3444026 -0.24436519 0.055043112 0.054875482
0.088352725 0.49346983 -0.6321295 0.32595444 -0.006985946 -0.10413389 0.083519 0.01585684

fc2.weight f4 [10, 16]
00000000: dd9e 653f 2443 30bf b162 25bf 4485 d9bf
00000010: 6f58 313f b075 72be a09c 8bbf 14ad ad3c
00000020: 5b15 ac3f c57d 01c0 df73 bf3e 1a5b 993f
00000030: da86 a5be a48b 9fbf 83c9 b2be 5ee8 eebf
00000040: 7d1e 173f 99a5 c8bd 7f36 24c0 e71b bf3f
00000050: 2bbb 833e 14eb 13bf 11f4 7b3e 20e1 15c0
00000060: dc35 043f e77b 603e a2d9 dfbf 9123 0fbf
00000070: 5acb b1bf a7ae f4bf 8da4 433f 7d09 f0bd
00000080: 7cba ce3e ee4c a23e 2a9c 363d 42c0 d33f
00000090: 16c2 32bf 2564 2f3e 483f 23c0 9933 50be
000000a0: 590b f63f 144c fabe 6c0a 62bf 1d4e 0940
000000b0: 2899 dfbf a23a 0b40 6753 383f 5702 713f
000000c0: 1d97 c6bf d59a a73e 402d d23f cbc3 6c3f
000000d0: 7347 573d f67f 883f a691 79bf f922 ddbf
000000e0: 5bb5 823f b367 1a3f be5b 8d3f 1e22 05bf
000000f0: 3305 873f 3c25 65be d86e 1a3f 29b0 ba3f
00000100: 82fd c53e 05e7 1a40 a44b b4be 9fe4 45bf
00000110: abf5 41bd d12b cd3f 4ba6 81be 7ee7 c2be
00000120: 80e9 0fc0 8700 d5bd 51de 80bf f117 293f
00000130: 6aeb a6bf 7e06 713f 3355 01c0 875a ecbf
00000140: a5eb bfbf 60c8 60bf d41a d4bf 713e 4bbe
00000150: 14a2 dbbf a1d5 f7be 2383 7abd 64bc 1740
00000160: f9e2 8ebf 0c67 dd3f 5f80 9f3e a495 1dbf
00000170: 5c01 ce3f dbb1 88bf ce5c 783e 6f3a 973f
00000180: 4988 02c0 828b 1abf 69c5 543e f681 513f
00000190: 8cb4 95bf e36f 30bf 9bf5 eb3f 18bb 3a3f
000001a0: 8065 f3bf 4ed1 f6bf 1745 36bd 3eca b83f
000001b0: e99d 7cbf b715 a9be 4119 383f 46df d9bf
000001c0: 770c ad3e 880d 0140 5ea1 03bc 7d09 0d3f
000001d0: fb1f 783f fad3 e7bf ee29 353f 3ace e0be
000001e0: 249f a43f 40f8 ea3e 9473 b1bf ca69 3a3f
000001f0: f620 c43f 1e85 103f eacd aabe f36d 04c0
00000200: 21cb 593f 8b0a de3e 5544 ca3f 607e 103d
00000210: 6fdf f83f 5f20 a13d c74a 8a3f ae01 8b3f
00000220: ad06 9fbf 749d 35bf 175d 693d 56fe b6bf
00000230: bd20 52bf 0324 29be 12be c23f 0f88 c73f
00000240: dd53 963f 8606 0ac0 b22e 7f3c 1cf6 b6bf
00000250: d680 f9be 1fb3 773f 0779 3f3e b158 8fbf
00000260: 2014 be3f f060 ab3f d239 35bf 2515 d8bc
00000270: 3dd4 3c3f 378e 7cbe e412 0dc0 b866 fa3e
0.8969553 -0.6885245 -0.64603716 -1.6993794 0.69275564 -0.23677707 -1.0907173 0.021200694
1.3444017 -2.0233014 0.3739309 1.1980927 -0.32329446 -1.246449 -0.34919366 -1.8664663
0.59030896 -0.0979721 -2.5658262 1.493039 0.25728735 -0.57780576 0.24604823 -2.3418655
0.5164468 0.21922265 -1.7488291 -0.55913645 -1.3890183 -1.91158 0.7642296 -0.1172056
0.4037665 0.31699318 0.044582523 1.6543047 -0.698274 0.17128046 -2.5507374 -0.20332183
1.9222213 -0.48886168 -0.8829715 2.1453927 -1.7468615 2.1754537 0.7200226 0.94144195
-1.5514866 0.32735315 1.6420059 0.92486256 0.052558374 1.066405 -0.97487867 -1.7276298
1.0211595 0.6031448 1.1043622 -0.52005184 1.0548462 -0.22377485 0.60325384 1.458501
0.38669974 2.4203503 -0.3521396 -0.77301973 -0.047353428 1.6028997 -0.25322184 -0.3806724
-2.2486267 -0.10400491 -1.0067846 0.66052157 -1.3040593 0.9415053 -2.0208251 -1.8465127
-1.4993788 -0.8780575 -1.6570687 -0.19848038 -1.7158837 -0.48405173 -0.061160218 2.3708735
-1.1163017 1.7297072 0.31152627 -0.6155646 1.6094165 -1.0679277 0.24254152 1.1814708
-2.0395682 -0.6036912 0.20778431 0.8183893 -1.1695724 -0.68920726 1.8434328 0.7294173
-1.901535 -1.9282625 -0.044499483 1.443672 -0.9867845 -0.3302438 0.71913534 -1.7021263
0.33798572 2.016451 -0.008034078 0.550926 0.969238 -1.8111565 0.70767105 -0.43907338
1.2861066 0.45892525 -1.3863397 0.7281767 1.5322559 0.5645312 -0.33360225 -2.0692108
0.85075575 0.4336742 1.5802103 0.03527677 1.9443187 0.078675024 1.080407 1.0859888
-1.2423912 -0.7094338 0.056973543 -1.4296367 -0.82081205 -0.16517644 1.5214255 1.5588397
1.1744343 -2.1566482 0.015575098 -1.4293857 -0.48731107 0.9675769 0.18698512 -1.1198941
1.4849892 1.3388958 -0.7079135 -0.02637727 0.7376135 -0.24663626 -2.204278 0.48906493

fc2.bias f4 [10]
00000000: 32b1 29bf 769d ff3c e2cb 0a3f 122c af3e
00000010: 8aca 163e 7301 913e 5af6 aebe 6d93 5e3c
00000020: 719f 29bf db13 28be
-0.66286004 0.031203013 0.5421735 0.3421331 0.147257 0.28321418 -0.34172326 0.013584954
-0.66258913 -0.16413824
