binary_ffn_3.pth (torch, 105809 bytes, 5 tensors)

fc0.weight f4 [32, 784]
0.040705975 0.0042838096 0.010112653 0.016545938 -0.06602303 -0.018017694 -0.0033879322 0.004470673
0.057744607 0.050494064 -0.026662713 -0.091885425 0.037446354 0.06932538 0.014440221 -0.08207846
0.009300846 -0.022648133 -0.08625507 -0.011545428 -0.09376977 0.011375153 -0.004858916 -0.009227456
0.014601524 -0.00056541775 -0.050513595 -0.0003749962 -0.029233033 0.04062143 0.032372806 -0.012483401
-0.0069338176 -0.011762469 -0.071340896 0.09354674 0.020543166 0.009629998 0.07268682 -0.005892483
0.11007743 0.119043276 0.25026897 0.103256516 0.1688055 0.2332951 0.25611702 0.06444685
0.23022541 0.1752474 0.06782193 0.045436 0.042413354 -0.023220753 -0.039931737 0.0152330315
-0.012069612 0.04269972 -0.028060062 0.026444947 0.14367895 0.08580715 0.12742777 0.082202144
-0.0009208197 0.057507 0.17006044 0.048354827 0.14919111 0.15460265 0.23735113 0.3152156
0.17924723 0.14545551 0.1316335 0.14202566 0.24511334 0.19889614 0.17725612 0.13176905
0.001557745 0.0061228727 -0.07594683 0.07802363 0.038616993 -0.040754937 0.032307923 0.09685745
0.27893734 -0.041860484 0.0352623 -0.09848697 -0.12819667 0.25392988 0.058286157 -0.123572186
-0.17217538 0.01113582 0.2531694 0.0035433737 -0.037759464 -0.00070666074 -0.17375478 -0.09870503
0.047600534 0.11243072 0.038087558 0.11602894 0.005031765 0.015560096 0.052439652 0.053772684
0.002738835 0.021270376 0.10686369 0.017954236 0.04802521 -0.114579864 -0.07485389 -0.008229057
0.023694294 0.24686913 -0.058660842 -0.19984186 -0.24135606 -0.101379365 -0.053695876 -0.06875933
-0.07199711 -0.040929716 -0.031971313 -0.14028715 0.054500643 -0.10681151 -0.10330416 0.099242
0.19834447 0.10197688 0.061862018 0.030426081 -0.04887943 0.0013811649 0.09490257 0.06312159
-0.05333888 -0.019886632 -0.16105162 -0.23063092 -0.026945166 0.056023117 -0.12511763 -0.23561946
-0.113157816 -0.085085295 0.15558976 0.03470956 -0.07920077 -0.107589595 -0.10276191 -0.11454528
-0.17521366 -0.1052747 -0.06563678 -0.043396957 0.07656004 0.052299563 -0.016353035 0.0709144
0.03266245 -0.15132822 -0.053630486 -0.004726214 -0.06964676 -0.008565109 -0.10686914 -0.059069876
0.13819286 -0.08699275 -0.29963517 -0.19757101 0.049612783 -0.04671258 0.026960704 -0.0585859
-0.08095688 -0.029118774 0.07825122 -0.06135326 -0.14440876 -0.09441509 -0.1021906 0.13504174
0.13936684 0.2701375 0.093042016 0.03700483 -0.008482932 -0.060480654 0.044631775 0.2665899
0.16912098 -0.01862474 0.048958253 -0.0005965929 -0.19567977 -0.045660906 -0.10310521 -0.044319995
-0.010390203 -0.055746842 -0.06685527 -0.123744756 -0.04160105 0.07142737 -0.019794699 0.0366474
0.03278886 0.10488946 0.07124754 0.037147753 0.3717094 0.29885146 0.09976769 0.04865936
0.07922428 0.03973192 0.21304265 0.08571691 0.07630293 0.0537871 0.09604379 0.008823931
-0.0130153615 -0.04635676 -0.057749208 0.008440397 0.13147481 -0.008184042 -0.10969061 -0.17662537
-0.09758495 -0.072965674 0.006490214 0.037875906 -0.1283995 -0.028000282 -0.032545567 0.16307293
0.42269254 0.4153522 0.20787518 0.029431617 0.029551314 0.33574593 0.04394805 0.08506499
00000000: 4fbb 263d 335f 8c3b 8aaf 253c 598b 873c
00000010: 1537 87bd d899 93bc 1208 5ebb b97e 923b
00000020: 9c85 6c3d ddd2 4e3d c36b dabc 6d2e bcbd
00000030: 5961 193d 77fa 8d3d ad96 6c3c c018 a8bd
00000040: 9362 183c 9488 b9bc 80a6 b0bd 0929 3dbc
00000050: 5d0a c0bd da5e 3a3c 8b37 9fbb c12e 17bc
00000060: 3b3b 6f3c 8b38 14ba 58e7 4ebd 239b c4b9
00000070: 1d7a efbc a862 263d 5999 043d 2e87 4cbc
00000080: 1435 e3bb 5fb7 40bc 2d1b 92bd 6f95 bf3d
00000090: 244a a83c 24c7 1d3c d4dc 943d bb15 c1bb
000000a0: 4770 e13d f6cc f33d 4123 803e 2778 d33d
000000b0: 59db 2c3e e9e4 6e3e c521 833e b6fc 833d
000000c0: 36c0 6b3e 0e74 333e 39e6 8a3d 191b 3a3d
000000d0: a0b9 2d3d 7339 bebc 768f 23bd f793 793c
000000e0: 9fbf 45bc e7e5 2e3d 37de e5bc 13a3 d83c
000000f0: 9320 133e a9bb af3d 6d7c 023e 9959 a83d
00000100: 2a63 71ba 768c 6b3d 5324 2e3e b60f 463d
00000110: 8ec5 183e 2850 1e3e 2d0c 733e f063 a13e
00000120: 968c 373e 4af2 143e efca 063e 2d6f 113e
00000130: fefe 7a3e 6eab 4b3e a182 353e 77ee 063e
00000140: 402d cc3a 61a2 c83b 038a 9bbd daca 9f3d
00000150: da2c 1e3d a6ee 26bd 5055 043d 335d c63d
00000160: e0d0 8e3e e675 2bbd 346f 103d 89b3 c9bd
00000170: fd45 03be 1903 823e 77bd 6e3d 6a13 fdbd
00000180: be4e 30be 0473 363c 6b9f 813e f237 683b
00000190: aba9 1abd 333f 39ba c6ec 31be dd25 cabd
000001a0: c7f8 423d 1442 e63d b301 1c3d 95a0 ed3d
000001b0: 81e1 a43b c6ef 7e3c f6ca 563d bf40 5c3d
000001c0: 077e 333b 363f ae3c 5adb da3d c314 933c
000001d0: 15b6 443d d9a8 eabd ff4c 99bd 2bd3 06bc
000001e0: 891a c23c 43cb 7c3e 5a46 70bd 58a3 4cbe
000001f0: 0b26 77be fc9f cfbd 35f0 5bbd b1d1 8cbd
00000200: 3973 93bd eba5 27bd 5af4 02bd 6fa7 0fbe
00000210: 113c 5f3d febf dabd 2291 d3bd 643f cb3d
00000220: d01a 4b3e 41d9 d03d 0763 7d3d 1e40 f93c
00000230: cc35 48bd 3408 b53a 475c c23d e445 813d
00000240: df79 5abd 4ae9 a2bc b7ea 24be 832a 6cbe
00000250: 1cbc dcbc 7f78 653d d61e 00be 3a46 71be
00000260: 49bf e7bd 3341 aebd ec52 1f3e 9d2b 0e3d
00000270: 0334 a2bd ef57 dcbd d674 d2bd b796 eabd
00000280: 366b 33be 439a d7bd 936c 86bd 02c1 31bd
00000290: 83cb 9c3d 1138 563d cdf6 85bc 923b 913d
000002a0: 10c9 053d c9f5 1abe a4ab 5bbd 5bde 9abb
000002b0: f6a2 8ebd ac54 0cbc 35de dabd 41f3 71bd
000002c0: 6e82 0d3e 4129 b2bd c869 99be 0e50 4abe
000002d0: c636 4b3d b155 3fbd b2dc dc3c c5f7 6fbd
000002e0: b8cc a5bd 7f8a eebc 2d42 a03d 8e4d 7bbd
000002f0: e4df 13be b35c c1bd 4e49 d1bd 6248 0a3e
00000300: 2eb6 0e3e 764f 8a3e d08c be3d 6092 173d
00000310: fffb 0abc 90ba 77bd cfcf 363d 797e 883e
00000320: 0d2e 2d3e e992 98bc 7388 483d ac64 1cba
00000330: 4760 48be ee06 3bbd d328 d3bd e288 35bd
00000340: ac3b 2abc cd56 64bd 6aeb 88bd e46d fdbd
00000350: dd65 2abd 8348 923d 7e28 a2bc 961b 163d
00000360: 9d4d 063d 49d0 d63d 3bea 913d 3e28 183d
00000370: b250 be3e 0f03 993e 0153 cc3d 094f 473d
00000380: 5740 a23d f0bd 223d da27 5a3e 598c af3d
00000390: b644 9c3d dd4f 5c3d 9bb2 c43d 4092 103c
000003a0: 623e 55bc 96e0 3dbd 6f8a 6cbd 9749 0a3c
000003b0: 55a1 063e 5c16 06bc 78a5 e0bd 48dd 34be
000003c0: 9eda c7bd 076f 95bd dcab d43b c423 1b3d
000003d0: 297b 03be d960 e5bc 804e 05bd 97fc 263e
000003e0: 286b d83e 0ba9 d43e 3bdd 543e 931a f13c
000003f0: 9915 f23c e4e6 ab3e df02 343d 8e36 ae3d

fc0.bias f4 [32]
0.066386074 0.0008616834 0.13946545 0.012707732 0.03499611 0.029177794 0.08173106 0.14764766
0.058693003 -0.017895008 0.1054993 -0.028837387 -0.035773564 0.1508925 0.1669394 0.1302088
-0.0030415917 -0.018140085 0.011506665 0.100807235 0.112348564 -0.095607676 0.12403974 0.061746873
0.013193246 0.021297622 0.02961973 -0.099235274 0.0008548066 0.009555504 0.090303406 0.104778506
00000000: 6cf5 873d 98e2 613a 08d0 0e3e 1734 503c
00000010: 1558 0f3d 4506 ef3c 9d62 a73d f330 173e
00000020: 1368 703d 8d98 92bc 0410 d83d 623c ecbc
00000030: 4d87 12bd 9083 1a3e 29f2 2a3e 7555 053e
00000040: 7155 47bb 849a 94bc 7386 3c3c 0674 ce3d
00000050: 0117 e63d f5cd c3bd 8c08 fe3d 4aea 7c3d
00000060: 7c28 583c 5a78 ae3c 13a5 f23c dd3b cbbd
00000070: 1a15 603a b08e 1c3c fef0 b83d 1d96 d63d

fc1.weight f4 [16, 32]
0.23624428 0.5014475 0.014334579 -0.117440276 -0.24426116 -0.2800495 -0.2989852 0.17759866
0.19257993 0.024127245 -0.5143942 0.33117196 0.49411112 -0.5329857 -0.42150417 -0.0552079
0.14956082 -0.18709321 -0.1050138 0.2579596 -0.5338138 0.15232116 0.04478713 0.19263898
-0.26562077 0.2034705 0.2913764 0.6356176 -0.13465248 0.16115172 0.11200143 -0.24207331
0.08231626 0.07205525 -0.2709931 0.3723614 0.20068635 0.0038945114 0.1603086 0.22120172
0.4329837 0.20113526 0.40891218 -0.28392738 -0.18398824 -0.45221874 0.22095574 -0.008802101
0.2293699 -0.12234691 0.12805282 -0.869683 0.45742893 0.7753176 0.10617643 -0.063924834
0.41485515 -0.12030281 -0.08476004 0.6710617 0.25388455 -0.20300421 0.46034947 0.51144534
-0.17255607 0.052876595 0.013294474 -0.1719562 -0.14681366 -0.06043986 -0.08685446 -0.32217246
0.32179835 0.18876971 0.13596684 -0.3457589 0.03676891 -0.39498433 0.59958047 0.31552452
0.10893579 -0.046063084 -0.108984396 -0.20405224 -0.13492312 0.35294175 -0.16566613 0.37539726
0.18980405 0.059708998 0.23033948 0.27152467 -0.399364 -0.14055504 0.16457538 0.33351028
0.7616024 -0.2684065 0.16933325 0.48397133 0.28134957 0.00583562 0.24991894 0.42168778
0.40692553 0.18063653 -0.1022138 -0.35473752 0.19955683 0.06509889 0.20913887 0.48139524
-0.077976756 -0.11299917 0.23841418 0.0011051006 0.57786053 -0.163658 0.28547633 0.29559582
0.46081033 0.21330449 0.1732334 -0.5218666 0.20194757 -0.4251443 -0.3440735 0.3376974
0.38126534 -0.044427454 -0.2024776 -0.21606442 0.53572875 -0.16342865 0.15925021 0.14745393
-0.23961265 -0.08100672 -0.2135516 -0.2410955 0.043963965 -0.15910383 0.069323815 -0.018379169
-0.06631745 -0.37244046 -0.25216845 -0.46681693 -0.00073280674 0.18828277 0.14464249 -0.49510592
-0.37875015 0.5659038 -0.44969124 -0.02173234 -0.43793342 -0.1408497 0.09866768 0.30006993
-0.3235631 0.5815313 -0.29458812 -0.5229926 -0.44115677 -0.15317218 -0.46428758 0.19920975
-0.67594165 -0.75126064 -0.2700215 0.5797708 -0.10412021 -0.19481766 -0.1579859 -0.090696186
-0.041075833 0.1696657 -0.15396287 0.5417313 -0.18338227 0.41481772 -0.4778033 0.12389815
-0.45038489 -0.44623002 -0.32138938 0.15785123 -0.43258706 0.17572926 -0.6903958 -0.33214226
-0.5141654 0.18020794 -0.71167517 -0.52857506 -0.104094945 -0.38215336 -0.37989926 0.19881526
-0.34227896 -0.13542546 -0.20449728 0.050491117 -0.24624656 -0.28255054 0.066878505 -0.28612706
-0.34876862 0.39115578 -0.012059752 0.42159265 -0.78732455 0.4396884 -0.34630385 -0.5132828
0.53389174 -0.53961676 -0.8322611 0.17768323 -0.39273927 -0.0015606935 -0.38034418 0.1169052
0.9943207 0.11369677 0.35933155 -0.112397835 -0.03460949 0.39824328 -0.39824942 -0.0910137
-0.36731675 0.028192084 0.14654249 0.13123254 -0.21302657 0.15055765 0.48174465 0.23394272
-0.117336534 0.37786242 0.17502484 -0.31051394 -0.042299002 -0.26447868 -0.11849358 -0.30400902
-0.6746003 0.35365766 0.32741457 -0.2722363 -0.07303509 0.23360987 0.51474595 0.19980597
00000000: 05ea 713e dd5e 003f 95db 6a3c 8784 f0bd
00000010: 991f 7abe a662 8fbe 9714 99be 6cdc 353e
00000020: ac33 453e 80a6 c53c 57af 03bf 5f8f a93e
00000030: 22fc fc3e c071 08bf 65cf d7be ae21 62bd
00000040: 7926 193e 5d95 3fbe 7a11 d7bd 4813 843e
00000050: 05a8 08bf 14fa 1b3e b672 373d 2743 453e
00000060: 72ff 87be 925a 503e 4a2f 953e d6b7 223f
00000070: 57e2 09be f504 253e 0161 e53d 11e2 77be
00000080: 6d95 a83d b491 933d 9cbf 8abe 27a6 be3e
00000090: b980 4d3e 0f3b 7f3b f027 243e b482 623e
000000a0: 0ab0 dd3e 67f6 4d3e f05c d13e ee5e 91be
000000b0: 6a67 3cbe 3789 e7be 3942 623e b036 10bc
000000c0: f1df 6a3e 0491 fabd 4720 033e 8ca3 5ebf
000000d0: 2034 ea3e 377b 463f 0773 d93d 06eb 82bd
000000e0: e567 d43e 5261 f6bd ac96 adbd b3ca 2b3f
000000f0: 28fd 813e 56e0 4fbe edb2 eb3e 15ee 023f
00000100: 8ab2 30be 2195 583d 11d1 593c 4915 30be
00000110: 5256 16be c98f 77bd c0e0 b1bd caf3 a4be
00000120: c1c2 a43e d94c 413e e43a 0b3e 4f07 b1be
00000130: ff9a 163d 633b cabe 1b7e 193f 6e8c a13e
00000140: ba19 df3d a5ac 3cbd 3633 dfbd 12f3 50be
00000150: 4929 0abe c8b4 b43e 62a4 29be 1234 c03e
00000160: fe5b 423e 6c91 743d 1dde 6b3e 4805 8b3e
00000170: 7079 ccbe a9ed 0fbe 7386 283e dcc1 aa3e
00000180: 60f8 423f 946c 89be b265 2d3e 17cb f73e
00000190: 0d0d 903e bb38 bf3b c0ea 7f3e 76e7 d73e
000001a0: 8b58 d03e c8f8 383e 7855 d1bd 28a0 b5be
000001b0: a058 4c3e 9152 853d 8028 563e 7079 f63e
000001c0: 47b2 9fbd 1c6c e7bd d922 743e 06d9 903a
000001d0: abee 133f f695 27be f429 923e 5658 973e
000001e0: 55ef eb3e 7e6c 5a3e 1964 313e 0d99 05bf
000001f0: 58cb 4e3e 84ac d9be 672a b0be ace6 ac3e
00000200: 3635 c33e 90f9 35bd 4a56 4fbe fe3f 5dbe
00000210: 8525 093f d759 27be 7d12 233e 2afe 163e
00000220: 055d 75be dae6 a5bd 45ad 5abe bde1 76be
00000230: 8f13 343d 1dec 22be a5f9 8d3d e98f 96bc
00000240: 71d1 87bd 84b0 bebe 391c 81be a102 efbe
00000250: d419 40ba 33cd 403e 291d 143e 867e fdbe
00000260: 8aeb c1be 12df 103f ee3d e6be 0508 b2bc
00000270: cf38 e0be e73a 10be 4812 ca3d c4a2 993e
00000280: 10aa a5be 3cdf 143f 41d4 96be d8e2 05bf
00000290: 4ddf e1be 2bd9 1cbe 1ab7 edbe a4fd 4b3e
000002a0: 830a 2dbf 9e52 40bf 4240 8abe dc6b 143f
000002b0: fa3c d5bd 487e 47be 0ec7 21be ecbe b9bd
000002c0: 223f 28bd d8bc 2d3e 71a8 1dbe e7ae 0a3f
000002d0: 90c8 3bbe fd62 d43e a2a2 f4be 50be fd3d
000002e0: d998 e6be 4378 e4be 268d a4be c1a3 213e
000002f0: 0d7c ddbe 5ff2 333e c7bd 30bf 8d0e aabe
00000300: 58a0 03bf 6e88 383e 5830 36bf b250 07bf
00000310: bb2f d5bd 9ba9 c3be 2882 c2be 3a96 4b3e
00000320: 303f afbe f9ac 0abe bc67 51be c6cf 4e3d
00000330: 0f28 7cbe 77aa 90be 99f7 883d 3f7f 92be
00000340: cd91 b2be 9245 c83e 4496 45bc feda d73e
00000350: 1a8e 49bf d71e e13e bd4e b1be 8066 03bf
00000360: 21ad 083f 5324 0abf 100f 55bf 98f2 353e
00000370: 1f15 c9be 2f90 ccba 79bc c2be fe6b ef3d
00000380: cd8b 7e3f dad9 e83d 4efa b73e d630 e6bd
00000390: aec2 0dbd 8be6 cb3e 59e7 cbbe 6465 babd
000003a0: f110 bcbe 16f3 e63c 3c0f 163e d361 063e
000003b0: a323 5abe c92b 1a3e 3ca7 f63e ae8e 6f3e
000003c0: 234e f0bd 2f77 c13e b639 333e affb 9ebe
000003d0: b841 2dbd c069 87be c3ac f2bd 12a7 9bbe
000003e0: 9bb2 2cbf 9e12 b53e e2a2 a73e 8e62 8bbe
000003f0: 6c93 95bd 6d37 6f3e 64c6 033f f099 4c3e

fc1.bias f4 [16]
-0.1756209 0.13484108 0.017063549 -0.12234778 0.041722015 0.133083 0.26144218 -0.0582142
0.056570753 -0.20990257 0.06065199 0.14490521 -0.06403115 0.102086864 -0.03828849 -0.068807766
00000000: f7d5 33be c813 0a3e dbc8 8b3c 7991 fabd
00000010: b4e4 2a3d e946 083e c0db 853e 0372 6ebd
00000020: bcb6 673d b3f0 56be 396e 783d 0862 143e
00000030: c322 83bd eb12 d13d 64d4 1cbd 16eb 8cbd

fc2.weight f4 [1, 16]
0.4746745 0.58471894 0.31507057 -0.5009182 -0.42484587 0.69133645 0.49123994 -0.734282
-0.66160613 -0.43417716 0.6251666 -0.9260285 -0.2616168 0.6638738 0.31538454 -0.6891164
00000000: 8908 f33e 24b0 153f ee50 a13e 2d3c 00bf
00000010: 6685 d9be 6dfb 303f cd83 fb3e e8f9 3bbf
00000020: 055f 29bf 784c debe eb0a 203f 3410 6dbf
00000030: a3f2 85be a2f3 293f 157a a13e ef69 30bf
