binary_ffn.pth (torch, 105785 bytes, 5 tensors)

fc0.weight f4 [32, 784]
0	0xbd17a162	-0.03701914
1	0xbc5c5d8b	-0.013450037
2	0x3c829733	0.015941238
3	0xbc01ce86	-0.007922774
4	0xbd0b8529	-0.03406254
5	0xbd867705	-0.0656567
6	0xbd50bc2b	-0.0509607
7	0xbd8c1fa0	-0.068419695
8	0xbd865ee9	-0.065610714
9	0xbcd872db	-0.026421955
10	0x3daecc02	0.08535005
11	0x3db0c79f	0.08631825
12	0x3cedc70d	0.029025579
13	0x3bb5bbc6	0.005546066
14	0x3d189bf9	0.037258122
15	0xbb4e7592	-0.0031503183
16	0x3cf80fdf	0.030281005
17	0x3d957419	0.072975345
18	0xbca34073	-0.019928193
19	0x3d6362b7	0.055514064
20	0x3be589af	0.0070049386
21	0x3c869dd9	0.01643269
22	0xbcecfeaa	-0.028930027
23	0x3d26ac17	0.04069146
24	0x3c0bccb5	0.008532693
25	0xbd9d6e60	-0.07687068
26	0xbdb2cbd4	-0.087302834
27	0xbdc18049	-0.094482966
28	0x3d346e23	0.044050347
29	0xbd9ce7b1	-0.07661379
30	0xbd4a388a	-0.049370326
31	0xbca2cc1e	-0.019872721
32	0xbd1dca80	-0.038523197
33	0x3d992e6b	0.07479557
34	0xbd37f244	-0.044908777
35	0x3b570ecf	0.0032815223
36	0x3cc6c610	0.024264365
37	0xbcfe8d07	-0.031073106
38	0xbc4464b7	-0.011986903
39	0xbdf7c0cd	-0.12097321
40	0x3c7d37ca	0.015455196
41	0xbd8ed8cf	-0.06974947
42	0xbce13b68	-0.027494147
43	0xbd7558b8	-0.059899062
44	0xbbf067cf	-0.0073365937
45	0x3ba6d1e9	0.005090941
46	0xbdd5afc6	-0.10433917
47	0x3ac484b2	0.001499316
48	0xbc3ee884	-0.011652116
49	0x3cfaef57	0.030631704
50	0xbd214641	-0.03937364
51	0x3d48d570	0.049031675
52	0x3cba22f3	0.022721743
53	0xbca51841	-0.020153167
54	0xbbb6f250	-0.005583085
55	0xbd4fa058	-0.050690025
56	0x3e06a653	0.13149385
57	0xbcfd4e18	-0.030921027
58	0xbc9aecca	-0.018911738
59	0x3d779b94	0.060451105
60	0xbc650b09	-0.013979682
61	0xbcb33584	-0.021876104
62	0x3c3fa381	0.011696697
63	0x3db7314b	0.08944949
64	0x3be84c74	0.007089192
65	0xbe63bf6c	-0.2224099
66	0xbe872b58	-0.26400256
67	0xbe926a3b	-0.28596672
68	0xbe4d1e4b	-0.20031087
69	0xbcef2b3e	-0.029195424
70	0x3cb348f5	0.021885375
71	0xbe14eb20	-0.14542818
72	0xbd2e720b	-0.04258923
73	0xbdd911d8	-0.105991066
74	0xbe0f4adb	-0.13993399
75	0xbdff4c4f	-0.124657266
76	0xbdaa7b46	-0.08324294
77	0xbd0ec83b	-0.034858923
78	0xbe504ddb	-0.203422
79	0xbe19107c	-0.14947695
80	0xbd7c68ce	-0.061623387
81	0x3dcb7a01	0.0993538
82	0x3d1c0abe	0.038096182
83	0x3d109aaf	0.035303768
84	0x3c812b3d	0.015767688
85	0x3d69ae28	0.057050854
86	0x3b1d8919	0.0024038015
87	0xbdd7eb64	-0.10542944
88	0xbc90fba7	-0.017698122
89	0xbdce27b0	-0.100661635
90	0xbd22ec82	-0.039776333
91	0xbe0a8cf7	-0.13530336
92	0xbc08af4c	-0.008342575
93	0x3d67fe9e	0.056639306
94	0xbcd832c2	-0.02639139
95	0xbdc21bdb	-0.09477969
96	0xbd9308b8	-0.07179397
97	0xbd123ea3	-0.035704266
98	0xbda91f91	-0.08257974
99	0x3e070872	0.13186815
100	0xbd04c31e	-0.03241264
101	0xbc16c2cd	-0.009201718
102	0xbe190d0b	-0.14946382
103	0xbe0bb37f	-0.13642691
104	0xbc0f5c41	-0.008750022
105	0xbdd3f1ac	-0.103488296
106	0xbdd8c7c6	-0.10584979
107	0xbd94991d	-0.072557665
108	0xbd89a8f9	-0.06721682
109	0xbcd14363	-0.025544828
110	0x3e12c203	0.14331822
111	0xb99ee4d5	-0.00030306602
112	0xbcaa7689	-0.020808475
113	0xbd1feb2a	-0.03904263
114	0xbd895497	-0.06705587
115	0x3d3b32e9	0.04570285
116	0xbd81bddb	-0.0633504
117	0xbd971547	-0.07377105
118	0x3dd6f4e5	0.10495929
119	0x3e29e3cf	0.16590808
120	0x3d5cab2b	0.053874176
121	0x3e12b7eb	0.14327972
122	0x3e67b023	0.22625785
123	0x3a32365c	0.00067982613
124	0x3d64e479	0.05588195
125	0xbd68d94d	-0.05684786
126	0xbd4da1df	-0.0502032
127	0xbb9f91b4	-0.004869664
128	0x3ba87314	0.0051406715
129	0xbcb87250	-0.022515446
130	0xbd20bc7a	-0.039242245
131	0x3d911c04	0.07085422
132	0x3db70dac	0.089381546
133	0x3d52751d	0.05138122
134	0xbd9f616a	-0.07782252
135	0x3d83a498	0.06427878
136	0x3de3ec56	0.11129062
137	0xbd6feaf7	-0.05857369
138	0xbcf853d3	-0.030313408
139	0x3d16e7ec	0.03684227
140	0x3d1d9cc3	0.038479578
141	0xbd985249	-0.0743757
142	0xbcd6d348	-0.026223794
143	0xbded753b	-0.115946256
144	0xbe8e39b3	-0.27778396
145	0xbd0d1edb	-0.034453254
146	0x3dea7bb4	0.11449376
147	0x3c21c929	0.0098746205
148	0x3ddc4e04	0.10757068
149	0x3df0c22b	0.117557846
150	0x3d25d639	0.0404875
151	0x3d3429d7	0.043985214
152	0xbd9174f4	-0.07102385
153	0xbde84292	-0.11340822
154	0xbdfadbae	-0.12248932
155	0xbe2952d5	-0.16535504
156	0xbde777c8	-0.11302143
157	0x3d1037dc	0.03520952
158	0xbc73a396	-0.014870545
159	0xbdf16079	-0.11785979
160	0xbe3e1a93	-0.18564825
161	0xbd3e7fd4	-0.046508625
162	0x3d961504	0.07328227
163	0x3dab60ae	0.083680496
164	0x3dda8e98	0.10671729
165	0x3e035075	0.1282366
166	0x3d3c931d	0.046038736
167	0x3c8db28a	0.017297048
168	0xbd7d152d	-0.061787773
169	0xbccc24da	-0.024919916
170	0x3d517d1e	0.05114471
171	0xbdf66b6c	-0.12032208
172	0xbdbc5edc	-0.091977805
173	0x3dd07575	0.10178653
174	0x3d75d3bc	0.06001638
175	0x3e3451be	0.17609307
176	0x3e071b57	0.13194023
177	0x3e1c1edd	0.15246148
178	0x3df67f3a	0.12035985
179	0xbd1df897	-0.038567152
180	0xbe40373d	-0.18771072
181	0xbe243df1	-0.16039254
182	0x3c940221	0.018067421
183	0xbd893e19	-0.06701297
184	0xbdaa873b	-0.083265744
185	0xbd4e46a2	-0.05036033
186	0xbcf9d521	-0.030497136
187	0xbd69ac71	-0.05704922
188	0xbdc78188	-0.09741503
189	0xbbe56bc5	-0.0070013725
190	0x3e005e7e	0.12536046
191	0x3d9265d6	0.0714833
192	0x3e2f8e3d	0.17144103
193	0x3d64bfb2	0.055846877
194	0x3e0c2b21	0.13688327
195	0xbd98a078	-0.07452482
196	0x3bd8078f	0.006592698
197	0xbcf4ec14	-0.029897727
198	0x3c520dcc	0.012820672
199	0xbe86f940	-0.26362038
200	0xbc008f8f	-0.007846727
201	0x3e020557	0.1269735
202	0x3d9b88e2	0.07594468
203	0x3e19a270	0.15003371
204	0x3e89c71e	0.26909727
205	0x3e101c96	0.14073405
206	0x3e0e63e0	0.13905287
207	0xbd95bb99	-0.07311172
208	0xbe844f90	-0.2584195
209	0xbdd4aa30	-0.10384023
210	0x3c740634	0.014894057
211	0x3da501f9	0.08057017
212	0x3d5cc36a	0.0538973
213	0xbd803c0d	-0.06261454
214	0xbd6c27fb	-0.057655316
215	0x3cb0a9f5	0.021565417
216	0x3bcb4a11	0.0062038978
217	0xbd110b58	-0.03541121
218	0xbcaba4c3	-0.020952588
219	0xbc525d5a	-0.01283964
220	0x3ce260dd	0.027634079
221	0xbe04b73c	-0.12960523
222	0x3e04e073	0.12976246
223	0x3daccbdf	0.08437323
224	0xbbc01eee	-0.005863062
225	0x3d3023ed	0.04300301
226	0xbd9ffd1c	-0.07811949
227	0xbe3ff688	-0.18746388
228	0xbd716ac0	-0.058939695
229	0x3cb20478	0.021730646
230	0x3e3ddf9e	0.18542334
231	0xbd0641b6	-0.03277751
232	0x3e63205b	0.22180311
233	0x3e372086	0.178835
234	0x3cb78523	0.022402352
235	0xbd16720d	-0.03672986
236	0xbe15ad07	-0.14616786
237	0x3cc0542a	0.023477633
238	0x3db75367	0.089514546
239	0x3dfcb5cf	0.12339365
240	0x3d82aa08	0.06380087
241	0x3d16a3a6	0.03677716
242	0xbcf49d1c	-0.029860072
243	0xbccbd9b7	-0.024884088
244	0x3d72dd52	0.0592931
245	0x3d3f371e	0.046683423
246	0x3cb0472c	0.021518312
247	0xbc520b6e	-0.012820108
248	0x3da98fba	0.08279367
249	0xbddc6b32	-0.107626334
250	0x3e803efb	0.2504805
251	0x3ddcffdc	0.10790989
252	0xbd409e82	-0.047026165
253	0xbb4e835d	-0.0031511404
254	0x3c4d5410	0.012532249
255	0xbe47ccab	-0.19511668

fc0.bias f4 [32]
0	0x3d159b62	0.036525138
1	0x3dfe26ff	0.12409782
2	0x3d34c7db	0.04413591
3	0xba559873	-0.0008148022
4	0xbdf0bc88	-0.117547095
5	0x3bae84c7	0.005325887
6	0x3d58051d	0.05273925
7	0x3d4c53d2	0.049884625
8	0xbc482128	-0.012214936
9	0x3cad8881	0.021183254
10	0xbcf56c33	-0.02995882
11	0xbd69c580	-0.057073116
12	0x3b9ab472	0.004721218
13	0xbc999e53	-0.018752253
14	0xba66fdf5	-0.0008811646
15	0x3bf23bd0	0.007392384
16	0xbda9bf82	-0.0828848
17	0x3d6e80c1	0.058228258
18	0xbd46d36e	-0.04854148
19	0xbd29940d	-0.041400958
20	0x3c485cb9	0.012229138
21	0xbc4f8f83	-0.012668493
22	0x3c494ea9	0.01228682
23	0x3cdf400a	0.027252216
24	0x3ce5eb91	0.028066428
25	0x3e236720	0.15957308
26	0xbd529c9a	-0.05141888
27	0x3e5961de	0.2122874
28	0x3ca7b060	0.020469844
29	0xbcc3dbd9	-0.023908542
30	0x3d723cde	0.05914008
31	0xbe0668de	-0.13125941

fc1.weight f4 [16, 32]
0	0xbea1c7f0	-0.31597853
1	0x3f0eabbf	0.55730814
2	0x3d2d79dd	0.042352546
3	0x3e6b31e2	0.22968248
4	0x3e2e3363	0.1701179
5	0x3e8c456d	0.27396718
6	0xbda7d924	-0.08195713
7	0xbeefb736	-0.46819466
8	0xbbe1e9b8	-0.0068943165
9	0xbeb8e4f9	-0.36112192
10	0x3e34683d	0.17617889
11	0x3f27c3dc	0.6553323
12	0xbe915a16	-0.28389043
13	0x3f01468c	0.5049827
14	0xbe6283bb	-0.22120564
15	0x3e72bfa7	0.23705922
16	0xbf201fc4	-0.6254847
17	0xbf028abb	-0.50992936
18	0x3eb23363	0.3480483
19	0x3f28f23c	0.6599462
20	0x3d151509	0.036397014
21	0x3e2372ff	0.15961836
22	0x3f016efb	0.5055997
23	0xbd9d14db	-0.076699935
24	0x3ef37721	0.47551826
25	0xbe0688a8	-0.13138068
26	0x3e3c6027	0.18396054
27	0xbe2dff23	-0.16991858
28	0x3e66091d	0.22464414
29	0x3cfe9af3	0.031079745
30	0x3c06bc10	0.0082235485
31	0xbea7492a	-0.32673007
32	0x3e807a1f	0.2509317
33	0x3eb05663	0.34440908
34	0xbe6fce7d	-0.23418613
35	0xbe5cfce9	-0.21580853
36	0xbefcdb6a	-0.4938615
37	0xbe405800	-0.1878357
38	0x3eaff386	0.3436548
39	0x3f0b3dd5	0.54391223
40	0xbe3a17d4	-0.18173152
41	0x3e44851b	0.191914
42	0xbe9feb1a	-0.31234056
43	0xbdb1685c	-0.08662483
44	0xbec4e816	-0.38458318
45	0xbe9bb8ea	-0.30414516
46	0x3e6ed458	0.2332319
47	0x3d68fb6a	0.056880392
48	0x3eae5b95	0.34054247
49	0x3e71e71a	0.23623314
50	0x3d8cae47	0.06869178
51	0xbf097a39	-0.5370212
52	0x3c0f7180	0.008755088
53	0x3e51f572	0.20503786
54	0x3e17dabe	0.14829537
55	0xbd807d05	-0.062738456
56	0xbdf6236b	-0.12018474
57	0x3e7aea89	0.2450353
58	0xbd95d51d	-0.07316039
59	0x3e163064	0.14666897
60	0xbe036b35	-0.12833865
61	0xbeaa6f79	-0.33288172
62	0x3e8be462	0.2732268
63	0xbee2b04d	-0.44275132
64	0x3f188877	0.5958323
65	0xbca1014d	-0.01965394
66	0xbc7c0a06	-0.015383249
67	0x3d2e7ec4	0.042601362
68	0xbf451a91	-0.7699366
69	0xbf588fbe	-0.84594333
70	0x3f168028	0.587893
71	0x3ee8c775	0.45464674
72	0xbe934d4e	-0.28769916
73	0x3e110f86	0.14166078
74	0x3e217979	0.15768994
75	0xbeacc19a	-0.33741456
76	0x3ec35df8	0.3815763
77	0xbf18e2a4	-0.59720826
78	0x3ec85316	0.3912589
79	0xbecefcef	-0.40427348
80	0xbe25c0b3	-0.1618679
81	0x3f68c85a	0.9093071
82	0xbeec178e	-0.4611172
83	0xbeaa3e9c	-0.33250892
84	0xbe11a1eb	-0.14221923
85	0xbeadb45d	-0.3392667
86	0xbb6ddb4f	-0.0036294048
87	0x3e85fb43	0.2616826
88	0xbe683823	-0.22677664
89	0x3f11cb53	0.56950873
90	0xbccbe8e9	-0.024891334
91	0x3f2d2d61	0.6764737
92	0x3eb44301	0.3520737
93	0x3e26a4ba	0.16273776
94	0x3f064866	0.5245422
95	0xbeda8f66	-0.4268753
96	0xbe11f332	-0.14252928
97	0x3ed45a84	0.41475308
98	0x3ed248f0	0.41071272
99	0xbd9829d0	-0.0742985
100	0x3f3132fc	0.6921842
101	0x3d922f29	0.07137901
102	0xbe856aa2	-0.26057917
103	0xbea3a50d	-0.3196186
104	0xbf055b26	-0.52092206
105	0x3e28d44d	0.16487236
106	0xbeafe5d3	-0.3435503
107	0x3f8bd352	1.0923865
108	0xbcdf303f	-0.027244685
109	0xbdb269cd	-0.08711586
110	0xbe24083c	-0.16018766
111	0x3f46439c	0.77446914
112	0xbe68ad9c	-0.22722477
113	0xbe6b2d3a	-0.22966471
114	0x3e86271d	0.26201716
115	0x3edd5778	0.43230796
116	0x3dd0fc31	0.10204352
117	0xbe5350d0	-0.20636296
118	0x3f300414	0.6875622
119	0x3e6b68ab	0.22989146
120	0x3efec04b	0.49756083
121	0xbe0c3dbd	-0.13695426
122	0x3da71ca9	0.08159763
123	0xbf2c740a	-0.6736456
124	0x3d1de68e	0.038549952
125	0xbecef0af	-0.40418002
126	0x3e651216	0.2237018
127	0x3d63767a	0.05553291
128	0x3d82dc51	0.06389678
129	0x3eb1c5eb	0.34721312
130	0x3eb68ff6	0.35656708
131	0x3cb05b79	0.021527993
132	0x3f0c00d0	0.5468874
133	0x3db1db03	0.08684351
134	0xbe503e26	-0.20336208
135	0xbee9841b	-0.456086
136	0xbeef1369	-0.46694496
137	0x3eac26ce	0.33623356
138	0xbd617ae4	-0.05504884
139	0xbe932090	-0.2873578
140	0xbe4a975a	-0.19784299
141	0x3f659d72	0.8969337
142	0xbe8e1a02	-0.27754217
143	0x3f16afbc	0.588619
144	0xbeaa9b36	-0.33321542
145	0x3dd75510	0.10514271
146	0x3e0bb4de	0.13643214
147	0x3f2087ff	0.62707514
148	0x3e3b2cbc	0.18278784
149	0x3c91a80b	0.017780324
150	0x3e84dedc	0.25951278
151	0x3ec5b26a	0.38612682
152	0x3f38f4aa	0.7224833
153	0xbe8bde43	-0.2731801
154	0x3f1e291f	0.61781496
155	0xbf328466	-0.69733274
156	0xbe18d43a	-0.14924708
157	0xbe6bde85	-0.23034103
158	0xbea4c855	-0.3218409
159	0xbac34a3e	-0.0014899445
160	0x3f35001e	0.70703304
161	0x3ca010eb	0.019539317
162	0xbdefdd6c	-0.11712155
163	0x3c5a9600	0.013341427
164	0x3e633590	0.22188401
165	0xbde8fa08	-0.11375815
166	0xbe831bac	-0.2560705
167	0x3cbc4495	0.022981921
168	0xbdc10b38	-0.09425968
169	0x3d06dfdf	0.032928344
170	0x3e8587d8	0.26080203
171	0xbd57d415	-0.05269249
172	0xbe1fe92e	-0.15616295
173	0xbc34f5a3	-0.0110448925
174	0xbee1298b	-0.43977007
175	0x3d251825	0.04030623
176	0xbc3c1408	-0.011479385
177	0xbcdc127f	-0.026864288
178	0xbe417c27	-0.18895017
179	0xbd280bfd	-0.041027058
180	0xbf048f16	-0.5178083
181	0x3df12b02	0.11775781
182	0xbe554980	-0.2082882
183	0xbcb05605	-0.021525392
184	0xbed03fab	-0.40673575
185	0xbece8ad9	-0.40340307
186	0x3e58c121	0.21167423
187	0xbefbeb91	-0.4920316
188	0xbe652eb3	-0.22381096
189	0xbe636098	-0.22204816
190	0xbe1bb2be	-0.15204903
191	0xbe61affc	-0.22039789
192	0xbf0e79d9	-0.55654675
193	0xbe2e0432	-0.16993788
194	0xbe59ce04	-0.21269995
195	0xbea7a6e0	-0.32744503
196	0x3ebc7440	0.36807442
197	0x3e959c06	0.292206
198	0xbddf477d	-0.10902307
199	0x3ded83cb	0.11597403
200	0x3d68ed5c	0.05686699
201	0x3c3379da	0.010954345
202	0xbe89bcf4	-0.26901972
203	0xbd4d1803	-0.050071727
204	0x3eb75bbd	0.35812178
205	0xbf0039d8	-0.5008826
206	0xbe2b4b7c	-0.16728014
207	0x3dea91d1	0.114535935
208	0xbe03ce66	-0.12871704
209	0xbee9ded1	-0.45677808
210	0x3d8ffbc8	0.07030445
211	0x3e54a295	0.20765145
212	0xbd063ea9	-0.0327746
213	0x3d45c7e2	0.048286326
214	0x3ea8332b	0.32851538
215	0xbe80ca6b	-0.25154433
216	0x3ec102af	0.3769736
217	0xbe7173fa	-0.23579398
218	0xbe08551e	-0.1331372
219	0x3e95aee7	0.29235002
220	0x3db72c61	0.089440115
221	0xbe4786c3	-0.19485001
222	0x3c4cc6ac	0.012498539
223	0x3f1864ee	0.59529006
224	0xbe8bb4ed	-0.27286473
225	0x3e0b50f3	0.13605098
226	0xbe17a649	-0.14809527
227	0xbed1f970	-0.41010618
228	0xbedb10c4	-0.4278623
229	0xba442ec2	-0.0007483774
230	0x3f43db3e	0.7650641
231	0xbea1d48d	-0.31607476
232	0xbe2c086b	-0.16800086
233	0x3e62117f	0.22076987
234	0xbe176ee9	-0.14788403
235	0x3e8d1b61	0.2755995
236	0xbc0575ee	-0.008145792
237	0xbeac78b2	-0.33685833
238	0x3ee153aa	0.44009143
239	0x3e9098da	0.28241616
240	0x3e44f75a	0.19234982
241	0xbd9e2043	-0.07720997
242	0xbe217e73	-0.15770893
243	0xbe9b6994	-0.30353987
244	0xbd4f7abf	-0.05065417
245	0x3ce68b54	0.028142609
246	0x3ef7a8ee	0.4837107
247	0xbc6232cb	-0.013806055
248	0x3e81d49e	0.25357527
249	0x3d303bb7	0.0430257
250	0xbca9aef5	-0.020713309
251	0x3dcfefae	0.10153137
252	0xbedbba53	-0.42915592
253	0x3e463c89	0.1935903
254	0xbe055f3e	-0.13024613
255	0xbf504ba4	-0.8136542

fc1.bias f4 [16]
0	0x3e09ac88	0.13444722
1	0x3e2fefa2	0.17181256
2	0x3e3b4b12	0.18290356
3	0xbdf5ef6a	-0.12008555
4	0xbd87a8be	-0.06623982
5	0xbe008e28	-0.12554228
6	0xbdc084f2	-0.09400357
7	0x3da3186d	0.07963643
8	0x3e7ee444	0.24891764
9	0x3e792da9	0.24333824
10	0x3d5a5c2a	0.05331055
11	0x3e184b1f	0.14872406
12	0x3d31e886	0.043434642
13	0x3d5d638a	0.054050006
14	0x3e6ee366	0.23328933
15	0x3ae05a1b	0.0017116697

fc2.weight f4 [1, 16]
0	0xbf275d44	-0.6537669
1	0x3f4999d6	0.7875036
2	0x3f69d827	0.9134545
3	0xbf202ad2	-0.6256534
4	0xbf4cca99	-0.7999664
5	0x3ec4ed6c	0.3846239
6	0xbc4582e7	-0.012055135
7	0x3ebf78b5	0.3739678
8	0x3ed32ad7	0.41243622
9	0x3f05f6f2	0.52329934
10	0xbf714d9a	-0.94259036
11	0xbf4af14b	-0.79274434
12	0x3f0d262c	0.5513637
13	0x3f2aff58	0.66795874
14	0x3f163381	0.5867234
15	0x3f02c2db	0.51078576
