binary_ffn_8.pth (torch, 105809 bytes, 5 tensors)

fc0.weight f4 [32, 784]
0	0xbd17c166	-0.037049673
1	0xbcb266c7	-0.021777524
2	0x3d3c7a35	0.046014983
3	0xbd2f8f9a	-0.04286156
4	0x3c80d5e0	0.015726984
5	0x3d122dc0	0.03568816
6	0x3d1dd6d0	0.03853494
7	0x3e0a5eee	0.13512775
8	0xbd43287b	-0.047646027
9	0x3be688f3	0.0070353686
10	0x3c4193eb	0.011815052
11	0x3d61f8d7	0.055168953
12	0x3cc71ea6	0.024306607
13	0x3bdb12a1	0.0066855703
14	0x3912cd67	0.00014000163
15	0x3d119217	0.035539713
16	0xbca76a75	-0.020436505
17	0xbd3d3d10	-0.046200812
18	0xbd92d9a2	-0.071704164
19	0x3c46abc0	0.012125909
20	0x3ce32cce	0.027731325
21	0xbc8b6977	-0.017018063
22	0x3d17d291	0.037066046
23	0x3dc94379	0.098273225
24	0xbd6f6630	-0.058447063
25	0x3d85922a	0.06522019
26	0x3cb578ed	0.022152388
27	0x3e09ba3b	0.13449948
28	0xbd7ab303	-0.061205875
29	0xbcfa95d5	-0.030589024
30	0xbd5a4c74	-0.053295568
31	0x3da5cbc3	0.08095505
32	0xbd072e7a	-0.033003308
33	0x3d779bfb	0.06045149
34	0x3c536b86	0.012904054
35	0xbd1995f9	-0.03749654
36	0x3c6dd766	0.014516687
37	0xbdc82bc3	-0.09773972
38	0xbda4e7f3	-0.08052053
39	0xbc89fe84	-0.016844995
40	0x3c0d9204	0.00864077
41	0x3cea3ccf	0.028593449
42	0xbc0515e8	-0.008122899
43	0xbd2cad54	-0.042157486
44	0xbb906693	-0.004406759
45	0x3dd90ed0	0.105985284
46	0xbb854a14	-0.0040676687
47	0x3d26f216	0.040758215
48	0x3cbb962e	0.02289876
49	0x3caeb350	0.021325737
50	0xbd0ee4da	-0.03488622
51	0xbd3c5de3	-0.045987975
52	0x3bd7394b	0.006568109
53	0xbd3e1e1d	-0.046415437
54	0x3d00dc2b	0.03145997
55	0x3caa8adc	0.020818166
56	0xbccc6d9c	-0.02495461
57	0xbda2043b	-0.07910963
58	0x3d863627	0.065532975
59	0x3d4d88d1	0.050179306
60	0xbd934b64	-0.07192114
61	0x3d5a892d	0.053353477
62	0x3cde1425	0.027109215
63	0xbd33e7cc	-0.04392223
64	0x3d946064	0.072449476
65	0xbdd4cff7	-0.10391229
66	0xbb888f88	-0.004167501
67	0xbc999994	-0.01874999
68	0xbb07879c	-0.0020680195
69	0xbd9b0a60	-0.07570338
70	0x3d563106	0.052292846
71	0xbd8733b3	-0.06601658
72	0xbc133c1b	-0.008986498
73	0x3cbce2c4	0.023057349
74	0x3deded67	0.116175465
75	0xbdceb02c	-0.10092196
76	0x3cb5ec06	0.022207271
77	0x3d1023e3	0.035190474
78	0xb9df7ff0	-0.00042629195
79	0x3d6cee50	0.05784446
80	0xba525086	-0.0008022863
81	0xbd8f56fe	-0.06999014
82	0xbd2352aa	-0.039873756
83	0x3c26b82c	0.010175746
84	0xbd789dac	-0.060697243
85	0xbc12d1d5	-0.008961161
86	0xbbf144f5	-0.0073629566
87	0x3c26ea8c	0.010187756
88	0xbd2e4968	-0.042550474
89	0x3ab0d8ca	0.0013492343
90	0xbc86c588	-0.016451612
91	0x3c4b4475	0.012406458
92	0x3a0e6b45	0.00054328545
93	0xbd05a0f5	-0.032624204
94	0x3c683323	0.014172348
95	0xbc9d9be8	-0.019239381
96	0xbdb70327	-0.08936148
97	0xbca2ac2b	-0.019857487
98	0xbce358b9	-0.027752267
99	0x3bb9f589	0.005675022
100	0x3d0cd6c0	0.03438449
101	0x3d90a52b	0.07062753
102	0xbcf67720	-0.0300861
103	0xbd5d9cfa	-0.054104783
104	0xbda45f62	-0.08026005
105	0xbd2ec849	-0.042671476
106	0x3c807f47	0.01568569
107	0x3d30124d	0.042986203
108	0xbc0b4a99	-0.008501672
109	0x3c09cc63	0.008410546
110	0xbcd87e3e	-0.026427384
111	0xbc47d005	-0.012195592
112	0x3d80649f	0.06269192
113	0xbbf16c44	-0.0073676426
114	0x3c12efb5	0.008968283
115	0x3ca38f74	0.019965865
116	0x3caedb8f	0.021344928
117	0xbd97b31e	-0.07407211
118	0x3cf32202	0.029679302
119	0xbdee6f87	-0.11642366
120	0xbd19cce7	-0.037548926
121	0xbbfecb74	-0.0077757183
122	0x3c7840c5	0.015152161
123	0xbc7e6aa9	-0.015528359
124	0xbc4b059b	-0.012391473
125	0xbd011815	-0.031517107
126	0xbce44223	-0.027863568
127	0x3c2494db	0.010045256
128	0x3d82c29b	0.06384774
129	0xbdac2d5a	-0.084070876
130	0x3cb9db00	0.022687435
131	0xbd5ec49d	-0.054386724
132	0xbc710501	-0.014710666
133	0xbd0b7408	-0.034046203
134	0xbd32aa1d	-0.043619264
135	0xbdbfc4bd	-0.09363697
136	0xbd993f5c	-0.07482788
137	0xbd2530c7	-0.04032972
138	0xbd848534	-0.06470719
139	0x3d163b32	0.036677547
140	0x3d0674fc	0.03282641
141	0xbd76b052	-0.060226746
142	0xbdb58ab8	-0.08864349
143	0xbd2c439b	-0.04205666
144	0xbcbb3f3c	-0.022857301
145	0x3d4637b6	0.048392974
146	0xbda9edf2	-0.082973376
147	0xbac21f8b	-0.0014810426
148	0xbd2af14c	-0.041734025
149	0xbc1482f5	-0.009064426
150	0x3da76b01	0.08174706
151	0x3cb53820	0.022121489
152	0xbd6c7186	-0.057725452
153	0x3d28b382	0.041186817
154	0x3a97304e	0.0011534782
155	0x3c0a95e3	0.008458587
156	0x3b1d16dd	0.0023969926
157	0x3b00ee25	0.0019673195
158	0x3d6113b8	0.054950446
159	0xbcc625d7	-0.024187965
160	0x3c865663	0.016398614
161	0x3d68c165	0.05682506
162	0xbba92053	-0.005161324
163	0xbc4400d6	-0.01196309
164	0xbcb7fafc	-0.022458546
165	0xbc55d8fd	-0.013052222
166	0x3d53f592	0.051747866
167	0x3c8ccb57	0.017186804
168	0x3dda69a6	0.10664682
169	0x3d5f65e3	0.054540526
170	0x3cc42cb7	0.023947103
171	0x3d665195	0.056230146
172	0xbca56c65	-0.020193288
173	0xbc747a53	-0.0149217425
174	0xbd1e9e58	-0.038725227
175	0xbd6d3dd6	-0.0579203
176	0xbd238d00	-0.03992939
177	0x3dd086da	0.10181971
178	0xbd39b3c2	-0.045337446
179	0x3c7ff842	0.015623154
180	0xbc82075f	-0.015872655
181	0x3c12db23	0.008963379
182	0x3cda6274	0.026658274
183	0xbd1ba757	-0.038001385
184	0xbc4d7fe5	-0.012542699
185	0xbd383e58	-0.04498133
186	0x3da6d748	0.081465304
187	0x3a88ebad	0.0010446213
188	0xbcd7fa6f	-0.026364533
189	0xbd911d70	-0.07085693
190	0x3d50eb61	0.051005725
191	0xbddef39f	-0.10886311
192	0x3d434579	0.047673676
193	0x3de6c465	0.11267928
194	0xbc915b09	-0.017743604
195	0x3c034e40	0.008014262
196	0x3c003f7a	0.007827634
197	0xbdb88c75	-0.09011165
198	0xbda756aa	-0.08170827
199	0x3c54ec8b	0.012995849
200	0xbcba1593	-0.022715366
201	0xbc6396f1	-0.013890968
202	0x3d281620	0.041036725
203	0x3c135c3d	0.008994159
204	0xbcb93e4d	-0.022612715
205	0xbc892289	-0.0167401
206	0xbdf62fbc	-0.12020823
207	0x3b517c5f	0.0031965
208	0xbc8fd5c0	-0.017557979
209	0xbd795675	-0.060873467
210	0xbd8d4d2a	-0.068994835
211	0x3d08ad59	0.033368442
212	0xbdb829f8	-0.0899238
213	0x3bbd60f1	0.0057793786
214	0xbd588d98	-0.05286941
215	0xbd59b61a	-0.05315218
216	0x3cfe09f3	0.031010604
217	0xbd0c9ba4	-0.034328118
218	0xbd73cc28	-0.05952087
219	0xbd131703	-0.035910618
220	0xbca999e3	-0.020703262
221	0x3a894b19	0.0010474651
222	0xbd0ff6d7	-0.035147514
223	0x3d3532fb	0.044238072
224	0xbbff8971	-0.0077983667
225	0xbcf7736d	-0.030206406
226	0x3ca1c62d	0.019747818
227	0x3cbe193b	0.02320539
228	0x3d974ac6	0.07387309
229	0xbe0a3943	-0.13498406
230	0xbd692907	-0.056923892
231	0x3dd672f9	0.10471148
232	0xbbdd597e	-0.006755053
233	0x3db6fbf6	0.089347765
234	0xbc1f9300	-0.009739637
235	0xbd13f6a5	-0.03612389
236	0xbd5d8e87	-0.054091003
237	0xbce78836	-0.028263193
238	0xbce99cf6	-0.028517228
239	0xbcc6ba6c	-0.024258815
240	0x3c47622e	0.012169404
241	0x3d1d0533	0.038335036
242	0xbd7c0c2c	-0.061535046
243	0x3c3e556b	0.011617045
244	0xbd5eefef	-0.054428037
245	0x3d818315	0.0632383
246	0xbc9ed371	-0.019387932
247	0xbd78cc74	-0.060741857
248	0x3d26b8df	0.04070365
249	0x3cfeddb9	0.031111585
250	0xbd986bba	-0.07442422
251	0x3d031573	0.032002877
252	0xbced5b54	-0.028974213
253	0xbdbb4b53	-0.09145226
254	0x3d65f69b	0.056143384
255	0xbd0a4085	-0.033752937

fc0.bias f4 [32]
0	0x3c5acc73	0.013354409
1	0xbd1609b9	-0.036630366
2	0x3daf5b05	0.085622825
3	0x3bdfe953	0.0068332343
4	0xbd917496	-0.07102315
5	0xbd52035f	-0.051272746
6	0xbcf003d5	-0.029298702
7	0xbd27aa3c	-0.040933833
8	0x3d89379d	0.067000605
9	0x3d9ed373	0.077551745
10	0x3e4ab18a	0.19794288
11	0x3d38d566	0.045125388
12	0x3e41e006	0.18933114
13	0xbb4ced4e	-0.0031269374
14	0x3e2a965e	0.16658923
15	0xbd0d1d5c	-0.034451827
16	0x3d23fd9e	0.04003679
17	0xbd96da7f	-0.073658936
18	0x3bb87de1	0.0056302403
19	0xbc80333c	-0.01564943
20	0xbc96b94b	-0.018398901
21	0x3de97b3f	0.114004605
22	0xbce80686	-0.028323423
23	0x3dbffb70	0.0937413
24	0x3e89cf4f	0.26915976
25	0x3dfe637e	0.124213204
26	0xbc9d1da9	-0.019179182
27	0x3d1ef5fb	0.038808804
28	0xbc95b069	-0.018272595
29	0x3db7cc14	0.08974472
30	0xbbb8bb96	-0.0056375964
31	0x3d90e847	0.070755534

fc1.weight f4 [16, 32]
0	0xbdec7693	-0.11546054
1	0x3e6807ea	0.22659269
2	0x3f4a5c91	0.79047495
3	0xbecb7c66	-0.39743346
4	0x3f08e6d9	0.53477246
5	0xbe02ba92	-0.12766483
6	0x3e2e160b	0.17000596
7	0x3f29868a	0.66220915
8	0x3c8712ba	0.016488422
9	0x3f2b4ae2	0.6691114
10	0x3e1fd3ac	0.1560809
11	0x3e8a54ec	0.27017915
12	0x3ec34802	0.38140875
13	0xbe3eb2b5	-0.18622859
14	0x3f1756e5	0.59116966
15	0xbda2921f	-0.07938027
16	0x3eb1fdac	0.3476385
17	0x3f488a19	0.7833572
18	0x3df7130a	0.12064178
19	0xbe8655e6	-0.2623741
20	0x3e08d692	0.13363102
21	0x3ed4810f	0.41504714
22	0x3d8bb7c8	0.06822163
23	0x3f6b23d7	0.9185156
24	0x3de6f3ad	0.11276946
25	0x3f2e88e2	0.68177617
26	0x3e5fc4ba	0.21852389
27	0xbddd534c	-0.10806903
28	0xbd89ce3a	-0.06728788
29	0x3dfcc37d	0.12341974
30	0xbf313f4b	-0.692372
31	0xbe9d1bef	-0.30685374
32	0x3e82f74f	0.25579306
33	0xbe942f0e	-0.2894215
34	0xbe5295ee	-0.20565006
35	0x3ef4c093	0.47803172
36	0xbf25510c	-0.6457679
37	0x3e05d60c	0.13069934
38	0x3e4b18ca	0.19833675
39	0xbea5b7a3	-0.32366666
40	0x3ed0652a	0.40702182
41	0xbe38283e	-0.17984101
42	0xbc4ac632	-0.012376355
43	0x3cd8e224	0.02647502
44	0xbe9b1eec	-0.3029703
45	0xbcd68725	-0.026187489
46	0xbed94631	-0.42436364
47	0xbeba595e	-0.36396307
48	0xbe94010e	-0.28907055
49	0xbe29e4fa	-0.16591254
50	0x3e6805bf	0.22658442
51	0x3df8e360	0.12152743
52	0x3db0fc5b	0.08641883
53	0xbf1b2a77	-0.6061167
54	0x3d52b887	0.05144551
55	0xbf2aa98e	-0.6666497
56	0x3e58ee6f	0.21184705
57	0xbeec0f2f	-0.46105334
58	0x3e21c41d	0.15797468
59	0xbea1e14d	-0.31617203
60	0x3e960451	0.29300168
61	0xbe16469e	-0.14675376
62	0xbebd16cf	-0.36931464
63	0x3e1f6621	0.15566303
64	0xbe99d185	-0.30042663
65	0x3eda301d	0.42614833
66	0x3f38d7cb	0.72204274
67	0xbe702c37	-0.23454367
68	0x3f1a2231	0.6020842
69	0x3daf10b7	0.0854811
70	0xbe108d32	-0.14116362
71	0x3f5a7a70	0.85343075
72	0xbdabb4d4	-0.083840996
73	0x3de99402	0.114051834
74	0x3f01502e	0.5051297
75	0x3f84b800	1.0368652
76	0x3f5419a0	0.828516
77	0xbb6b3e1b	-0.0035895172
78	0x3e61e409	0.22059645
79	0x3c822d41	0.01589072
80	0x3da3f0b0	0.08004892
81	0x3e39585a	0.1810011
82	0x3dd64270	0.10461891
83	0xbe10379d	-0.14083715
84	0x3e81a020	0.25317478
85	0x3f370a90	0.7150049
86	0x3ce18baf	0.027532427
87	0x3e8cd7cf	0.275084
88	0x3ea4b3e2	0.3216849
89	0x3ef27d15	0.47361055
90	0x3c888a36	0.016667467
91	0x3d7d956c	0.061910078
92	0x3ea1d0fa	0.3160475
93	0xbe08e5c0	-0.13368893
94	0x3d47c698	0.048773378
95	0xbe6f503f	-0.23370455
96	0x3f1760ac	0.59131885
97	0x3e9b9d5b	0.3039349
98	0x3edc4357	0.43020126
99	0xbf12ecc4	-0.57392526
100	0x3f5552a3	0.8332922
101	0x3ce25c2c	0.027631842
102	0xbc04c895	-0.008104463
103	0xbc4c79d8	-0.012480222
104	0x3e0f72ed	0.14008684
105	0x3f08ffb4	0.5351517
106	0x3e46b941	0.19406606
107	0x3e33c490	0.17555451
108	0x3f20dac5	0.62833816
109	0x3ccd377b	0.02505087
110	0x3d9138f6	0.070909426
111	0xbc2bddfc	-0.010489937
112	0x3ecaa2d1	0.39577344
113	0x3f25d708	0.64781237
114	0xbdb9cb27	-0.09071951
115	0xbd82afbf	-0.06381177
116	0xbdbbc5cd	-0.09168587
117	0x3f12f7fc	0.57409644
118	0x3e73e9f3	0.23819713
119	0x3f5373fe	0.82598865
120	0x3e8197e8	0.25311208
121	0x3ec43981	0.38325122
122	0x3ec7e520	0.39041996
123	0x3e9ff8b5	0.31244436
124	0x3e99b925	0.30024067
125	0x3e4ce6f7	0.20009981
126	0x3e6dd852	0.23227051
127	0xbe37819f	-0.1792054
128	0xbcc5a373	-0.02412579
129	0xbecb7092	-0.39734322
130	0xbeb5f2d9	-0.3553684
131	0xbe1191ff	-0.1421585
132	0xbf24d087	-0.6438069
133	0x3e9baf61	0.3040724
134	0x3b39624e	0.0028287354
135	0xbe7e92ac	-0.24860638
136	0x3df0e688	0.1176272
137	0xbea9af97	-0.33141777
138	0x3f39b73c	0.7254522
139	0xbeef56d9	-0.46745947
140	0xbf23263d	-0.6373022
141	0x3df027fc	0.117263764
142	0xbf5bce61	-0.85861784
143	0x3e11c210	0.14234185
144	0xbecec28d	-0.40382805
145	0xbf15c50f	-0.5850381
146	0x3de57ba4	0.11205223
147	0x3d389c38	0.045070857
148	0x3e540bc6	0.20707616
149	0xbeea253d	-0.45731536
150	0x3e155744	0.1458407
151	0xbf2440f5	-0.64161617
152	0x3e80a74f	0.25127646
153	0x3e2a4377	0.16627298
154	0x3d9b08c3	0.075700305
155	0xbec30daf	-0.38096377
156	0x3cd4cf69	0.025977807
157	0xbe15eade	-0.14640376
158	0xbe5d346f	-0.21602033
159	0x3e3768c4	0.17911059
160	0x3e08ed1f	0.13371705
161	0x3e82cdb4	0.25547564
162	0x3e9e1c7c	0.30881107
163	0xbdf55647	-0.11979347
164	0x3e8a9d8a	0.27073318
165	0x3e10b30d	0.14130802
166	0x3cedd006	0.029029857
167	0x3ebc0034	0.36718905
168	0xbe914084	-0.28369534
169	0x3e46796a	0.19382253
170	0x3edf48e2	0.43610293
171	0x3f3e0c4d	0.7423752
172	0x3f21374e	0.62975013
173	0xbc5cee5b	-0.013484563
174	0xbcc387f2	-0.023868535
175	0xbef6f86f	-0.48236415
176	0xbc517923	-0.012785229
177	0x3dd0b7ba	0.10191293
178	0xbf25b9fe	-0.64736927
179	0xbe93dc93	-0.28879222
180	0x3d5e1d33	0.054227065
181	0x3df292e2	0.11844422
182	0xbe71f4d5	-0.23628552
183	0x3f05016e	0.51955307
184	0xbda4474c	-0.08021411
185	0x3e5438fd	0.20724864
186	0x3dbb14c5	0.09134821
187	0x3e059b89	0.13047613
188	0x3dc00fe5	0.09378032
189	0x3f444dfe	0.76681507
190	0xbe4a7568	-0.1977135
191	0xbe587d76	-0.2114161
192	0xbe14b02c	-0.14520329
193	0xbd86c221	-0.06579996
194	0x3d9caeb2	0.07650508
195	0xbf2d8ff8	-0.67797804
196	0xbe1ad682	-0.1512089
197	0xbd515235	-0.05110379
198	0x3dd50877	0.10402005
199	0x3e0bb4fb	0.13643257
200	0x3db9292c	0.09041056
201	0xbe576a3d	-0.2103662
202	0xbe24fbb4	-0.16111642
203	0x3eb4133f	0.35170934
204	0x3dcb7fa8	0.09936458
205	0x3e8e74f4	0.27823603
206	0xbea0f235	-0.3143479
207	0x3d6df437	0.05809423
208	0xbdd3bddf	-0.103389494
209	0x3e1f8c3b	0.15580837
210	0x3c945f19	0.018111752
211	0x3e6c34a4	0.23066956
212	0xbe8e6817	-0.2781379
213	0xbf0d1817	-0.55114883
214	0x3c467e44	0.012115065
215	0xbc3fdf94	-0.01171102
216	0xbe7354b7	-0.23762785
217	0xbeb70e71	-0.35753205
218	0xbea93ac6	-0.33052653
219	0x3dd988b9	0.10621781
220	0x3d0e01b0	0.034669578
221	0xbef46c20	-0.47738743
222	0x3e92a190	0.28638887
223	0x3d926fc4	0.07150224
224	0x3da73809	0.08164985
225	0xbec38f87	-0.3819544
226	0xbe81b2a7	-0.25331613
227	0xbe2b0042	-0.16699317
228	0xbec8088b	-0.39069018
229	0x3dbf144f	0.093300454
230	0x3eb6f05c	0.35730255
231	0xbe828824	-0.25494492
232	0x3d79d5a8	0.060994774
233	0xbe31cf68	-0.17364275
234	0xbda4cc17	-0.080467395
235	0xbeba60e2	-0.3640204
236	0xbd33f99d	-0.04393922
237	0x3d3864b7	0.045017924
238	0xbedd9d4a	-0.43284065
239	0xbe1d845d	-0.15382524
240	0x3deba0de	0.11505292
241	0xbe469d2c	-0.19395894
242	0xbe805466	-0.2506439
243	0xbdb485bb	-0.088145696
244	0x3dfe896c	0.12428555
245	0xbefa9537	-0.48941967
246	0x3e1451a2	0.14484265
247	0xbe80a3b9	-0.2512491
248	0x3e4ca0d8	0.19983232
249	0xbe8b8306	-0.272484
250	0x3e557b07	0.20847712
251	0xbdd90195	-0.10596005
252	0x3e1b3fc2	0.1516104
253	0x3dafaea2	0.085782304
254	0x3e4c4826	0.19949397
255	0x3e60f1d4	0.2196725

fc1.bias f4 [16]
0	0x3cc02463	0.02345485
1	0x3e171607	0.14754497
2	0xbddc170c	-0.10746583
3	0xbe50d01f	-0.20391892
4	0xbc089ddc	-0.008338418
5	0x3e412fbf	0.1886587
6	0x3ca46f69	0.020072656
7	0x3e8f053b	0.27933678
8	0x3db0c0a2	0.08630492
9	0xbda3dd74	-0.08001223
10	0x3db12775	0.08650104
11	0x3e6e110f	0.23248695
12	0xbe384983	-0.17996792
13	0xbd59ecc2	-0.053204305
14	0x3cc73fc5	0.0243224
15	0x3d6897a4	0.05678524

fc2.weight f4 [1, 16]
0	0xbf28076b	-0.6563632
1	0x3f14b861	0.5809384
2	0xbedf4af9	-0.43611887
3	0xbec1332b	-0.3773435
4	0x3f196d4a	0.59932387
5	0xbea9e045	-0.33178917
6	0x3e1f4f33	0.15557556
7	0x3ed3a111	0.4133382
8	0xbf6229e4	-0.8834517
9	0xbf311289	-0.6916891
10	0x3f067033	0.5251495
11	0x3f013188	0.50466204
12	0xbea1b66f	-0.31584498
13	0x3f34ae19	0.7057815
14	0x3eeca75f	0.46221444
15	0x3ed5190b	0.4162067
