binary_ffn_7.pth (torch, 105809 bytes, 5 tensors)

fc0.weight f4 [32, 784]
-0.035144687 -0.021208093 0.011204392 0.05308094 -0.057430115 0.07133074 -0.0043914425 0.001405454
0.021192443 0.0025235612 0.025395345 -0.00056733226 0.027053788 -0.00870566 0.040072028 0.022459121
-0.091041796 0.034942433 -0.004978394 -0.009296892 0.024756592 -0.033336665 -0.13104418 0.034977786
0.05471347 0.0123587465 0.10025802 0.04966255 -0.0054879095 0.09150241 0.0011495865 0.039940055
-0.063115366 0.040833168 0.033017002 -0.015304679 0.04416819 -0.07277486 -0.029171344 -0.02781732
-0.004402505 -0.10493293 -0.033935733 0.01603526 -0.098214276 -0.028544635 0.08027866 -0.040399186
0.03941301 0.047700316 0.008802613 -0.100105844 -0.0154348295 -0.041991223 0.06774161 0.034267657
-0.006886247 -0.017281452 0.0067966497 -0.10509068 -0.02307529 0.0029352058 0.10979031 0.18402494
-0.028531123 0.059711304 0.029757397 -0.034090653 -0.12903945 0.027510334 -0.043578945 0.07845984
0.037708495 -0.04184328 0.071572475 -0.0738453 0.024317333 0.020977216 0.0035885486 -0.02180276
0.07746727 -0.07476752 -0.07767662 -0.035178658 -0.06949905 0.0042908704 0.029914252 0.052675918
0.1075527 -0.13122582 -0.13516535 -0.0571391 -0.07686506 0.003862183 -0.0990962 -0.22030917
-0.2216282 -0.07495099 -0.02145918 -0.010477474 0.15896147 0.0073845633 0.0237784 0.017875876
0.050706424 0.053093955 0.02405601 0.0076062162 -0.027768377 0.0022969875 -0.019838475 0.033368837
0.052577585 0.0010868184 0.058374465 0.25408444 0.12299766 -0.1572012 -0.1094728 -0.18672392
-0.22625338 -0.3130086 -0.42164236 -0.003586536 -0.051375683 -0.085868254 -0.14335842 -0.08511146
-0.3193311 -0.21034886 -0.30729204 -0.24248894 -0.18280748 0.18637641 0.010300678 -0.010422247
-0.12993386 0.028878251 -0.14643066 0.012356496 0.029692693 -0.07308316 -0.10500211 -0.02329874
0.03889251 0.24802284 0.20014769 0.08696724 0.15620656 0.19789533 -0.0060961656 -0.098257415
-0.05735462 0.022570668 0.080573685 -0.019779582 0.028813396 -0.24224356 -0.015947154 -0.09614335
-0.25707883 -0.063707 -0.19512992 -0.25291252 -0.021090526 -0.023063285 -0.0035361033 0.15012704
0.037866775 -0.030243946 0.10851137 0.12443717 -0.07977427 0.14249139 0.14735462 0.12444534
0.03773987 0.06606165 0.117402755 0.07460049 0.08013801 0.029141968 0.07342646 0.16245341
0.061636347 0.106058635 -0.06827351 0.009122644 0.07190587 0.02118544 0.042924117 -0.035871077
0.08869989 0.045202192 0.16234013 0.1287126 0.0042104083 0.027787173 0.10332425 0.32114232
-0.3657724 -0.11894441 -0.101338826 0.013298385 -0.11031542 0.045105677 0.17118818 0.053000353
0.113685526 0.094214395 0.070025355 0.1259501 0.19803084 0.22325855 -0.013966233 0.0973773
0.18419816 0.07297059 0.17606597 0.11612547 -0.11593712 -0.20195827 0.021390118 -0.08854069
-0.069715165 -0.02420194 -0.015225834 -0.017468244 -0.24296878 0.083147004 0.041248318 -0.010737334
0.111172535 0.07392881 0.061286952 -0.019530144 0.07227946 0.009002854 0.16206723 0.15690137
0.1529276 0.07793212 0.108671926 0.06626652 0.11225867 0.025175918 0.13879125 0.20634156
-0.10177062 -0.29136652 -0.047600035 -0.031929042 0.02977955 -0.16587238 0.064310536 -0.09424283
00000000: e0f3 0fbd 98bc adbc a092 373c 666b 593d
00000010: d73b 6bbd da15 923d 17e6 8fbb 3637 b83a
00000020: c69b ad3c 5562 253b e609 d03c 06b9 14ba
00000030: e89f dd3c 2fa2 0ebc 9122 243d 31fc b73c
00000040: 1f74 babd cc1f 0f3d cc21 a3bb fe51 18bc
00000050: 56ce ca3c 078c 08bd 7230 06be de44 0f3d
00000060: 3b1b 603d 577c 4a3c 1454 cd3d f56a 4b3d
00000070: ecd3 b3bb 9e65 bb3d b9ad 963a 2f98 233d
00000080: a142 81bd ae40 273d d63c 073d 7ac0 7abc
00000090: b4e9 343d fc0a 95bd bef8 eebc 26e1 e3bc
000000a0: e342 90bb 13e7 d6bd 3200 0bbd 615c 833c
000000b0: 9124 c9bd 70d6 e9bc 2369 a43d 9e79 25bd
000000c0: 896f 213d 6861 433d d638 103c 4b04 cdbd
000000d0: 5ee2 7cbc fdfe 2bbd 1dbc 8a3d 3e5c 0c3d
000000e0: 07a6 e1bb d591 8dbc 6eb6 de3b c839 d7bd
000000f0: 6408 bdbc 955c 403b bed9 e03d 0971 3c3e
00000100: 1aba e9bc d793 743d c9c5 f33c a4a2 0bbd
00000110: eb22 04be 5a5d e13c d67f 32bd 8daf a03d
00000120: 3974 1a3d dc63 2bbd 9794 923d 343c 97bd
00000130: 2535 c73c 69d8 ab3c db2d 6b3b b49b b2bc
00000140: 29a7 9e3d b71f 99bd eb14 9fbd 7f17 10bd
00000150: 8555 8ebd 6e9a 8c3b bc0e f53c b4c2 573d
00000160: 9744 dc3d 1060 06be c968 0abe b00a 6abd
00000170: 6e6b 9dbd ae1c 7d3b f3f2 cabd ba98 61be
00000180: 81f2 62be e87f 99bd 2acb afbc b6a9 2bbc
00000190: ccc6 223e 35fa f13b ebca c23c 6e70 923c
000001a0: 8ab1 4f3d 0c79 593d 1c11 c53c 913d f93b
000001b0: 827a e3bc 0e89 163b 4c84 a2bc c3ad 083d
000001c0: 985b 573d 9373 8e3a 101a 6f3d 5b17 823e
000001d0: 32e6 fb3d 5af9 20be 4633 e0bd 8e34 3fbe
000001e0: f7ae 67be aa42 a0be 82e1 d7be 170c 6bbb
000001f0: 4f6f 52bd b2db afbd 8dcc 12be eb4e aebd
00000200: 5e7f a3be b165 57be 6255 9dbe 054f 78be
00000210: e231 3bbe 75d9 3e3e 2dc4 283c 13c2 2abc
00000220: 620d 05be 1592 ec3c ebf1 15be e772 4a3c
00000230: 173e f33c a0ac 95bd 590b d7bd 00dd bebc
00000240: c14d 1f3d b3f9 7d3e 84f3 4c3e e11b b23d
00000250: 9df4 1f3e 13a5 4a3e 58c2 c7bb 2f3b c9bd
00000260: aeec 6abd 1fe6 b83c d103 a53d ca08 a2bc
00000270: 120a ec3c b20e 78be 9ba3 82bc cee6 c4bd
00000280: d69f 83be d178 82bd 23d0 47be c07d 81be
00000290: 0ac6 acbc 37ef bcbc f8bd 67bb e7ba 193e
000002a0: 311a 1b3d 27c2 f7bc 363b de3d ead8 fe3d
000002b0: b160 a3bd 43e9 113e 21e4 163e 33dd fe3d
000002c0: 1f95 1a3d 554b 873d db70 f03d 24c8 983d
000002d0: 661f a43d 23bb ee3c 9d60 963d 305a 263e
000002e0: 6576 7c3d 4535 d93d fbd2 8bbd 2477 153c
000002f0: 6343 933d 168d ad3c 33d1 2f3d 8ded 12bd
00000300: 4aa8 b53d ef25 393d 7e3c 263e 3ccd 033e
00000310: 77f7 893b eda1 e33c aa9b d33d c46c a43e
00000320: 8546 bbbe 2099 f3bd bb8a cfbd 78e1 593c
00000330: 0ded e1bd bbc0 383d f44b 2f3e e616 593d
00000340: f5d3 e83d 7af3 c03d 7469 8f3d 10f9 003e
00000350: 99c8 4a3e e49d 643e a0d2 64bc c06d c73d
00000360: 719e 3c3e 9b71 953d a34a 343e 31d3 ed3d
00000370: 7170 edbd 26ce 4ebe 543a af3c d254 b5bd
00000380: d3c6 8ebd 2643 c6bc c775 79bc 9019 8fbc
00000390: cfcc 78be fa48 aa3d fff3 283d a5eb 2fbc
000003a0: 6dae e33d fd67 973d 0708 7b3d aefd 9fbc
000003b0: 4107 943d b580 133c f4f4 253e c1aa 203e
000003c0: 0e99 1c3e e09a 9f3d 638f de3d beb6 873d
000003d0: e0e7 e53d ba3d ce3c 4b1f 0e3e 344b 533e
000003e0: 1d6d d0bd fe2d 95be 41f8 42bd 07c8 02bd
000003f0: 3ef4 f33c 73da 29be 3eb5 833d 6302 c1bd

fc0.bias f4 [32]
0.006848294 0.10976127 0.12708285 0.0074538174 0.057334214 0.14779274 0.17978224 0.09420232
-0.012498806 -0.021714859 -0.03273796 -0.024748364 -0.041457303 0.20208332 0.118834995 0.1686155
0.09533965 0.012490393 -0.047171265 0.17588209 -0.17321077 0.1031347 0.11084137 0.13617365
0.15201925 0.18339954 0.16101909 0.14388463 0.018906599 0.054488044 0.069649294 0.004657851
00000000: a767 e03b 84ca e03d 0222 023e 273f f43b
00000010: 48d7 6a3d fb56 173e d618 383e 25ed c03d
00000020: cbc7 4cbc 5ce3 b1bc 3d18 06bd 15bd cabc
00000030: 22cf 29bd eeee 4e3e c35f f33d 8ba9 2c3e
00000040: 6f41 c33d 81a4 4c3c a836 41bd 6f1a 343e
00000050: 2a5e 31be 4938 d33d cd00 e33d 1b71 0b3e
00000060: efaa 1b3e 17cd 3b3e 30e2 243e 7e56 133e
00000070: 03e2 9a3c db2e 5f3d 4aa4 8e3d e3a0 983b

fc1.weight f4 [16, 32]
0.20140481 -0.27971 0.302892 0.27857077 0.27915183 -0.30517554 0.12259213 -0.5120158
0.18209691 0.14636458 -0.10275288 -0.16972089 0.054293424 0.65446424 0.3001611 0.22092433
0.3895887 -0.40906763 -0.14783819 0.50900507 -0.10983313 0.09228859 -0.2724905 0.05288042
0.08176311 0.20168585 0.885069 0.100597255 -0.3623367 0.93417346 0.054897077 -0.07991358
-0.17553473 0.20094724 0.14651512 0.26461458 -0.252306 0.1418453 0.3884508 0.059741423
-0.14673142 -0.023480779 -0.064478986 -0.50060105 0.44139424 0.24476077 0.5103748 0.022267904
0.5741634 0.13911475 0.052115932 0.020219034 -0.010046692 -0.15020373 -0.4816359 -0.19389468
0.51932234 0.18611065 0.76522493 -0.019239465 -0.2555066 0.21838701 0.49963388 -0.10334578
-0.25350326 0.15718935 0.22352758 -0.2312324 -0.04508178 -0.23645714 -0.45980275 0.27322626
-0.2366922 0.15173835 0.14417285 -0.0029602912 0.43764004 0.16348216 -0.31552243 -0.5270756
0.3103988 -0.19024184 -0.034648787 0.5111196 0.12775658 -0.18846974 0.7386911 0.0011131503
0.26341024 0.3653552 -0.25426865 0.15601373 -0.34897417 -0.4625758 0.2966937 -0.067244664
-0.33839005 0.0135824885 -0.020804767 0.00084788864 0.029813956 0.15792195 -0.1940498 -0.22544584
-0.3234315 -0.027532488 0.6513728 0.012125999 -0.11177652 -0.20045646 0.421391 0.2609982
-0.7361176 -0.3698857 0.16747712 -0.05301789 -0.002620184 0.08408156 -0.11628112 -0.4005135
-0.016650537 -0.033566255 -0.014064211 -0.22757332 -0.19119051 0.060069043 -0.098963216 -0.051852122
-0.07826255 0.06662704 -0.39327878 -0.5987876 -0.5061254 0.25736657 -0.37872046 0.44311312
-0.34532627 0.3780957 0.53141373 0.058963273 0.009357549 -0.16880675 -0.19608274 -0.41695088
0.13761309 -0.22959532 0.300375 0.60623616 -0.017254082 0.5083898 0.70930845 -0.24746501
0.20762183 0.18905263 -0.13678986 0.1566329 -0.12096059 -0.6674258 0.39123526 -0.26746672
-0.42191327 -0.045538213 -0.52269685 -0.046072803 -0.07167077 -0.21032922 -0.25060582 0.29547766
-0.030229764 0.058952693 -0.08439483 0.22676559 0.20075369 0.25591907 -0.058048964 -0.18043835
-0.13003646 -0.3404329 0.012174253 0.018430976 -0.1393892 -0.32618394 -0.11974439 -0.21312673
-0.15800834 0.073453054 0.07747043 -0.33010325 -0.111755 -0.3374686 -0.04315126 -0.10944892
-0.04068887 0.35751843 0.18068299 0.24184161 -0.012912577 0.46939364 0.21269858 -0.3041074
-0.16551365 0.11830333 -0.046917636 -0.4218355 -0.19967452 0.29534197 0.6148334 -0.4104289
0.76209587 -0.14996192 -0.4525662 0.3325393 -0.10037105 0.5544092 -0.38017714 0.38581845
0.075929 0.40061772 0.8737809 0.24320439 -0.14160433 0.0074194698 0.16177906 0.49207994
0.13776165 0.2447562 0.13607739 0.22739586 -0.32123658 -0.045746885 0.28904676 -0.09527301
0.098672524 0.34527543 0.559739 0.16454722 -0.16246998 -0.3823729 -0.68967396 0.2511839
-0.49350783 -0.033447567 -0.4974157 -0.28739157 0.27622947 0.027816365 0.069510624 0.20002389
0.010711009 0.28392366 -0.7478327 -0.26222742 -0.21737245 -0.4179975 -0.3061194 -0.5214894
00000000: 103d 4e3e 2636 8fbe a914 9b3e d4a0 8e3e
00000010: fdec 8e3e f83f 9cbe 9511 fb3d 7813 03bf
00000020: 9d77 3a3e 99e0 153e 1a70 d2bd 50cb 2dbe
00000030: c862 5e3d f88a 273f b7ae 993e fd39 623e
00000040: 2c78 c73e 5071 d1be e562 17be 284e 023f
00000050: 31f0 e0bd cd01 bd3d e083 8bbe 2499 583d
00000060: 6b73 a73d bc86 4e3e e293 623f ef05 ce3d
00000070: 3284 b9be fe25 6f3f c2db 603d bba9 a3bd
00000080: 60bf 33be 1dc5 4d3e 0f08 163e 907b 873e
00000090: 412e 81be e53f 113e 06e3 c63e 6cb3 743d
000000a0: c340 16be c35a c0bc 8f0d 84bd 6427 00bf
000000b0: 6dfe e13e 91a2 7a3e eca7 023f 2e6b b63c
000000c0: 5ffc 123f 1974 0e3e 8477 553d 63a2 a53c
000000d0: e19a 24bc 02cf 19be fb98 f6be 548c 46be
000000e0: 4ff2 043f ca93 3e3e c8e5 433f 159c 9dbc
000000f0: c3d1 82be d8a0 5f3e 03d0 ff3e f4a6 d3bd
00000100: 2ecb 81be 3ff6 203e 6ae4 643e 30c8 6cbe
00000110: aca7 38bd d221 72be 446b ebbe 50e4 8b3e
00000120: 715f 72be 4c61 1b3e 0ca2 133e 7201 42bb
00000130: 5b12 e03e de67 273e 288c a1be 6dee 06bf
00000140: 97ec 9e3e c2ce 42be e3eb 0dbd bcd8 023f
00000150: 9fd2 023e 36fe 40be dc1a 3d3f 20e7 913a
00000160: b5dd 863e d60f bb3e 802f 82be 10c2 1f3e
00000170: beac b2be bcd6 ecbe 3de8 973e 92b7 89bd
00000180: 7641 adbe 1689 5e3c c26e aabc d844 5e3a
00000190: 663c f43c 4bb6 213e feb4 46be 46db 66be
000001a0: d098 a5be d08b e1bc 5ec0 263f 20ac 463c
000001b0: 17eb e4bd 7544 4dbe 90c0 d73e 8ea1 853e
000001c0: 3472 3cbf a961 bdbe 1f7f 2b3e 4929 59bd
000001d0: 65b7 2bbb f432 ac3d cc24 eebd 1b10 cdbe
000001e0: b566 88bc c57c 09bd 946d 66bc fb08 69be
000001f0: 72c7 43be f50a 763d 3aad cabd e462 54bd
00000200: 1e48 a0bd c273 883d d65b c9be 254a 19bf
00000210: 6f91 01bf 8dc5 833e a6e7 c1be b9df e23e
00000220: 9bce b0be c295 c13e bb0a 083f 7983 713d
00000230: 6850 193c addb 2cbe eac9 48be 967a d5be
00000240: 72ea 0c3e 091b 6bbe c1ca 993e 4b32 1b3f
00000250: 6f58 8dbc d525 023f 3d95 353f 7867 7dbe
00000260: d19a 543e 0397 413e a412 0cbe 6064 203e
00000270: 30ba f7bd 6bdc 2abf fd4f c83e 66f1 88be
00000280: 0405 d8be 4786 3abd 76cf 05bf d6b6 3cbd
00000290: 20c8 92bd 8b60 57be 684f 80be d948 973e
000002a0: 69a4 f7bc 6178 713d 32d7 acbd 3d35 683e
000002b0: 6092 4d3e d307 833e c0c4 6dbd d5c4 38be
000002c0: 4728 05be 394d aebe 8576 473c 8ffc 963c
000002d0: 0bbc 0ebe 9501 a7be 8c3c f5bd e53d 5abe
000002e0: f0cc 21be 8e6e 963d d1a8 9e3d 4b03 a9be
000002f0: cedf e4bd afc8 acbe 60bf 30bd c126 e0bd
00000300: 5fa9 26bd a80c b73e f604 393e 54a5 773e
00000310: 468f 53bc 5d54 f03e a8cd 593e f7b3 9bbe
00000320: 697c 29be 0449 f23d b52c 40bd d3fa d7be
00000330: 7a77 4cbe 1037 973e b965 1d3f bd23 d2be
00000340: b718 433f 9e8f 19be c2b6 e7be 9742 aa3e
00000350: 568f cdbd c3ed 0d3f 94a6 c2be ff89 c53e
00000360: aa80 9b3d c41d cd3e 1bb0 5f3f 920a 793e
00000370: ba00 11be 061f f33b 69a9 253e e7f1 fb3e
00000380: 6411 0d3e 5fa1 7a3e df57 0b3e 76da 683e
00000390: 1f79 a4be 1661 3bbd f0fd 933e 7f1e c3bd
000003a0: d214 ca3d f1c7 b03e 0e4b 0f3f 117f 283e
000003b0: 885e 26be 61c6 c3be 798e 30bf 2d9b 803e
000003c0: 0fad fcbe 5100 09bd 45ad febe fd24 93be
000003d0: f36d 8d3e 25df e33c 965b 8e3d 10d3 4c3e
000003e0: 3a7d 2f3c 715e 913e f771 3fbf ac42 86be
000003f0: e296 5ebe c503 d6be afbb 9cbe 5480 05bf

fc1.bias f4 [16]
0.23454316 0.12609781 -0.09235015 -0.117583096 0.07587335 0.045564055 0.20004219 -0.1141464
0.030506466 0.039813835 -0.22751169 -0.01622886 0.13488878 -0.15144408 0.26873338 -0.17957878
00000000: 152c 703e c91f 013e 1322 bdbd 68cf f0bd
00000010: 7d63 9b3d 60a1 3a3d dcd7 4c3e 96c5 e9bd
00000020: b2e8 f93c d513 233d d3f8 68be 63f2 84bc
00000030: 4920 0a3e 2814 1bbe 6c97 893e 80e3 37be

fc2.weight f4 [1, 16]
-0.22996935 -0.23796828 0.33955866 -0.009176603 0.74080783 -0.22630842 -0.38889033 0.5914392
0.53373075 0.60420424 0.22984894 0.621015 -0.08632877 0.7828547 -0.66582453 0.370373
00000000: 167d 6bbe f5ad 73be a2da ad3e 7659 16bc
00000010: 95a5 3d3f 65bd 67be a21c c7be 8f68 173f
00000020: 94a2 083f 21ad 1a3f 855d 6b3e d7fa 1e3f
00000030: 23cd b0bd 2a69 483f 7a73 2abf 88a1 bd3e
