conceptual_bin_model_9.pth (torch, 59178 bytes, 7 tensors)

fc0.weight f4 [13, 784]
0.0 0.0 0.0 0.0 0.0 0.0 0.0 0.0
0.0 0.0 0.0 0.0 0.0 0.0 0.0 0.0
0.0 0.0 0.0 0.0 0.0 0.0 0.0 0.0
0.0 0.0 0.0 0.0 0.0 0.0 0.0 0.0
0.0 0.0 0.0 0.0 0.0 0.0 0.0 0.0
0.0 0.0 0.0 0.0 0.0 0.0 0.0 0.0
0.0 0.0 0.0 0.0 0.0 0.0 0.0 0.0
0.0 0.0 0.0 0.0 0.0 0.0 0.0 0.0
0.0 0.0 0.0 0.0 0.0 0.0 0.0 0.0
0.0 0.0 0.0 0.0 0.0 0.0 0.0 0.0
0.0 0.0 0.0 0.0 0.0 0.0 0.0 0.0
0.0 0.0 0.0 0.0 0.0 0.0 0.0 0.0
0.0 0.0 0.0 0.0 0.0 0.0 0.0 0.0
0.0 0.0 0.0 0.0 0.0 0.0 0.0 0.0
0.0 0.0 0.0 0.0 0.0 0.0 0.0 0.0
0.0 0.0 0.0 0.0 0.0 0.0 0.0 0.0
0.0 0.0 0.0 0.0 0.0 0.0 0.0 0.0
0.0 0.0 0.0 0.0 0.0 0.0 0.0 0.0
0.0 0.0 0.0 0.0 0.0 0.0 0.0 1.002545
1.0011536 -1.7718151 -1.7877947 -2.1583734 1.0055386 1.0023781 0.0 0.0
0.0 0.0 0.0 0.0 0.0 0.0 0.0 0.0
0.0 0.0 0.0 0.0 0.0 0.0 0.0 0.0
0.0 0.0 -1.7157136 -1.4759107 1.0058522 -1.4356879 1.0085698 1.0094031
1.014228 -1.6063609 1.0060706 0.0 0.0 0.0 0.0 0.0
0.0 0.0 0.0 0.0 0.0 0.0 0.0 0.0
0.0 0.0 0.0 0.0 0.0 1.0 1.0 -1.2869844
1.0082425 1.017621 1.3151484 -1.0144498 1.3156074 1.2225295 -1.039395 1.0290246
0.0 0.0 0.0 0.0 0.0 0.0 0.0 0.0
0.0 0.0 0.0 0.0 0.0 0.0 0.0 0.0
1.0 1.0 1.0029132 -1.356506 1.0043482 1.0051868 -1.0508054 1.2158446
-1.0143701 1.0364752 -1.482929 1.0308357 -1.4273714 0.0 0.0 0.0
0.0 0.0 0.0 0.0 0.0 0.0 0.0 0.0
00000000: 0000 0000 0000 0000 0000 0000 0000 0000
00000010: 0000 0000 0000 0000 0000 0000 0000 0000
00000020: 0000 0000 0000 0000 0000 0000 0000 0000
00000030: 0000 0000 0000 0000 0000 0000 0000 0000
00000040: 0000 0000 0000 0000 0000 0000 0000 0000
00000050: 0000 0000 0000 0000 0000 0000 0000 0000
00000060: 0000 0000 0000 0000 0000 0000 0000 0000
00000070: 0000 0000 0000 0000 0000 0000 0000 0000
00000080: 0000 0000 0000 0000 0000 0000 0000 0000
00000090: 0000 0000 0000 0000 0000 0000 0000 0000
000000a0: 0000 0000 0000 0000 0000 0000 0000 0000
000000b0: 0000 0000 0000 0000 0000 0000 0000 0000
000000c0: 0000 0000 0000 0000 0000 0000 0000 0000
000000d0: 0000 0000 0000 0000 0000 0000 0000 0000
000000e0: 0000 0000 0000 0000 0000 0000 0000 0000
000000f0: 0000 0000 0000 0000 0000 0000 0000 0000
00000100: 0000 0000 0000 0000 0000 0000 0000 0000
00000110: 0000 0000 0000 0000 0000 0000 0000 0000
00000120: 0000 0000 0000 0000 0000 0000 0000 0000
00000130: 0000 0000 0000 0000 0000 0000 0000 0000
00000140: 0000 0000 0000 0000 0000 0000 0000 0000
00000150: 0000 0000 0000 0000 0000 0000 0000 0000
00000160: 0000 0000 0000 0000 0000 0000 0000 0000
00000170: 0000 0000 0000 0000 0000 0000 0000 0000
00000180: 0000 0000 0000 0000 0000 0000 0000 0000
00000190: 0000 0000 0000 0000 0000 0000 0000 0000
000001a0: 0000 0000 0000 0000 0000 0000 0000 0000
000001b0: 0000 0000 0000 0000 0000 0000 0000 0000
000001c0: 0000 0000 0000 0000 0000 0000 0000 0000
000001d0: 0000 0000 0000 0000 0000 0000 0000 0000
000001e0: 0000 0000 0000 0000 0000 0000 0000 0000
000001f0: 0000 0000 0000 0000 0000 0000 0000 0000
00000200: 0000 0000 0000 0000 0000 0000 0000 0000
00000210: 0000 0000 0000 0000 0000 0000 0000 0000
00000220: 0000 0000 0000 0000 0000 0000 0000 0000
00000230: 0000 0000 0000 0000 0000 0000 0000 0000
00000240: 0000 0000 0000 0000 0000 0000 0000 0000
00000250: 0000 0000 0000 0000 0000 0000 6553 803f
00000260: cd25 803f d6ca e2bf 75d6 e4bf ca22 0ac0
00000270: 7db5 803f ed4d 803f 0000 0000 0000 0000
00000280: 0000 0000 0000 0000 0000 0000 0000 0000
00000290: 0000 0000 0000 0000 0000 0000 0000 0000
000002a0: 0000 0000 0000 0000 0000 0000 0000 0000
000002b0: 0000 0000 0000 0000 0000 0000 0000 0000
000002c0: 0000 0000 0000 0000 819c dbbf a4ea bcbf
000002d0: c4bf 803f 9fc4 b7bf d118 813f 1f34 813f
000002e0: 39d2 813f 3c9d cdbf ecc6 803f 0000 0000
000002f0: 0000 0000 0000 0000 0000 0000 0000 0000
00000300: 0000 0000 0000 0000 0000 0000 0000 0000
00000310: 0000 0000 0000 0000 0000 0000 0000 0000
00000320: 0000 0000 0000 0000 0000 0000 0000 0000
00000330: 0000 0000 0000 803f 0000 803f e8bb a4bf
00000340: 170e 813f 6841 823f c856 a83f 7ed9 81bf
00000350: d365 a83f d97b 9c3f e50a 85bf 14b7 833f
00000360: 0000 0000 0000 0000 0000 0000 0000 0000
00000370: 0000 0000 0000 0000 0000 0000 0000 0000
00000380: 0000 0000 0000 0000 0000 0000 0000 0000
00000390: 0000 0000 0000 0000 0000 0000 0000 0000
000003a0: 0000 803f 0000 803f 765f 803f fda1 adbf
000003b0: 7b8e 803f f6a9 803f cb80 86bf cca0 9b3f
000003c0: e1d6 81bf 38ab 843f 9ed0 bdbf 6df2 833f
000003d0: 1bb4 b6bf 0000 0000 0000 0000 0000 0000
000003e0: 0000 0000 0000 0000 0000 0000 0000 0000
000003f0: 0000 0000 0000 0000 0000 0000 0000 0000

fc0.bias f4 [13]
-0.33825868 0.013855322 -0.081336744 -0.03976961 -0.012999472 -0.12076871 -0.1354638 0.9768534
0.13538668 0.09972791 0.4077506 0.15414852 -0.18938743
00000000: 3e30 adbe 6f01 633c e193 a6bd 75e5 22bd
00000010: bdfb 54bc 9655 f7bd 06b7 0abe 1013 7a3f
00000020: cea2 0a3e 253e cc3d b0c4 d03e 1cd9 1d3e
00000030: c7ee 41be

fc1.weight f4 [32, 13]
-0.43551853 -0.38191885 -0.08935863 -0.3598172 -0.21940272 -0.5168062 -0.6410832 0.29084632
0.31644547 0.13350204 0.09420812 0.010355099 -0.37057883 -0.2726958 -0.24039254 0.06558444
-0.5347145 -0.21465228 -0.22575957 0.6572067 -0.031954695 -0.096232645 -0.20588644 -0.071789496
-0.73076147 0.063393354 0.064201765 0.16153045 0.2066317 0.09398014 -0.5223579 -0.1787658
-0.20940548 0.30500066 -0.75913715 -0.2612708 -0.103324845 -0.021715436 0.47066876 -0.003976655
0.070748456 -0.014088647 0.013476094 -0.014606489 -0.17579049 0.29363036 -0.46335095 0.093319945
0.034184985 -0.29374987 -0.18878186 0.22756381 0.7334663 -0.70441 0.042481296 -0.14161095
-0.85541713 -0.40636167 -0.6103866 0.15801597 0.32200497 -0.14049724 -0.019595036 -0.6019534
-1.037492 -0.15190807 -0.10328639 0.09666234 -0.012151703 0.01412922 -0.21335313 0.3942671
-0.51427865 0.04597864 -0.15407516 -0.05669448 -0.4066884 0.31031471 0.28496203 -0.21060836
0.8033449 -0.23195045 0.918565 -0.29766098 -0.2851203 -0.3941236 -0.59051913 0.18770051
0.12745914 -0.5597601 0.40162945 -0.38495958 0.69857913 0.44278032 0.6963128 -0.33793974
-0.33509278 0.21078768 0.09463143 0.42090502 -0.33949208 0.2841813 -0.21947972 -0.23593809
-0.032124497 0.7318269 -0.25423715 -0.80017996 0.04281774 0.37780425 -0.37975404 -0.24196222
-0.17189868 0.047532998 -0.21194173 0.28958318 -0.08030202 0.8098717 0.3858035 -0.3192519
-0.32821995 0.14143546 0.044110943 0.07850446 -0.103398465 0.4446536 -0.4071193 0.06545789
-0.576755 -0.06767664 -0.37229165 0.2956182 -0.09445684 0.5643559 0.45989707 0.5602302
-0.20859349 -1.1398587 -0.19242807 -0.29678735 0.18094435 -0.18471538 0.31361407 -0.33702683
0.29252264 0.8044401 0.6786261 1.0059338 -0.2839263 -0.4535488 0.0151717635 -0.7653405
-0.30154204 -0.35758355 0.69320214 0.64738184 0.41662878 0.25162533 0.16010423 0.6169264
-0.66052467 0.12307339 -0.06343701 0.8261094 -0.27257597 0.12816508 0.22823472 -0.39265633
0.45897007 0.43996707 -0.33006155 0.10328611 -0.1437231 -0.39882782 -0.026429977 0.129559
0.3553846 -0.02721732 -0.7296105 -0.17515574 0.33393267 0.68925625 0.0040717665 0.27001193
-0.20684348 0.11321326 0.34794125 -0.3909746 -0.25200236 0.17483966 0.40672728 0.7320695
-0.6343761 -0.08901453 0.26415995 -0.49026316 0.27335718 0.31961113 0.27116007 0.60605884
0.26396355 -0.10583718 0.067190796 -0.24942607 0.38426512 0.5412029 0.14291584 0.23908976
-0.21578859 0.27824107 0.23157625 -0.05520253 0.15953429 0.036540985 -0.42880556 0.5008162
0.6746254 -0.105316654 0.030142045 -0.068261415 0.072515704 0.75169885 0.28450552 0.35076663
-0.053849638 -0.17841999 0.010728845 -0.31992847 -1.0604109 -0.16190654 1.015333 -0.25244594
0.38691008 -0.31162655 0.43596086 -0.12281133 0.075277805 0.7170777 -0.12894444 -0.27668843
-0.4186125 0.31438163 -0.5623241 0.23109308 -0.21407703 0.62996465 0.8752151 0.0415199
0.051965214 0.22095127 0.1803679 0.10549293 -0.55531824 0.9654162 -0.09784286 -0.8241779
00000000: 49fc debe de8a c3be a801 b7bd f639 b8be
00000010: 1bab 60be 694d 04bf 071e 24bf cfe9 943e
00000020: 2405 a23e c2b4 083e 30f0 c03d 6fa8 293c
00000030: 82bc bdbe c99e 8bbe 7629 76be 2351 863d
00000040: 0de3 08bf cfcd 5bbe 842d 67be b33e 283f
00000050: ede2 02bd 9f15 c5bd e5d3 52be 5f06 93bd
00000060: 2f13 3bbf 60d4 813d 377c 833d 3d68 253e
00000070: 4397 533e a978 c03d 3fb9 05bf 620e 37be
00000080: 646e 56be 0c29 9c3e d056 42bf 49c5 85be
00000090: fa9b d3bd 92e4 b1bc 7ffb f03e 9a4e 82bb
000000a0: 91e4 903d 12d4 66bc d6ca 5c3c 0e50 6fbc
000000b0: 6c02 34be b856 963e 563c edbe 871e bf3d
000000c0: 8e05 0c3d 6266 96be 0850 41be 7d06 693e
000000d0: 73c4 3b3f 3754 34bf de00 2e3d 7602 11be
000000e0: 9efc 5abf a30e d0be 4c42 1cbf f0ce 213e
000000f0: d6dd a43e 82de 0fbe c585 a0bc 9e19 1abf
00000100: 8acc 84bf ca8d 1bbe d187 d3bd e8f6 c53d
00000110: f017 47bc 3e7e 673c 3e79 5abe 61dd c93e
00000120: c4a7 03bf 1954 3c3d e1c5 1dbe 7938 68bd
00000130: 7639 d0be 92e1 9e3e 8be6 913e b8a9 57be
00000140: 03a8 4d3f 6b84 6dbe 1327 6b3f 0567 98be
00000150: 4afb 91be 92ca c9be 432c 17bf 9034 403e
00000160: a684 023e 704c 0fbf 60a2 cd3e 6c19 c5be
00000170: 15d6 323f 1ab4 e23e 8e41 323f 7006 adbe
00000180: 4891 abbe bad8 573e 20ce c13d dd80 d73e
00000190: e8d1 adbe 3680 913e 4bbf 60be c199 71be
000001a0: fa94 03bd 0259 3b3f 5f2b 82be 98d8 4cbf
000001b0: a861 2f3d 8f6f c13e 1f6f c2be f2c4 77be
000001c0: 3506 30be f6b1 423d 4107 59be 3f44 943e
000001d0: 6375 a4bd c053 4f3f 0988 c53e fc74 a3be
000001e0: 720c a8be 75d4 103e adad 343d f2c6 a03d
000001f0: 93c2 d3bd a3a9 e33e f171 d0be c90e 863d
00000200: 37a6 13bf 0d9a 8abd 039d bebe 455b 973e
00000210: 9672 c1bd a179 103f a177 eb3e 3f6b 0f3f
00000220: 8899 55be e4e6 91bf dd0b 45be 83f4 97be
00000230: 7a49 393e 0726 3dbe 0692 a03e c88e acbe
00000240: 87c5 953e c9ef 4d3f 71ba 2d3f 70c2 803f
00000250: ca5e 91be 8c37 e8be fd92 783c 5bed 43bf
00000260: b863 9abe 3115 b7be b275 313f d1ba 253f
00000270: 5e50 d53e 09d5 803e 5df2 233e e3ee 1d3f
00000280: 2518 29bf e70d fc3d 43eb 81bd e87b 533f
00000290: 148f 8bbe b53d 033e 5db6 693e 400a c9be
000002a0: 20fe ea3e 5d43 e13e d4fd a8be ab87 d33d
000002b0: 262c 13be 2933 ccbe ae83 d8bc 1dab 043e
000002c0: f8f4 b53e dbf6 debc c1c7 3abf 075c 33be
000002d0: 39f9 aa3e 1973 303f 746c 853b 013f 8a3e
000002e0: c7ce 53be 5bdc e73d 5b25 b23e d32d c8be
000002f0: 7406 81be 2b09 333e 8f3e d03e e868 3b3f
00000300: 7966 22bf 404d b6bd f93f 873e c603 fbbe
00000310: 79f5 8b3e 12a4 a33e 7ed5 8a3e ac26 1b3f
00000320: 3b26 873e 2ac1 d8bd 549b 893d 8c69 7fbe
00000330: 66be c43e 468c 0a3f 8858 123e f2d3 743e
00000340: aff7 5cbe 9d75 8e3e 5322 6d3e 0c1c 62bd
00000350: f55c 233e 00ac 153d 678c dbbe 7e35 003f
00000360: 40b4 2c3f 42b0 d7bd 73ec f63c a4cc 8bbd
00000370: 1d83 943d 566f 403f b5aa 913e af97 b33e
00000380: 7091 5cbd bbb3 36be 0ac8 2f3c aacd a3be
00000390: 8bbb 87bf d4ca 25be 6ff6 813f 9840 81be
000003a0: 1419 c63e 848d 9fbe 4336 df3e 8284 fbbd
000003b0: 402b 9a3d 6792 373f 030a 04be 1baa 8dbe
000003c0: 6154 d6be a1f6 a03e 79f4 0fbf aaa3 6c3e
000003d0: 0237 5bbe 5d45 213f 190e 603f c510 2a3d
000003e0: 7ad9 543d 0d41 623e 5db2 383e ad0c d83d
000003f0: 5629 0ebf 8425 773f d661 c8bd 53fd 52bf

fc1.bias f4 [32]
0.030521367 -0.09720671 -0.24388178 -0.31250963 0.17684525 -0.244585 0.059534714 0.107931
-0.15546799 0.44117266 -0.44951695 0.0635936 0.38424498 -0.12417819 0.065526776 0.3496815
0.24994427 0.040357143 0.17394133 -0.23233466 -0.06904335 -0.032718316 0.12677415 -0.10370261
0.33812085 0.13568698 -0.23894702 0.00017452546 -0.15354033 0.04018004 0.26060665 0.25968596
00000000: f207 fa3c 5014 c7bd 25bc 79be 4301 a0be
00000010: ec16 353e 7e74 7abe acda 733d ee0a dd3d
00000020: 0033 1fbe 62e1 e13e 1627 e6be 5d3d 823d
00000030: c2bb c43e 2351 febd e732 863d 7409 b33e
00000040: 64f1 7f3e 884d 253d ad1d 323e 23e9 6dbe
00000050: 9a66 8dbd a403 06bd 15d1 013e 0962 d4bd
00000060: 2d1e ad3e 87f1 0a3e 87ae 74be d200 3739
00000070: ad39 1dbe d393 243d 3c6e 853e 8ff5 843e

fc2.weight f4 [16, 32]
-0.25300196 0.055381928 0.17932317 0.63920355 0.1709133 0.35186395 -0.23157197 0.061139245
-0.1688687 -0.33309284 0.17497577 -0.39399168 -0.041279912 -0.018034434 0.29501414 -0.38828772
0.24297546 -0.17326516 -0.38522655 -0.2201742 0.3860151 -0.25862473 0.29090706 0.2762352
-0.26475373 -0.0268578 -0.300122 -0.29409483 0.05886391 -0.083659224 -0.688628 -0.98875934
0.18840799 -0.62563735 -0.38951695 0.3847666 -0.023832975 -0.15862362 -0.16436656 0.3516608
-0.21194495 0.12822343 0.2750575 0.009009747 -0.009032479 -0.471718 0.12281701 0.030974306
0.5723732 -0.33905974 -0.31277898 0.1013008 -0.040669616 -0.20322193 -0.2863281 -0.07816012
0.014093805 0.3087795 0.3557956 0.20859624 -0.14949484 0.15566215 -0.15254843 0.18664339
-0.64416796 0.32119566 -0.36660045 -0.28181094 -0.21483377 -0.30672443 1.0408238 -0.1963499
-0.39626878 0.50692123 -0.30519113 -0.010287956 0.22605917 -0.21936703 0.14962323 0.13252158
-0.42558214 0.032793835 -0.13372147 -0.09479271 0.40793422 -0.1051199 0.33156452 -0.34007132
-0.030691769 -0.36824274 0.41202906 -0.05994751 0.15803936 0.1425392 -0.24178042 0.36473736
0.026633915 -0.14799838 -0.02683008 -0.59057647 -0.028753573 -0.43418747 0.0011202205 -0.26635787
0.18737265 0.21025144 -0.20398805 -0.00025976088 0.51278746 0.24085441 0.33625525 0.56466925
0.6994958 -0.2529436 0.021807244 -0.6258217 -0.096444644 -0.040965952 0.22866254 0.40250087
0.10211068 -0.36780387 0.4016339 -0.039569426 0.20100276 -0.54976535 0.23896974 -0.051498443
0.28768167 0.059139024 -0.0049457215 -0.7683283 -0.23311292 -0.15871735 0.19625469 -0.08714533
-0.19313334 -0.050536364 -0.35557017 0.06370374 0.16264972 -0.44500342 -0.4834044 0.15455694
-0.10443893 0.0674454 -0.101875424 0.1567006 -0.41913944 0.39728993 -0.08294091 -0.3543497
0.38861874 0.31707042 0.439222 0.29201204 0.2082767 0.39215553 0.28383455 0.3554462
0.07778951 0.69244486 -0.25291896 -0.44319794 0.13308449 -0.124043174 0.32136697 -0.08017177
-0.25356892 0.16422541 -0.26195332 -0.09499459 0.49883083 -0.095984876 0.47904843 0.15079601
-0.1782353 -0.3295751 0.01942406 0.34415746 -0.2615527 0.06683765 0.05037506 -0.34146684
-0.12974219 0.24707516 0.5681506 0.72135425 -0.3352281 0.056277968 0.17182 0.5542821
-0.21010117 -0.1552337 0.26436412 -0.31105337 0.12587896 -0.35820377 0.020689098 -0.7650991
0.040287048 -0.1462515 -0.39329907 0.5629061 0.2225049 -0.28431433 0.45455942 0.33659217
-0.06708602 0.24161796 0.051932774 -0.1938635 -0.32325006 -0.06515772 -0.0072609666 -0.23233008
0.17721158 -0.33483216 0.15831627 0.14630997 0.22367336 -0.45273566 -0.07006574 0.074503414
-0.6671902 0.51108575 0.17612152 -0.19445689 0.058345024 0.037477802 0.00039856602 0.3307548
0.06893762 -0.32491264 -0.10368747 -0.029608816 -0.5365857 -0.13254158 -0.62884086 -0.4007152
0.092444524 0.006616436 -0.1263993 -0.1302809 -0.15891024 -0.24330808 0.06878809 -0.20427276
-0.46079004 -0.14436772 -0.714679 -0.224944 0.109499715 -0.28013846 0.77044046 -0.2287524
00000000: 7989 81be 29d8 623d 7ea0 373e d8a2 233f
00000010: e503 2f3e 8327 b43e 3421 6dbe 256d 7a3d
00000020: ebeb 2cbe 258b aabe d92c 333e 47b9 c9be
00000030: 2015 29bd f3bc 93bc 180c 973e a6cd c6be
00000040: 8fce 783e 6c6c 31be 6a3c c5be 5875 61be
00000050: c5a3 c53e 766a 84be c5f1 943e b36e 8d3e
00000060: cd8d 87be e404 dcbc 97a9 99be 9993 96be
00000070: 491b 713d 8755 abbd ed49 30bf 551f 7dbf
00000080: 06ee 403e c529 20bf c46e c7be 2100 c53e
00000090: 5f3d c3bc 3b6e 22be b54f 28be e20c b43e
000000a0: 1908 59be 014d 033e 56d4 8c3e 9e9d 133c
000000b0: f6fc 13bc 0685 f1be 7c87 fb3d d4bd fd3c
000000c0: 0d87 123f 3d99 adbe 9124 a0be cb76 cf3d
000000d0: 2f95 26bd 6919 50be 9999 92be 6a12 a0bd
000000e0: b4e9 663c 5918 9e3e d72a b63e 419a 553e
000000f0: 2d15 19be e665 1f3e a835 1cbe 721f 3f3e
00000100: 31e8 24bf c273 a43e 0eb3 bbbe 8649 90be
00000110: 62fd 5bbe fc0a 9dbe b739 853f f30f 49be
00000120: bee3 cabe 97c5 013f 0342 9cbe d18e 28bc
00000130: 0e7c 673e c0a1 60be d536 193e bdb3 073e
00000140: e7e5 d9be d452 063d 48ee 08be ae22 c2bd
00000150: c1dc d03e 1a49 d7bd d3c2 a93e d41d aebe
00000160: 4e6d fbbc 508a bcbe 79f5 d23e 858b 75bd
00000170: 12d5 213e ccf5 113e 4995 77be dbbe ba3e
00000180: 5e2f da3c e38c 17be c2ca dbbc 0530 17bf
00000190: 9d8c ebbc d24d debe 5dd4 923a 0f60 88be
000001a0: 9ede 3f3e 274c 573e 3ee2 50be 8430 88b9
000001b0: 0a46 033f 8aa2 763e a629 ac3e 2a8e 103f
000001c0: 2812 333f d381 81be 1ba5 b23c da35 20bf
000001d0: c584 c5bd eacb 27bd 8326 6a3e 9814 ce3e
000001e0: 671f d13d ca50 bcbe f5a2 cd3e 8d13 22bd
000001f0: abd3 4d3e 6cbd 0cbf 7cb4 743e 08f0 52bd
00000200: 034b 933e c33b 723d b80f a2bb 2ab1 44bf
00000210: 27b5 6ebe cd86 22be fdf6 483e 4079 b2bd
00000220: bfc4 45be 38ff 4ebd 4b0d b6be 1b77 823d
00000230: a68d 263e 7dd7 e3be c880 f7be 2d44 1e3e
00000240: 14e4 d5bd d020 8a3d 10a4 d0bd 1f76 203e
00000250: 7299 d6be 9669 cb3e ecdc a9bd 536d b5be
00000260: 09f9 c63e 0e57 a23e b5e1 e03e 9a82 953e
00000270: 7d46 553e 9cc8 c83e c352 913e 0bfd b53e
00000280: 1b50 9f3d 1144 313f 987e 81be d7ea e2be
00000290: 4d47 083e 590a febd 368a a43e 1931 a4bd
000002a0: c9d3 81be b52a 283e bf1e 86be 868c c2bd
000002b0: c166 ff3e b893 c4bd d645 f53e 456a 1a3e
000002c0: 5183 36be 11be a8be 351f 9f3c 6835 b03e
000002d0: 3cea 85be 2ee2 883d 1456 4e3d bed4 aebe
000002e0: 23db 04be 4501 7d3e 5172 113f acaa 383f
000002f0: 04a3 abbe ba83 663d 95f1 2f3e 6fe5 0d3f
00000300: c324 57be 95f5 1ebe bc5a 873e 6342 9fbe
00000310: 6ae6 003e 7c66 b7be 2f7c a93c 89dd 43bf
00000320: 0804 253d f4c2 15be 7f5e c9be 9d1a 103f
00000330: 53d8 633e a691 91be 03bc e83e cf55 ac3e
00000340: 6564 89bd b36a 773e 76b7 543d 2784 46be
00000350: 0881 a5be 6971 85bd 67ed edbb f0e7 6dbe
00000360: f476 353e 1f6f abbe a91d 223e 48d2 153e
00000370: a10a 653e f8cc e7be a07e 8fbd 3f95 983d
00000380: facc 2abf 84d6 023f 3359 343e b51f 47be
00000390: 31fb 6e3d 5382 193d a0f6 d039 b158 a93e
000003a0: 2b2f 8d3d f35a a6be 195a d4bd 308e f2bc
000003b0: ae5d 09bf fbb8 07be b7fb 20bf 8b2a cdbe
000003c0: 8e53 bd3d b0ce d83b d16e 01be 5b68 05be
000003d0: 5eb9 22be c125 79be c5e0 8c3d e12c 51be
000003e0: acec ebbe 22d5 13be 34f5 36bf b857 66be
000003f0: 6341 e03d 4f6e 8fbe 963b 453f 123e 6abe

fc2.bias f4 [16]
-0.008386451 0.0029437968 0.21673031 0.41037068 0.3546043 0.14109069 0.16962196 -0.3279373
-0.14656135 0.27166498 0.40513676 -0.2157498 -0.13955182 0.29221532 -0.23234557 0.28939933
00000000: 5367 09bc b7ec 403b 8dee 5d3e 1b1c d23e
00000010: b28e b53e 147a 103e 61b1 2d3e 66e7 a7be
00000020: 2e14 16be ac17 8b3e 166e cf3e 84ed 5cbe
00000030: ace6 0ebe 3f9d 953e ffeb 6dbe 262c 943e

fc3.weight f4 [1, 16]
0.8494681 -1.0496979 -0.5524397 -0.47230455 -0.7825291 -0.48240477 -0.5855589 0.526208
0.41647798 -0.52214813 -0.18913971 0.29040495 0.38608167 -0.77539235 0.2918938 -0.53775626
00000000: be76 593f 805c 86bf b06c 0dbf e7d1 f1be
00000010: d453 48bf c2fd f6be 30e7 15bf 91b5 063f
00000020: 9a3c d53e 80ab 05bf d7ad 41be f5af 943e
00000030: 7fac c53e 1d80 46bf 1b73 953e 65aa 09bf
