conceptual_bin_model_0.pth (torch, 59178 bytes, 7 tensors)

fc0.weight f4 [13, 784]
00000000: 0000 0000 0000 0000 0000 0000 0000 0000
00000010: 0000 0000 0000 0000 0000 0000 0000 0000
00000020: 0000 0000 0000 0000 0000 0000 0000 0000
00000030: 0000 0000 0000 0000 0000 0000 0000 0000
00000040: 0000 0000 0000 0000 0000 0000 0000 0000
00000050: 0000 0000 0000 0000 0000 0000 0000 0000
00000060: 0000 0000 0000 0000 0000 0000 0000 0000
00000070: 0000 0000 0000 0000 0000 0000 0000 0000
00000080: 0000 0000 0000 0000 0000 0000 0000 0000
00000090: 0000 0000 0000 0000 0000 0000 0000 0000
000000a0: 0000 0000 0000 0000 0000 0000 0000 0000
000000b0: 0000 0000 0000 0000 0000 0000 0000 0000
000000c0: 0000 0000 0000 0000 0000 0000 0000 0000
000000d0: 0000 0000 0000 0000 0000 0000 0000 0000
000000e0: 0000 0000 0000 0000 0000 0000 0000 0000
000000f0: 0000 0000 0000 0000 0000 0000 0000 0000
00000100: 0000 0000 0000 0000 0000 0000 0000 0000
00000110: 0000 0000 0000 0000 0000 0000 0000 0000
00000120: 0000 0000 0000 0000 0000 0000 0000 0000
00000130: 0000 0000 0000 0000 0000 0000 0000 0000
00000140: 0000 0000 0000 0000 0000 0000 0000 0000
00000150: 0000 0000 0000 0000 0000 0000 0000 0000
00000160: 0000 0000 0000 0000 0000 0000 0000 0000
00000170: 0000 0000 0000 0000 0000 0000 0000 0000
00000180: 0000 0000 0000 0000 0000 0000 0000 0000
00000190: 0000 0000 0000 0000 0000 0000 0000 0000
000001a0: 0000 0000 0000 0000 0000 0000 0000 0000
000001b0: 0000 0000 0000 0000 0000 0000 0000 0000
000001c0: 0000 0000 0000 0000 0000 0000 0000 0000
000001d0: 0000 0000 0000 0000 0000 0000 0000 0000
000001e0: 0000 0000 0000 0000 0000 0000 0000 0000
000001f0: 0000 0000 0000 0000 0000 0000 0000 0000
00000200: 0000 0000 0000 0000 0000 0000 0000 0000
00000210: 0000 0000 0000 0000 0000 0000 0000 0000
00000220: 0000 0000 0000 0000 0000 0000 0000 0000
00000230: 0000 0000 0000 0000 0000 0000 0000 0000
00000240: 0000 0000 0000 0000 0000 0000 0000 0000
00000250: 0000 0000 0000 0000 0000 0000 7126 df3f
00000260: 1757 81bf 0763 923f 43cf 85bf 72a7 86bf
00000270: 6024 c03f a2ff 82bf 0000 80bf 6e79 ed3f
00000280: 0000 0000 0000 0000 0000 0000 0000 0000
00000290: 0000 0000 0000 0000 0000 0000 0000 0000
000002a0: 0000 0000 0000 0000 0000 0000 0000 0000
000002b0: 0000 0000 0000 0000 0000 0000 0000 0000
000002c0: 0000 0000 0000 0000 1306 80bf 1b30 b33f
000002d0: 4042 80bf 1f75 863f b0d2 883f 70a3 84bf
000002e0: 3bb1 913f a862 a03f 8d0f 82bf 0000 80bf
000002f0: 1b5f bf3f 0000 0000 0000 0000 0000 0000
00000300: 0000 0000 0000 0000 0000 0000 0000 0000
00000310: 0000 0000 0000 0000 0000 0000 0000 0000
00000320: 0000 0000 0000 0000 0000 0000 0000 0000
00000330: 0000 0000 a45c ba3f 36a5 a53f 5eda 80bf
00000340: 5cc4 923f e30f 853f b0a4 833f 933f a6bf
00000350: 34ac adbf 4c0c a1bf 95c1 86bf eb4a 9b3f
00000360: 8ea1 81bf 850f 80bf 0000 0000 0000 0000
00000370: 0000 0000 0000 0000 0000 0000 0000 0000
00000380: 0000 0000 0000 0000 0000 0000 0000 0000
00000390: 0000 0000 0000 0000 0000 0000 0000 0000
000003a0: da15 b03f 2c4d 9b3f db67 933f 0000 80bf
000003b0: 99fb 8e3f 7e7a 8a3f b1c1 9cbf c803 803f
000003c0: 1e0c 803f 3788 dcbf 032a 813f cad3 98bf
000003d0: 5779 81bf 3ea0 a93f 0000 0000 0000 0000
000003e0: 0000 0000 0000 0000 0000 0000 0000 0000
000003f0: 0000 0000 0000 0000 0000 0000 0000 0000
0.0 0.0 0.0 0.0 0.0 0.0 0.0 0.0
0.0 0.0 0.0 0.0 0.0 0.0 0.0 0.0
0.0 0.0 0.0 0.0 0.0 0.0 0.0 0.0
0.0 0.0 0.0 0.0 0.0 0.0 0.0 0.0
0.0 0.0 0.0 0.0 0.0 0.0 0.0 0.0
0.0 0.0 0.0 0.0 0.0 0.0 0.0 0.0
0.0 0.0 0.0 0.0 0.0 0.0 0.0 0.0
0.0 0.0 0.0 0.0 0.0 0.0 0.0 0.0
0.0 0.0 0.0 0.0 0.0 0.0 0.0 0.0
0.0 0.0 0.0 0.0 0.0 0.0 0.0 0.0
0.0 0.0 0.0 0.0 0.0 0.0 0.0 0.0
0.0 0.0 0.0 0.0 0.0 0.0 0.0 0.0
0.0 0.0 0.0 0.0 0.0 0.0 0.0 0.0
0.0 0.0 0.0 0.0 0.0 0.0 0.0 0.0
0.0 0.0 0.0 0.0 0.0 0.0 0.0 0.0
0.0 0.0 0.0 0.0 0.0 0.0 0.0 0.0
0.0 0.0 0.0 0.0 0.0 0.0 0.0 0.0
0.0 0.0 0.0 0.0 0.0 0.0 0.0 0.0
0.0 0.0 0.0 0.0 0.0 0.0 0.0 1.7433606
-1.0104703 1.1436471 -1.0453876 -1.051985 1.5011101 -1.0234263 -1.0 1.8552682
0.0 0.0 0.0 0.0 0.0 0.0 0.0 0.0
0.0 0.0 0.0 0.0 0.0 0.0 0.0 0.0
0.0 0.0 -1.0001854 1.3999056 -1.0020218 1.0504493 1.0689297 -1.0362377
1.1382211 1.2530107 -1.0160996 -1.0 1.4950899 0.0 0.0 0.0
0.0 0.0 0.0 0.0 0.0 0.0 0.0 0.0
0.0 0.0 0.0 0.0 0.0 1.4559522 1.2941043 -1.006664
1.1466174 1.0395473 1.0284634 -1.2988151 -1.3568177 -1.2581878 -1.0527827 1.2132238
-1.0127428 -1.0004736 0.0 0.0 0.0 0.0 0.0 0.0
0.0 0.0 0.0 0.0 0.0 0.0 0.0 0.0
1.3756669 1.2132926 1.1516069 -1.0 1.1170532 1.0818632 -1.224661 1.0001154
1.0003698 -1.722907 1.0090946 -1.1939633 -1.0115155 1.3252027 0.0 0.0
0.0 0.0 0.0 0.0 0.0 0.0 0.0 0.0

fc0.bias f4 [13]
00000000: 7197 f33e 1a86 103e 601c 5dbe 1cbb 71be
00000010: 9b05 3dbf 2d02 28bf 73ae 92bf 5a52 9cbe
00000020: de67 e73e 8be0 43be ecab 04be cf6c 39bf
00000030: e209 28be
0.47576478 0.14113656 -0.21592855 -0.23606533 -0.7383668 -0.6562832 -1.1459488 -0.3053158
0.45196432 -0.19128625 -0.12956208 -0.72431654 -0.1641002

fc1.weight f4 [32, 13]
00000000: fecd 4cbc 5daf c3be 0e03 a53e 4817 d9be
00000010: 8484 f73e 2663 4fbe 30b6 70be ceea 123e
00000020: a515 86be f48c c83e 4ebd 12bf e079 df3e
00000030: 65ed 9a3e 64d1 263f eacb 54be d6c6 c43e
00000040: 22df 13bf 06fa 82be 41fc 5fbe 2314 61be
00000050: 337e 843f dc0f e1bd 2376 c9bd 5037 04be
00000060: 0533 3fbe 26ff 2cbe 4cc1 98bd b44c 2c3e
00000070: 5e56 943e dd51 d2bd 7477 3cbf c581 16bd
00000080: c428 3e3e f2cf 553f 2487 bebe ed2f ae3e
00000090: 7ddc 40bf ff4e 503e c82b 0c3f ae41 23be
000000a0: 6cb7 0cbe 3e7c 06bf c230 983e 3013 093f
000000b0: 8362 d7bc 9a1b 973d 7066 673e b99f 3abf
000000c0: 77cb b8bd de30 16be bab4 833e 9069 773e
000000d0: 5a9c 303e 55d4 abbc 6190 1abf 9909 dcbd
000000e0: ea6c f8be cfae 0bbd dcde 6ebe 2cd8 893e
000000f0: 94f3 c5be e35d 51bf 7316 e039 3be9 f9be
00000100: ecf7 023d d15a f5be fbd4 febe c3a1 7abd
00000110: 1e3f 313f a49c 2d3e 5ab6 99be 455b 1abe
00000120: fd3e cf3e 0e78 d33e ae64 2fbf 55b5 aebe
00000130: ef16 d7be 8629 08bf 107b 963c 2987 b7bd
00000140: 3370 00be d73e 96be aa3c 893d 0c74 abbd
00000150: 25bc b6be 64e0 273f 8d54 77bd aee9 963e
00000160: 6b54 2a3e 10d5 593f 904f 633f 945a 533f
00000170: 0b94 7bbd 2c43 0fbf d1bd 2f3f 173c c23e
00000180: ee37 ca3d e450 ad3e 6e3a f0be 8306 0f3f
00000190: ddc0 0cbf 689c a8be 508a 55be 3f12 6d3f
000001a0: 2a81 a23e d582 b63c 5fe4 1f3e 3aa8 8d3e
000001b0: 5bdf e63e db51 b7bd 2b0b f1bd dde1 8f3e
000001c0: 9426 0dbe 4b4d 743e b6a7 34be 560f c83e
000001d0: 4e2c 953d 2861 0fbf 5324 4dbf c62d fe3e
000001e0: b651 45bf 61be 9d3d 7fa9 6ebe ad8d 5d3d
000001f0: 4422 8ebf 8073 0c3f f1f0 613e 1019 6bbe
00000200: 0a54 a63e 860b e4be 37a7 fa3d d6dc 11bf
00000210: 322f 2dbe feaf 52bf f1c1 07bf a2ca 83be
00000220: c7e7 31be a5c9 b3be 617d 343d 29a3 00bf
00000230: 67ba e8be 089d 1e3e bb7a 14be dad9 83bf
00000240: 5d80 05be 1d9b e43e 102a 7bbf dcf5 1c3f
00000250: d1be 5cbf a5fd c2be 70fa 23bd b3d7 033f
00000260: d4e6 adbe e319 8f3e 75b3 2dbf ab7a 363f
00000270: b92d 313f 53a7 123f f8e9 15be 8a70 3bbc
00000280: 9613 433e 56c4 8ebe 5009 b9bd 1564 193d
00000290: 21fb 71bd 7b5a 3c3f 3617 abbe 6aa2 29be
000002a0: 333b 613f 1f72 413f e170 3d3e 7c3b f03d
000002b0: db6f 183e 33f1 553e 389a 35bf 0a50 2a3e
000002c0: 72ed 2c3d 1144 983e e824 ea3d dff1 c1bc
000002d0: 74ee ca3e ce52 1e3e a0c4 6d3d dc4f 70be
000002e0: 26a7 a23e 1e22 e0bd 1863 d23e 9b57 63be
000002f0: 2fbc 773f 7fd1 f43e da3f a4bd 7ef5 b23c
00000300: 02ed 673e ad76 ba3e a011 e9bd 8cda 2c3c
00000310: 83a8 20be f432 c3be e40c e639 de31 343f
00000320: 2b83 6cbf f0c5 eabe 8444 7dbe 53f1 d9bd
00000330: eda4 823d 82f3 a13e e5fc f1bd 5d8d 11bf
00000340: 5c55 a13e e1bb 703e 8ae7 583e 4f33 1abe
00000350: fbc1 613e b07c 063f 54a8 55be ad43 963e
00000360: df75 21be 780e 32be be71 f13d 97d1 4cbe
00000370: 2b23 90be 4d30 f3bc 7cef 8bbe 6149 72be
00000380: 8043 463f 4344 23bf d4c9 8b3d 0a2c 4dbd
00000390: 2b5b 873c 0d85 003f f22a 22be 61b9 aabe
000003a0: 2e98 37bf 69ba 97bd 5e0e 543e 6cdd 8bbd
000003b0: 1bb6 dc3d 1711 8f3e 52e4 9ebe b9fd 123f
000003c0: cf26 363e a0dc 04be 91bf c43e b0ef adbd
000003d0: 306b 44be 0996 d53d ee53 813e 6d0b 353f
000003e0: 209d 1bbe 22d4 84be c112 f33c 837d 8b3c
000003f0: ca93 563f 2bc2 5fbe 0ccc c8be 6fcc fd3e
-0.012500284 -0.3821973 0.32228893 -0.42400575 0.4834329 -0.20252666 -0.23506999 0.14347383
-0.26188388 0.3917004 -0.57320106 0.4364767 0.30259243 0.65163255 -0.20780912 0.3843295
-0.5776235 -0.25581378 -0.21873571 -0.21980338 1.0351013 -0.10989353 -0.09836986 -0.12911725
-0.18671806 -0.16894206 -0.074587435 0.16826135 0.28972143 -0.102695204 -0.7361977 -0.03674485
0.18570238 0.83520424 -0.3721248 0.3402094 -0.7533644 0.20342635 0.54754305 -0.15943024
-0.13741845 -0.5253333 0.297247 0.535449 -0.026292091 0.073783115 0.2259767 -0.7289997
-0.09023183 -0.14667079 0.2572382 0.24161363 0.17247143 -0.020975271 -0.60376555 -0.10744018
-0.48520595 -0.034102257 -0.23327202 0.2692274 -0.38662398 -0.81783885 0.00042741335 -0.48810753
0.031974718 -0.4792085 -0.49771866 -0.061189424 0.69236934 0.16954285 -0.30021936 -0.15073879
0.40477744 0.41302532 -0.68513 -0.3412272 -0.42009684 -0.5318836 0.018369228 -0.08961327
-0.125428 -0.29344818 0.06701024 -0.083717436 -0.35690418 0.6557677 -0.06038337 0.29475158
0.16633765 0.8509073 0.8879328 0.82560086 -0.06142048 -0.5596187 0.6864901 0.3793647
0.09873949 0.33850777 -0.46919578 0.5586931 -0.54981786 -0.32931828 -0.20853543 0.92605966
0.3173917 0.022279182 0.1561446 0.2766741 0.45092282 -0.089511596 -0.11769708 0.28102008
-0.13784248 0.2385761 -0.17642102 0.390742 0.07283841 -0.56007624 -0.8013355 0.49644297
-0.77077806 0.077023275 -0.23306845 0.05409019 -1.1104207 0.5486374 0.22064568 -0.2295878
0.32485992 -0.44540042 0.12238925 -0.56977594 -0.16912535 -0.8229979 -0.53030306 -0.25740534
-0.17373572 -0.3511478 0.044064883 -0.5024896 -0.45454714 0.1548959 -0.14499943 -1.0300858
-0.13037248 0.44649592 -0.9811106 0.6131265 -0.8622866 -0.3808414 -0.040033758 0.51501006
-0.3396517 0.27949437 -0.67851955 0.71280926 0.6921039 0.57286566 -0.14640033 -0.011440406
0.1905044 -0.27884167 -0.09034979 0.03744896 -0.059077386 0.7357556 -0.33416146 -0.16565862
0.87980956 0.7556476 0.18500091 0.11730096 0.1488642 0.20892791 -0.70938444 0.16632095
0.042218633 0.2973943 0.114328206 -0.023674903 0.3963505 0.15461275 0.058048844 -0.23467964
0.3176815 -0.10944007 0.41091228 -0.22201388 0.9677152 0.47816083 -0.08019991 0.021845575
0.22649005 0.36418667 -0.11380315 0.0105501525 -0.15689282 -0.38124812 0.00043878623 0.7038859
-0.92387646 -0.4585414 -0.24733168 -0.10641732 0.06379113 0.31631094 -0.11815814 -0.5685633
0.31510437 0.2350917 0.21182075 -0.15058635 0.22046654 0.5253401 -0.20864993 0.29348508
-0.1576762 -0.17388332 0.11789273 -0.20001827 -0.2815183 -0.029686118 -0.2733115 -0.23660804
0.77446747 -0.63776034 0.06825605 -0.050090827 0.016522964 0.5020302 -0.15836695 -0.33344558
-0.7171658 -0.07408602 0.20708606 -0.06829342 0.10776921 0.27942726 -0.3103357 0.574184
0.17788242 -0.12974787 0.38427404 -0.084929824 -0.19181514 0.104290076 0.25259346 0.7072056
-0.15196657 -0.25943094 0.029672028 0.017027622 0.8381926 -0.21851413 -0.39218175 0.49570033

fc1.bias f4 [32]
00000000: 2fdf c5be 4e8d 753d a6cc 273f af56 dfbe
00000010: ba69 e03e dc34 71be 106e cd3e 24b0 033e
00000020: ebec c0be 65ce e4bc 98a6 50bd 3dfa ad3d
00000030: 6db1 243d 4a5a ef3e a0bd 12bf ae64 04bf
00000040: 771d d73e 3b2b aabd 5f94 c7bd 187b 19be
00000050: 71d1 d9bd b93e 3e3e c567 18be 54ba 12be
00000060: 98fa 0ebe 175a 68be d781 973e 4935 363e
00000070: 8599 89bd 19a9 63bd 580d 083e 6fb7 a1be
-0.38646838 0.05994921 0.65546644 -0.43620822 0.43830663 -0.2355532 0.40123034 0.12860161
-0.37680754 -0.027930448 -0.050940126 0.08494995 0.04020827 0.46748573 -0.57320595 -0.51716125
0.42014667 -0.08309027 -0.097450964 -0.14988363 -0.10635651 0.18578614 -0.14883335 -0.14328891
-0.13962781 -0.22690617 0.29591247 0.17793764 -0.06718735 -0.055581186 0.1328634 -0.3158526

fc2.weight f4 [16, 32]
00000000: eac7 8fbe 4adc 343e b143 04be 0b80 9fbe
00000010: 60d4 86be 9b02 123d 4b7c 2b3e 4519 99be
00000020: 061c 333d 6d7d f9be 2ab3 463d 11f5 3abe
00000030: 674c e93e 3f3b 5dbe cb31 66be e3e4 e2bd
00000040: 8157 83be 7724 713d 4dfa 133e 406d 003e
00000050: aa57 153f 5421 bebe 367e cdbd 8d8f 453f
00000060: d68b 40be 8ef5 a7bd f166 4abe b501 71bd
00000070: 18b0 503d b964 7fbe 6080 0d3e f8f2 59be
00000080: 17ee 94be 42f3 883e 8cd3 083e 01db 14bf
00000090: 4770 fc3e ea6a a6be 62db 5a3e 4dd6 3c3e
000000a0: 940b cbbd 15bd 223e 1b87 c93e 4ea7 ba39
000000b0: 5500 62bd feed f23e 06c2 233e 0443 17be
000000c0: 4c6a 1b3f 2e30 983e 5ecf c53e 4989 bb3e
000000d0: 9aa7 d0bd 024a ad3e 9bf1 99be 047d 83be
000000e0: 89b8 bbbd 6efb 413d 530d 59bd edf2 bc3e
000000f0: cf62 e7bd 2aba 913e 402c 3a3e df2d 543e
00000100: b4fa 853e 8dd8 e6be e02b 04bf 31a2 1f3d
00000110: aeee 2ebe f0e2 c1be 94fd c8be 3764 0f3e
00000120: 74f2 df3e ea64 e4be 0009 9abe 1f8f ea3e
00000130: 695a 26be 4e9b e53d b2f6 b93e e84e f23d
00000140: 5987 c63e e53e b4bc 98bb ab3e 9fb0 b43b
00000150: 8417 923e 9f1c d8bd a710 a13e bf09 ca3e
00000160: 24a7 a3be 5236 bebe b79b 27be e8ab 503d
00000170: a20d 95bd 135c c1be 41f4 e8be 9766 b1be
00000180: 05e8 413e 4834 ec3d e32c 12be 6e8b 8239
00000190: 9035 9a3d 75cb 0aba 35d8 223e 9d4a c1be
000001a0: cd1a 8bbe ba42 fd3e 661e a03d 6c5d 05be
000001b0: bb6d 4a3d 609b e7be 11d4 efbc 6dc8 81be
000001c0: 8075 76be 1632 c5be a2c8 123f 2b67 833e
000001d0: 0ea6 bfbe 9797 083f b71a 203e 04ce b93e
000001e0: 4aef 63be 446a ae3e e524 2f3e 1093 a8be
000001f0: 20f1 233c 00ba 02bf c67e 60be ee18 893e
00000200: 63c9 ad3e 2125 1bbe 7995 5d3d 6c6e e13e
00000210: ec3d 43be ee6b 1a3e 7507 593e 5f92 9ebd
00000220: 046e 993e 7db1 a2bd 0b4c 21bf df03 343e
00000230: 727d 953e 86bb a7bd 686b 213e 8d39 993c
00000240: 587b e33e f62b 66be 4ee6 853e adb2 82be
00000250: ff4f 033e 29fe b93e 181a a53d def5 9d3e
00000260: 2b06 d53e 158d 6d3b 1af4 0dbe ac32 2cbe
00000270: 8275 d83e f559 9abd bf88 a4bd 16e8 6f3d
00000280: 81fe 1ebf 16b1 3a3d 1c6c b6be 80e7 da3e
00000290: 52ae 733e c427 a43e 0d0b aa3e e767 b33e
000002a0: de0e a83e 8a75 223e 0ce1 92bc 663c f03d
000002b0: 8866 8bbd 2f4a 5bbe 3138 093f 8359 96bd
000002c0: 96db ee3c c7d4 19be f9e9 8b3e c0ba 8a3e
000002d0: ffb2 9c3e c4c9 743e b08c 30be 7891 8ebe
000002e0: bf94 073f 79d9 6cbe bfe2 fdbd d73d 713d
000002f0: 8c92 223f e85c 6b3f 70f9 863d 8cd2 0dbf
00000300: 7f95 863e acac 5cbd 0683 77be d8f0 313f
00000310: 8c03 083e dcc2 653e 0f5b 81be d22c 6c3e
00000320: 96ed 1b3f 6237 683e 8313 233d fc16 80be
00000330: 9887 363d 9dc3 6b3d d738 293f fe48 063f
00000340: 7435 47be 4796 363d a256 c63d bf66 973e
00000350: 1d7d 87be 140e d0be bdd1 84bd 8f92 593e
00000360: fd12 4b3d 5b1d 893e 3438 27bf 66f4 cb3d
00000370: 055e cb3d 663d 02be ee59 173f c94e c93e
00000380: 4838 233e 9f65 d73e 06f2 a4be 743c 203f
00000390: 3251 2d3e bcea fc3d f4c0 e93c 9df1 a73e
000003a0: 772b 193f 7da8 553e e719 d93d 7afd 96be
000003b0: 71fa 7e3d 408c 6b3e 473d f23e 707e 68be
000003c0: b0b3 ef3c 0098 a4be c4cd 633e fa92 373e
000003d0: bb18 8ebe 67d3 81bd bca4 b2be e7f4 e43d
000003e0: 46f9 163e 1bd2 cc3e 5300 f4be 4d78 06bd
000003f0: b0e6 fe3d e328 abbe c6ef 623e 24c9 9ebc
-0.2808221 0.17662159 -0.12916447 -0.31152377 -0.26333904 0.035647016 0.16746633 -0.29902092
0.043727897 -0.48728505 0.048510708 -0.18257548 0.45566103 -0.21604632 -0.22479932 -0.11078813
-0.25652698 0.058872666 0.14450951 0.12541676 0.5833689 -0.37134802 -0.100338385 0.77172166
-0.18803343 -0.08201133 -0.19765832 -0.05883952 0.050949186 -0.24940766 0.13818502 -0.21284091
-0.29087898 0.2674809 0.13361949 -0.58146673 0.4930441 -0.32503444 0.2137275 0.18441124
-0.09914318 0.15892442 0.3936089 0.00035601336 -0.055176098 0.474472 0.15991983 -0.14771658
0.6070907 0.29724258 0.3863477 0.36628178 -0.101882175 0.33845526 -0.30067143 -0.25681317
-0.09166057 0.047358923 -0.052991223 0.36904088 -0.11298143 0.28462344 0.18180943 0.20720623
0.26167834 -0.4508709 -0.5162945 0.038973037 -0.17083237 -0.37868452 -0.39255965 0.14003073
0.43739665 -0.4460824 -0.3008499 0.45812318 -0.16245426 0.11211263 0.36321026 0.118314564
0.38775137 -0.022002647 0.3354156 0.005514219 0.28533566 -0.10552334 0.31458017 0.3946056
-0.31963456 -0.37150818 -0.16367994 0.050945193 -0.07277991 -0.3776556 -0.4549885 -0.34648582
0.18936165 0.11533409 -0.14274935 0.00024899415 0.075297475 -0.00052945997 0.15902789 -0.37752238
-0.27168885 0.4946497 0.07818298 -0.13023919 0.049421053 -0.4523573 -0.029275926 -0.25348225
-0.2406826 -0.38514775 0.5733739 0.25664648 -0.37431377 0.5335631 0.15635191 0.3628999
-0.2225925 0.3406545 0.17103918 -0.329247 0.010006219 -0.51065063 -0.2192336 0.26776832
0.33942708 -0.15150882 0.054097626 0.44029558 -0.1906659 0.15080234 0.21194251 -0.07742762
0.29966748 -0.079440095 -0.6300666 0.17579602 0.2919727 -0.08190064 0.15763628 0.0187042
0.4443004 -0.22477707 0.2615227 -0.25526944 0.12823485 0.3632672 0.080616176 0.30851644
0.41606268 0.0036247422 -0.13862649 -0.16816205 0.4227715 -0.07536689 -0.08033895 0.058570944
-0.6210709 0.04557904 -0.35629356 0.42754745 0.23796967 0.3206159 0.33211556 0.3504021
0.32823843 0.1586515 -0.017929576 0.1173027 -0.06806666 -0.21415018 0.53601366 -0.07341292
0.029157441 -0.15022574 0.27326944 0.27095604 0.30605313 0.23905092 -0.17241168 -0.2784536
0.52961344 -0.23129834 -0.12396764 0.058896866 0.6350486 0.9193864 0.06590545 -0.55399394
0.2628593 -0.05387561 -0.24171075 0.69508123 0.13282603 0.22437614 -0.25264785 0.23063973
0.609094 0.22677377 0.03981353 -0.25017536 0.044562906 0.0575596 0.66102356 0.5245513
-0.19453984 0.04457691 0.09684493 0.29570577 -0.2646264 -0.4063574 -0.06485317 0.21247314
0.049578656 0.2678021 -0.65320134 0.09958725 0.09930042 -0.12718734 0.59121597 0.3931792
0.15939438 0.42069718 -0.322159 0.62592244 0.16925505 0.123494595 0.02853439 0.32801524
0.5983195 0.20865054 0.106006436 -0.29490262 0.06225056 0.2300272 0.47312376 -0.22704482
0.029260486 -0.32147217 0.22246462 0.17927161 -0.27753243 -0.0633915 -0.34891307 0.11179524
0.14743528 0.40004048 -0.47656497 -0.03282957 0.12446344 -0.33429632 0.22161779 -0.01938302

fc2.bias f4 [16]
00000000: 8579 b6be cbf2 703e ca4e f4bd 39ba 1d3d
00000010: 0ec7 b8be 6e56 313e c4c7 f7bd 5d98 79be
00000020: 8f8c 9c3e 36bc ffbd 2f6b cc3d e09d 37be
00000030: cd82 8e3e 05b1 ebbe d6a7 413e 3c4b 503e
-0.35639587 0.23530118 -0.1192909 0.038507674 -0.36089367 0.17318127 -0.12098649 -0.24374528
0.30575988 -0.1248707 0.09981381 -0.17931318 0.27834168 -0.46033493 0.1891168 0.203412

fc3.weight f4 [1, 16]
00000000: a6b6 6a3f a8d2 17bf f810 613f 7a75 163f
00000010: 2c70 453f b148 06bf 5f88 0c3f 6fbe f23e
00000020: 5654 93bf 0539 d63e 8d82 ddbe d202 223f
00000030: 7e02 84bf a97c c93e 95ab 99be f8b6 1fbf
0.9168495 -0.5930581 0.8791652 0.58773005 0.77124286 -0.5245467 0.54895586 0.47410914
-1.1510112 0.41840377 -0.43263665 0.63285553 -1.031326 0.3935292 -0.3001372 -0.62388563
