conceptual_bin_model_1.pth (torch, 22698 bytes, 7 tensors)

fc0.weight f4 [4, 784]
0	0x00000000	0.0
1	0x00000000	0.0
2	0x00000000	0.0
3	0x00000000	0.0
4	0x00000000	0.0
5	0x00000000	0.0
6	0x00000000	0.0
7	0x00000000	0.0
8	0x00000000	0.0
9	0x00000000	0.0
10	0x00000000	0.0
11	0x00000000	0.0
12	0x00000000	0.0
13	0x00000000	0.0
14	0x00000000	0.0
15	0x00000000	0.0
16	0x00000000	0.0
17	0x00000000	0.0
18	0x00000000	0.0
19	0x00000000	0.0
20	0x00000000	0.0
21	0x00000000	0.0
22	0x00000000	0.0
23	0x00000000	0.0
24	0x00000000	0.0
25	0x00000000	0.0
26	0x00000000	0.0
27	0x00000000	0.0
28	0x00000000	0.0
29	0x00000000	0.0
30	0x00000000	0.0
31	0x00000000	0.0
32	0x00000000	0.0
33	0x00000000	0.0
34	0x00000000	0.0
35	0x00000000	0.0
36	0x00000000	0.0
37	0x00000000	0.0
38	0x00000000	0.0
39	0x00000000	0.0
40	0x00000000	0.0
41	0x00000000	0.0
42	0x00000000	0.0
43	0x00000000	0.0
44	0x00000000	0.0
45	0x00000000	0.0
46	0x00000000	0.0
47	0x00000000	0.0
48	0x00000000	0.0
49	0x00000000	0.0
50	0x00000000	0.0
51	0x00000000	0.0
52	0x00000000	0.0
53	0x00000000	0.0
54	0x00000000	0.0
55	0x00000000	0.0
56	0x00000000	0.0
57	0x00000000	0.0
58	0x00000000	0.0
59	0x00000000	0.0
60	0x00000000	0.0
61	0x00000000	0.0
62	0x00000000	0.0
63	0x00000000	0.0
64	0x00000000	0.0
65	0x00000000	0.0
66	0x00000000	0.0
67	0x00000000	0.0
68	0x00000000	0.0
69	0x00000000	0.0
70	0x00000000	0.0
71	0x00000000	0.0
72	0x00000000	0.0
73	0x00000000	0.0
74	0x00000000	0.0
75	0x00000000	0.0
76	0x00000000	0.0
77	0x00000000	0.0
78	0x00000000	0.0
79	0x00000000	0.0
80	0x00000000	0.0
81	0x00000000	0.0
82	0x00000000	0.0
83	0x00000000	0.0
84	0x00000000	0.0
85	0x00000000	0.0
86	0x00000000	0.0
87	0x00000000	0.0
88	0x00000000	0.0
89	0x00000000	0.0
90	0x00000000	0.0
91	0x00000000	0.0
92	0x00000000	0.0
93	0x00000000	0.0
94	0x00000000	0.0
95	0x00000000	0.0
96	0x00000000	0.0
97	0x00000000	0.0
98	0x00000000	0.0
99	0x00000000	0.0
100	0x00000000	0.0
101	0x00000000	0.0
102	0x00000000	0.0
103	0x00000000	0.0
104	0x00000000	0.0
105	0x00000000	0.0
106	0x00000000	0.0
107	0x00000000	0.0
108	0x00000000	0.0
109	0x00000000	0.0
110	0x00000000	0.0
111	0x00000000	0.0
112	0x00000000	0.0
113	0x00000000	0.0
114	0x00000000	0.0
115	0x00000000	0.0
116	0x00000000	0.0
117	0x00000000	0.0
118	0x00000000	0.0
119	0x00000000	0.0
120	0x00000000	0.0
121	0x00000000	0.0
122	0x00000000	0.0
123	0x00000000	0.0
124	0x00000000	0.0
125	0x00000000	0.0
126	0x00000000	0.0
127	0x3f919563	1.1373714
128	0xbf800000	-1.0
129	0xbf802b4e	-1.0013216
130	0x00000000	0.0
131	0x00000000	0.0
132	0x00000000	0.0
133	0x00000000	0.0
134	0x00000000	0.0
135	0x00000000	0.0
136	0x00000000	0.0
137	0x00000000	0.0
138	0x00000000	0.0
139	0x00000000	0.0
140	0x00000000	0.0
141	0x00000000	0.0
142	0x00000000	0.0
143	0x00000000	0.0
144	0x00000000	0.0
145	0x00000000	0.0
146	0x00000000	0.0
147	0x00000000	0.0
148	0x00000000	0.0
149	0x00000000	0.0
150	0x00000000	0.0
151	0x00000000	0.0
152	0x00000000	0.0
153	0x00000000	0.0
154	0x3f99da84	1.2019811
155	0xbf99883c	-1.19947
156	0x3f8409a1	1.0315439
157	0xbf80d13c	-1.0063853
158	0xbf800000	-1.0
159	0x00000000	0.0
160	0x00000000	0.0
161	0x00000000	0.0
162	0x00000000	0.0
163	0x00000000	0.0
164	0x00000000	0.0
165	0x00000000	0.0
166	0x00000000	0.0
167	0x00000000	0.0
168	0x00000000	0.0
169	0x00000000	0.0
170	0x00000000	0.0
171	0x00000000	0.0
172	0x00000000	0.0
173	0x00000000	0.0
174	0x00000000	0.0
175	0x00000000	0.0
176	0x00000000	0.0
177	0x00000000	0.0
178	0x00000000	0.0
179	0x00000000	0.0
180	0x00000000	0.0
181	0x3ffd0363	1.9766659
182	0xbf8298a9	-1.0202838
183	0x3f804cba	1.0023415
184	0x3f80f2dd	1.0074116
185	0x3fe596c3	1.7936634
186	0xbf818ecd	-1.0121704
187	0xbfbbf4cb	-1.468408
188	0x00000000	0.0
189	0x00000000	0.0
190	0x00000000	0.0
191	0x00000000	0.0
192	0x00000000	0.0
193	0x00000000	0.0
194	0x00000000	0.0
195	0x00000000	0.0
196	0x00000000	0.0
197	0x00000000	0.0
198	0x00000000	0.0
199	0x00000000	0.0
200	0x00000000	0.0
201	0x00000000	0.0
202	0x00000000	0.0
203	0x00000000	0.0
204	0x00000000	0.0
205	0x00000000	0.0
206	0x00000000	0.0
207	0x00000000	0.0
208	0xbf807450	-1.0035496
209	0x3fbdcf6e	1.4828928
210	0xbf825717	-1.0182828
211	0x3f829965	1.0203062
212	0xbf894df7	-1.0726918
213	0xbf80393f	-1.001747
214	0x3fba19bd	1.4539105
215	0x3f800000	1.0
216	0x00000000	0.0
217	0x00000000	0.0
218	0x00000000	0.0
219	0x00000000	0.0
220	0x00000000	0.0
221	0x00000000	0.0
222	0x00000000	0.0
223	0x00000000	0.0
224	0x00000000	0.0
225	0x00000000	0.0
226	0x00000000	0.0
227	0x00000000	0.0
228	0x00000000	0.0
229	0x00000000	0.0
230	0x00000000	0.0
231	0x00000000	0.0
232	0x00000000	0.0
233	0x00000000	0.0
234	0x00000000	0.0
235	0x4041d198	3.0284176
236	0xbf813f41	-1.0097429
237	0x3f800000	1.0
238	0xbfe86c52	-1.8158057
239	0x3f815f7a	1.0107262
240	0x3f8150ae	1.0102746
241	0xbf8057a6	-1.0026748
242	0x3fb72c67	1.4310426
243	0x3f800000	1.0
244	0x00000000	0.0
245	0x00000000	0.0
246	0x00000000	0.0
247	0x00000000	0.0
248	0x00000000	0.0
249	0x00000000	0.0
250	0x00000000	0.0
251	0x00000000	0.0
252	0x00000000	0.0
253	0x00000000	0.0
254	0x00000000	0.0
255	0x00000000	0.0

fc0.bias f4 [4]
0	0x3f55078d	0.83214647
1	0x3f224c86	0.63398015
2	0x3f1c2ac9	0.61002785
3	0x3ef6e5dc	0.48222244

fc1.weight f4 [32, 4]
0	0xbf478a24	-0.7794516
1	0xbcaf9775	-0.021434525
2	0xbe6996bc	-0.22811407
3	0xbd9bfb62	-0.07616307
4	0xbf07da99	-0.5306793
5	0x3f21bf37	0.63182396
6	0xbf230324	-0.6367667
7	0xbed411a7	-0.41419718
8	0x3debbe88	0.1151095
9	0xbf908e2b	-1.1293386
10	0x3f173f3d	0.5908087
11	0x3e95eb52	0.29281098
12	0xbd9849c8	-0.07435948
13	0xbee3d754	-0.4450022
14	0xbf834475	-1.0255266
15	0x3f9989a2	1.1995127
16	0x3ead62c9	0.3386443
17	0xbd815e7b	-0.06316849
18	0xbf37123d	-0.71512204
19	0x3f8038ad	1.0017296
20	0x3f10dc19	0.5658584
21	0xbf54c7ee	-0.8311757
22	0xbf385e9a	-0.7201935
23	0x3f09342a	0.5359522
24	0x3f00db8c	0.50335
25	0x3e490b29	0.19633164
26	0xbd3f396d	-0.046685625
27	0xbd7ed6ae	-0.062216453
28	0x3e7337f9	0.2375182
29	0x3ed00f5e	0.40636724
30	0xbeb040f8	-0.34424567
31	0x3d50707f	0.050888535
32	0xbf3f5050	-0.7473192
33	0x3f80ed30	1.0072384
34	0xbe45bb37	-0.19309698
35	0x3f6e9369	0.9319368
36	0xbf00686e	-0.5015935
37	0xbf01f9e7	-0.50771946
38	0x3f26b18e	0.65114677
39	0x3ec0a199	0.3762329
40	0xbe8a1981	-0.26972583
41	0xbde26a1c	-0.11055395
42	0xbf4dfb5c	-0.8046167
43	0x3e64d685	0.22347458
44	0xbfa36d08	-1.2767649
45	0xbf5be5c3	-0.85897464
46	0x3f40668b	0.7515647
47	0x3f52b6f3	0.8231041
48	0xbf5c050d	-0.85945207
49	0x3f5bc700	0.85850525
50	0xbf40eda6	-0.7536262
51	0x3f573cf0	0.8407736
52	0x3f82a157	1.0205487
53	0x3f42b13e	0.760517
54	0x3bf25689	0.0073955697
55	0xbe21c144	-0.15796381
56	0x3de62cc4	0.11239007
57	0xbeceaa81	-0.4036446
58	0xbef68289	-0.48146465
59	0xbf1eb869	-0.6200014
60	0x3eb2d91d	0.3493127
61	0x3f5a16c8	0.8519101
62	0xbf0ded54	-0.5544026
63	0x3c43fc7c	0.011962052
64	0x3f9f3d8e	1.244066
65	0x3e59e645	0.21279247
66	0x3efe3ac5	0.49654213
67	0xbf528542	-0.82234585
68	0xbf815ba8	-1.0106096
69	0x3f872c30	1.056036
70	0x3e71ce03	0.23613743
71	0x3e91820e	0.28419536
72	0x3e2e1e65	0.17003782
73	0x3fb5a013	1.4189476
74	0x3db6a27f	0.089177124
75	0xbe91acae	-0.28452057
76	0xbf2469bb	-0.6422383
77	0xbd04b59a	-0.03239975
78	0x3d9737f4	0.07383719
79	0x3e38dbfb	0.18052666
80	0xbeecd95e	-0.46259588
81	0xbdfd6a6f	-0.12373816
82	0x3d66a538	0.05630991
83	0xbec5eef6	-0.38658875
84	0xbec3e2f9	-0.38259104
85	0xbe965b32	-0.29366452
86	0xbf07f877	-0.531135
87	0x3ebd5402	0.36978155
88	0x3f101472	0.562812
89	0xbf6b6e16	-0.9196485
90	0xbf0849a8	-0.5323739
91	0x3e4c59e1	0.19956161
92	0x3f087ad7	0.5331244
93	0x3e7c3581	0.24629785
94	0xbea38abb	-0.3194178
95	0xbe89737c	-0.2684592
96	0x3f421203	0.75808734
97	0x3ebd05ec	0.3691858
98	0xbf98ae81	-1.1928254
99	0x3e657ac3	0.22410111
100	0x3f16280b	0.5865485
101	0x3e57b411	0.21064784
102	0x3e07f216	0.13275942
103	0x3f88e728	1.0695543
104	0xbe6aafc0	-0.22918606
105	0x3cecc232	0.028901193
106	0x3f1cc496	0.61237466
107	0x3f2e8253	0.6816761
108	0x3d91a2cc	0.07111129
109	0x3b81644c	0.003948724
110	0xbe9a8f31	-0.3018737
111	0xbddc5ebf	-0.10760259
112	0xbce4b592	-0.02791861
113	0x3f97d778	1.1862631
114	0x3ea37069	0.319217
115	0xbe595e73	-0.21227436
116	0x3f04f43f	0.5193519
117	0x3f97766e	1.1833017
118	0x3f417678	0.75571394
119	0x3fbdcbbc	1.48278
120	0x3eac31a0	0.3363161
121	0x3e6ac0d6	0.22925124
122	0x3f048281	0.51761633
123	0x3eb9dde8	0.36302114
124	0x3e895856	0.26825207
125	0x3f711863	0.94177836
126	0x3f943fd9	1.1581985
127	0x3defb51c	0.11704466

fc1.bias f4 [32]
0	0xbe66fce0	-0.22557402
1	0x3eae2cef	0.34018657
2	0xbf37bd26	-0.7177299
3	0xbe87f5a0	-0.26554585
4	0x3e4347de	0.19070384
5	0xbf195c76	-0.5990671
6	0xbdc74f47	-0.09731918
7	0x3f2837b3	0.6570999
8	0x3eb33937	0.3500459
9	0x3f15efbe	0.5856894
10	0xbe54017a	-0.20703688
11	0xbbb4d4b6	-0.005518521
12	0x3def2c36	0.116783544
13	0xbe7bb55e	-0.24580905
14	0xbe5f6ce6	-0.21818885
15	0x3ebe1cef	0.3713145
16	0x3eff0c51	0.49814084
17	0x3e0c7302	0.13715747
18	0xbf0c237d	-0.5474165
19	0xbe49625a	-0.19666424
20	0xbf1f5ca4	-0.62250733
21	0xbe03d353	-0.12873583
22	0xbebe5331	-0.37172845
23	0xbd517fb1	-0.051147167
24	0x3eca31c0	0.3949108
25	0x3f08d8ab	0.5345561
26	0x3ec3fea8	0.38280225
27	0x3efe2aab	0.49641928
28	0x3deb1423	0.1147845
29	0xbded621a	-0.11590977
30	0x3f15ac42	0.5846597
31	0x3e191491	0.14949252

fc2.weight f4 [16, 32]
0	0x3d8a85e9	0.067638226
1	0xbe88b143	-0.2669774
2	0x3ea0d565	0.31412807
3	0x3e3f4b1b	0.18680994
4	0x3db183dc	0.08667728
5	0xbeb17ba4	-0.34664643
6	0xbdcc1e9e	-0.09966777
7	0xbe9aa338	-0.3020265
8	0xbe803dfc	-0.2504729
9	0xbe24e725	-0.161038
10	0xbd157e1b	-0.036497217
11	0xba9dd5b1	-0.0012041834
12	0x3ee99823	0.45623884
13	0x3d0f50f1	0.0349893
14	0xbc26faa8	-0.010191597
15	0xbeabf6f2	-0.33586842
16	0xbe882c0b	-0.26596102
17	0xbf189827	-0.59607166
18	0xbe0ea265	-0.13929136
19	0xbba11f09	-0.0049170298
20	0x3f127201	0.57205206
21	0xbe73f97d	-0.23825641
22	0x3e74a9c1	0.23892881
23	0xbe03efb4	-0.12884408
24	0xbddc1c0f	-0.10747539
25	0xbea8c8b9	-0.3296564
26	0x3d4a910b	0.04945473
27	0xbedc70eb	-0.430549
28	0xbeb0817c	-0.3447379
29	0x3d4756c5	0.048666734
30	0xbe3ab8db	-0.1823458
31	0x3dac2796	0.08405988
32	0x3ed42b70	0.4143939
33	0x3f42d439	0.76105076
34	0xbe1490a6	-0.14508304
35	0xbd9f9d2f	-0.07793652
36	0x3ecf0610	0.40434313
37	0xbec4ee88	-0.38463235
38	0x3ebebf46	0.37255305
39	0x3ecf4d16	0.404885
40	0xbe8cf8bb	-0.27533516
41	0xbe3972b9	-0.1811017
42	0xbd8b1f34	-0.06793061
43	0x3e7d22ec	0.24720353
44	0xbe87665c	-0.26445282
45	0x3f672c0b	0.9030158
46	0xbd95f649	-0.07322366
47	0xbe1588d5	-0.14602979
48	0x3f0604b3	0.5235092
49	0xbeb9c3a2	-0.36282068
50	0x3ea89091	0.32922795
51	0xbe9622e4	-0.29323494
52	0xbcceff24	-0.025268145
53	0xbc49afe6	-0.012310004
54	0xbe2bbc37	-0.16771017
55	0xbce675ee	-0.028132405
56	0x3ede0249	0.43361118
57	0x3f3531e3	0.70779246
58	0x3e54ab05	0.20768364
59	0x3dcba80a	0.0994416
60	0xbe2f5944	-0.17123896
61	0x3e86d9cf	0.2633805
62	0x3d6d3d68	0.05791989
63	0x3ed268da	0.4109562
64	0xbde3fc15	-0.11132065
65	0x3ea06eca	0.31334525
66	0x3ea0684b	0.3132957
67	0xbe0730f7	-0.13202272
68	0x3e6e00bf	0.23242472
69	0x3e4c1e85	0.19933517
70	0x3e624269	0.22095646
71	0xbe6679a7	-0.22507344
72	0xbd39a240	-0.04532075
73	0x3dcd8746	0.10035567
74	0xbe766d4f	-0.24065135
75	0x3d62d13c	0.055375323
76	0xbd594c3d	-0.053051222
77	0xbeb63ff2	-0.3559566
78	0x3e035a4d	0.12827416
79	0xbefada2f	-0.48994586
80	0xbe080b54	-0.13285571
81	0xbd606d2c	-0.054791614
82	0xbe66fd27	-0.22557507
83	0x3e004104	0.12524801
84	0x3ef0ecc5	0.4705564
85	0xbdf560cc	-0.11981353
86	0x3ed127ab	0.40850577
87	0x3c993e04	0.01870633
88	0xbed4837f	-0.41506574
89	0xbd9cf57b	-0.07664009
90	0xbe6e3701	-0.2326317
91	0xbea322e5	-0.3186256
92	0xbe2a1a44	-0.16611582
93	0x3e8c6d58	0.27427173
94	0xbe18c139	-0.14917459
95	0x3c598786	0.01327694
96	0xbd91606c	-0.07098469
97	0x3e22a280	0.15882301
98	0x3e38b307	0.18037044
99	0x3c033751	0.008008794
100	0xbea3a956	-0.3196513
101	0xbd28605a	-0.041107513
102	0xbde52c0f	-0.11190044
103	0xbdf23efb	-0.11828419
104	0x3de2f5b4	0.110820204
105	0x3df08431	0.117439635
106	0xbea2d41c	-0.31802452
107	0xbdc7d669	-0.09757692
108	0x3e72dff2	0.23718241
109	0x3e6b6d57	0.22990929
110	0x3e48ff5f	0.19628666
111	0xbe976783	-0.2957116
112	0xbe851f73	-0.26000556
113	0x3eb8170f	0.35955092
114	0xbbfbac4d	-0.007680452
115	0xbe9d2f17	-0.3069999
116	0x3d76bea9	0.06024042
117	0x3e4c8f3c	0.19976515
118	0xbd4e9f1e	-0.050444715
119	0x3e22e04f	0.1590588
120	0x3eee0cb5	0.4649407
121	0xbf391440	-0.72296524
122	0xbe438776	-0.19094643
123	0xbca594db	-0.020212581
124	0x3e647275	0.22309287
125	0x3e068cfc	0.13139719
126	0x3d9b7a34	0.07591668
127	0xbee2f916	-0.44330662
128	0x3ebd4871	0.3696933
129	0xbd98d7ae	-0.07463013
130	0x3f1258e1	0.5716687
131	0xbde4cba4	-0.11171654
132	0xbe08e392	-0.13368061
133	0xbe4d1763	-0.20028453
134	0xbe75c3d7	-0.24000488
135	0xbde9d424	-0.11417416
136	0xbdcf2273	-0.101139925
137	0xbe69b39e	-0.22822425
138	0x3e7a1eb0	0.24425769
139	0xbea29ea0	-0.31761646
140	0xbe21860b	-0.1577379
141	0xbe2da0d2	-0.1695588
142	0x3eb6348c	0.35586965
143	0x3e86523e	0.2623462
144	0xbef1538e	-0.4713406
145	0x3c6d5813	0.014486331
146	0x3f17dff1	0.5932608
147	0x3e480c84	0.19536024
148	0x3e4b51f4	0.19855481
149	0x3eaee6c7	0.34160444
150	0x3e5f25d1	0.2179177
151	0xbea43de6	-0.32078475
152	0xbe2d8307	-0.16944514
153	0x3d0c8fcf	0.034316834
154	0xbd102025	-0.035186905
155	0xbea46844	-0.32110798
156	0xbe9f50c7	-0.31116316
157	0xbd9f24ed	-0.07770715
158	0xbe5ea45b	-0.21742384
159	0xbdb16354	-0.086615235
160	0xbe671044	-0.22564799
161	0x39cc2a8d	0.00038941615
162	0xbeb452a1	-0.3521929
163	0x3d8f42ef	0.069951884
164	0x3e34aba3	0.17643599
165	0x3e820c0b	0.25399813
166	0x3ed1d4b5	0.40982595
167	0x3ea33240	0.31874275
168	0xbea49a81	-0.32149127
169	0x3ee158a4	0.4401294
170	0x3cae81db	0.021302154
171	0xbd5784bd	-0.052616823
172	0x3e188b35	0.14896853
173	0x3ebb797e	0.3661613
174	0xbe6191e0	-0.22028303
175	0x3e522533	0.20522003
176	0x3cfeceb4	0.031104423
177	0x3eb82995	0.35969225
178	0xbe2d3179	-0.16913404
179	0x3c8673f4	0.016412713
180	0x3d6ffcfe	0.05859088
181	0xbea03b5d	-0.3129529
182	0x3ef42883	0.47687158
183	0xbe45f256	-0.19330725
184	0xbe983d24	-0.29734147
185	0xbd04a6ea	-0.032385744
186	0x3eccc287	0.39992163
187	0x3e30a348	0.17249787
188	0xbd3b49de	-0.045724742
189	0x3ed3ce04	0.41368115
190	0x3e33af70	0.17547393
191	0xbe037ed6	-0.12841353
192	0xbc866f01	-0.016410353
193	0xbddf7a9e	-0.10912059
194	0xbe6a2a44	-0.22867686
195	0x3e47c780	0.19509697
196	0xbd751450	-0.059833825
197	0x3e27aeeb	0.1637532
198	0x3f1819b5	0.59414226
199	0x3d9fed13	0.0780889
200	0x3f09b93c	0.5379827
201	0xbeaf2c67	-0.34213564
202	0xbd49b10e	-0.049241118
203	0x3e60b24c	0.21943015
204	0x3c281b98	0.010260485
205	0x3d870ce3	0.06594255
206	0x3eafc7eb	0.34332213
207	0x3e2c2f32	0.16814879
208	0xbe4c4c70	-0.19951034
209	0x3f0cc765	0.5499175
210	0x3ec3f369	0.38271645
211	0xbeb99ed3	-0.36253986
212	0x3f05ce31	0.5226775
213	0x3e592fb8	0.2120961
214	0x3d6b16c6	0.057394765
215	0x3e8f7335	0.28017583
216	0x3e1b81f0	0.15186286
217	0xbe029e74	-0.12755758
218	0xbdbef078	-0.093232095
219	0xbee7c78a	-0.45269424
220	0xbccae1d4	-0.024765886
221	0xbe21d3fc	-0.15803522
222	0xbdf38a84	-0.11891654
223	0xbe9855f3	-0.29753074
224	0xbec621dc	-0.38697708
225	0x3dba7a1c	0.09105322
226	0xbdcd9cf6	-0.100397035
227	0xbef269b3	-0.47346267
228	0x3ec47d51	0.3837686
229	0xbd10ada2	-0.03532184
230	0xbe9cf6d7	-0.30657074
231	0xbf044617	-0.5166945
232	0x3e826e71	0.25474885
233	0x3e182d14	0.14860946
234	0xbe725a18	-0.2366718
235	0x3d94eb23	0.07271411
236	0x3e21e0e8	0.15808451
237	0xbcff09e4	-0.031132646
238	0x3e4576f1	0.19283654
239	0xbe777afa	-0.24168006
240	0x3d474fce	0.048660092
241	0x3e6a3f90	0.2287581
242	0x3db87b06	0.0900784
243	0x3e234483	0.15944104
244	0x3f042158	0.5161338
245	0xbe3216f7	-0.17391573
246	0x3d384550	0.044987977
247	0x3e9a75de	0.3016805
248	0x3e8942d9	0.26808813
249	0xbe187580	-0.14888573
250	0xbf3f3072	-0.74683297
251	0xbec13b5b	-0.37740597
252	0xbddedb4c	-0.10881671
253	0xbe9aaaae	-0.30208343
254	0xbea3194e	-0.31855243
255	0x3db8d48b	0.09024914

fc2.bias f4 [16]
0	0xbeaf40ae	-0.34229034
1	0x3d5481ad	0.05188148
2	0xbe93bb1f	-0.288537
3	0xbe0518e0	-0.1299777
4	0xbd8cf600	-0.06882858
5	0xbdb969eb	-0.090534054
6	0xbe64c3d3	-0.22340326
7	0x3e63eecd	0.22259064
8	0xbe0f83fd	-0.14015193
9	0xbe7f5f89	-0.24938788
10	0xbd1d81a2	-0.038453706
11	0xbdaf84b9	-0.08570237
12	0x3d6bc838	0.05756399
13	0x3d9c3d48	0.07628876
14	0xbe660c9a	-0.22465745
15	0xbda8bf0e	-0.08239566

fc3.weight f4 [1, 16]
0	0x3e1bc690	0.15212464
1	0xbe6db9bd	-0.23215385
2	0x3ea1687c	0.31525028
3	0x3da201eb	0.07910522
4	0x3f639f28	0.8891473
5	0xbef923e9	-0.4866021
6	0x3f17f180	0.59352875
7	0x3d841f6d	0.064513065
8	0x3ef891fe	0.48548883
9	0x3f00f7c1	0.5037804
10	0x3f395f21	0.7241078
11	0xbf0e588e	-0.55603874
12	0xbf3f104b	-0.74634236
13	0xbee31e9d	-0.44359294
14	0x3eae07cb	0.3399032
15	0xbe66d9ed	-0.2254407
