ffn_mnist_binary_6.pth (torch, 105881 bytes, 5 tensors)

fc0.weight f4 [32, 784]
000000 fb 85 03 3e f9 ec 7b bc 10 4e 89 bc 7a 43 6c 3c
       0.12844078 -0.015376323 -0.016760856 0.014420385
000010 4c 82 97 3d aa 7e de bd d8 c6 87 bd 41 af cd 3d
       0.07397899 -0.10864003 -0.06629723 0.10043193
000020 37 f0 bb 3c c2 6d 5a bc 7e 32 88 bd 30 73 b8 bd
       0.022941692 -0.013331832 -0.066502556 -0.09006345
000030 33 b7 14 be 13 21 0d be b1 79 52 bd 75 e0 6b bd
       -0.1452301 -0.13782148 -0.051385585 -0.057587106
000040 2c 7c 32 3d 23 df ea 3d e7 4a 86 3d 40 b1 88 3d
       0.04357545 0.11468341 0.06557255 0.06674433
000050 25 c5 91 3d 91 3e 96 3d da 38 ff bc 2d 21 01 bd
       0.071176805 0.07336152 -0.031155039 -0.03152578
000060 45 e6 ae 3d c9 e9 33 bd 65 09 00 be 58 2b af 3c
       0.08540014 -0.043924127 -0.12503584 0.021382973
000070 79 16 4c 3c c7 58 b0 bd 45 06 1d 3c 33 95 a4 ba
       0.01245653 -0.08610683 0.009584014 -0.0012556672
000080 c4 43 45 bd 5d 43 a5 bd 21 7c 8a be 2b 2b 55 bd
       -0.04816033 -0.08069489 -0.27047828 -0.05204312
000090 a5 87 8d bd c2 42 80 bd 2f 08 4d be 4f d1 ee bd
       -0.06910638 -0.06262733 -0.20022653 -0.11661016
0000a0 a2 ec 0d bd 5c 2b 2e be e5 8a 5f bd 62 90 44 bd
       -0.0346495 -0.17008728 -0.05457582 -0.047989257
0000b0 f4 f6 ed bc 31 3d a6 bd bc 82 44 bd 1a 7e 74 3d
       -0.02904842 -0.0811714 -0.04797624 0.059690572
0000c0 59 14 62 3d b9 3f 8a 3e c5 a2 57 3d 58 df e9 bd
       0.055195186 0.27001742 0.052645463 -0.114195526
0000d0 71 60 56 bd fc 8d 10 bd b9 99 30 bd b8 35 37 bc
       -0.052338067 -0.035291657 -0.04311535 -0.011182241
0000e0 c1 07 3d 3c 01 e8 fc bd d9 d9 23 3e 40 28 04 3e
       0.011537493 -0.12348939 0.16001071 0.12905979
0000f0 28 65 4d 3d 16 29 d2 bd 51 b6 f0 bd f6 fc 47 be
       0.0501453 -0.10261743 -0.11753524 -0.1953009
000100 17 5b 92 be 7b 7d 91 bd 2e c0 89 be c6 0f 82 be
       -0.2858512 -0.071040116 -0.26904434 -0.2540266
000110 9c 35 d2 be 95 dd c4 be 56 bf e9 be 14 6e 95 be
       -0.41056526 -0.38450304 -0.4565379 -0.29185545
000120 a2 be 3b be 2f 2c 1e 3d 55 e3 c7 3d ee 06 c4 bb
       -0.1833444 0.038616356 0.09760157 -0.0059822714
000130 63 ef 4a 3e 0c eb 2a 3e 4b 10 a2 3e e2 dd 83 3e
       0.19817881 0.16691226 0.31653056 0.2575522
000140 ff 00 54 3e ab b3 57 3b bd e0 0b 3e 6c 16 cb 3d
       0.20703505 0.0032913487 0.1365995 0.09916386
000150 7d 2a 21 3c ea 2e 0d 3d e6 b6 58 bd ed a1 2b be
       0.00983679 0.03446857 -0.0529088 -0.16760989
000160 3b 3d 38 be 66 73 8d bd 90 78 17 be 69 38 8d bd
       -0.17992108 -0.06906776 -0.14792085 -0.06895525
000170 05 eb 43 3d fc 0f fc bd 34 52 1f be 07 e7 5a be
       0.047831554 -0.12307736 -0.15558702 -0.21377192
000180 59 04 fb bd 62 43 61 be 8a 9f 63 3a 0c 5a 25 3c
       -0.122566886 -0.21998361 0.0008683136 0.01009227
000190 2d 72 11 be 13 96 56 3d a5 c8 d8 bd 78 6f 28 bc
       -0.14203711 0.052389216 -0.10585145 -0.0102804825
0001a0 1f b3 ab 3b b6 81 21 3e 24 e5 43 3d a9 6b b6 3d
       0.0052398588 0.15772137 0.047825947 0.08907253
0001b0 82 9c 38 3e f0 bb 42 3e f8 06 0d 3e b5 38 09 3e
       0.18028453 0.19017005 0.1377219 0.13400538
0001c0 1c a9 2e b9 85 5a 80 3d 28 0b 04 be 49 db 4b bc
       -0.00016656931 0.06267265 -0.12894881 -0.012442418
0001d0 10 0b d0 bd a7 91 1d be c4 26 04 be 4c 06 72 be
       -0.1015836 -0.15387593 -0.12905413 -0.23635215
0001e0 da f0 04 be 31 8a f2 bc e9 cb 1c bd 2b da b2 bd
       -0.12982503 -0.02960691 -0.0382804 -0.087330185
0001f0 b4 11 50 be 1a 6f 1e be ed f4 a4 3c 16 50 3a bd
       -0.20319253 -0.1547207 0.020136321 -0.045486532
000200 ef 00 77 bd e5 f4 a7 3d 27 a9 b3 bd 42 67 bb 3d
       -0.060303625 0.08201007 -0.087724976 0.09150554
000210 42 f2 b9 3d cf 7a 37 3d 81 b9 82 bc 07 ef fc 3d
       0.0907941 0.044794854 -0.015957596 0.12350278
000220 79 f0 2d 3e 8b dd 51 3d 53 42 74 3c ba c9 2f be
       0.16986264 0.05123667 0.014908391 -0.17166796
000230 ba 86 25 bc e6 bd 04 3e bd ba 03 be 0d c9 e9 bd
       -0.010102922 0.12963066 -0.12864204 -0.114153005
000240 53 b1 51 3d 35 25 72 bd 15 4d a1 3d ca 8f 1f 3d
       0.0511945 -0.059117515 0.0787603 0.038955487
000250 5f 2b 19 bd 01 93 3d be 14 f9 13 bd 90 6d c9 bd
       -0.037394878 -0.18513109 -0.03612621 -0.098353505
000260 ed 88 42 bd 9d f7 c7 bd 9a 35 0a bc f7 ed 45 3c
       -0.047493864 -0.09764025 -0.008435631 0.012080661
000270 e7 9a 35 3e 99 f5 0a bd 08 5a 08 3e 40 87 bd bd
       0.17734872 -0.033925626 0.13315594 -0.092543125
000280 2c 17 0d 3d 55 6c 63 3c 67 06 21 bd 9f 3a 1b 3e
       0.034445927 0.013880809 -0.039312746 0.15159081
000290 4f ba 22 3e 3d 24 25 bd 6e 40 cf bd 44 49 3a be
       0.15891384 -0.040317763 -0.10119711 -0.18192011
0002a0 35 a1 45 3d 75 de 1b bc 6d 2d 03 3e e9 77 1c bd
       0.048249442 -0.009513487 0.12810297 -0.038200293
0002b0 b8 2d 9e 3d 58 7f b1 bd be 72 bd 3c d3 fc d5 bd
       0.07723564 -0.08666867 0.023126002 -0.10448613
0002c0 ff 4e 1b bb d5 0d 49 be e1 9e 4a be 1e e8 02 bd
       -0.0023698208 -0.19634183 -0.1978717 -0.031959645
0002d0 93 cd 10 3d d1 f2 16 bd d6 28 a8 bc b0 22 73 3e
       0.0353523 -0.03685266 -0.020527285 0.23743701
0002e0 6b 30 8c 3e d3 c3 f3 3d c7 aa 61 3e fb 6d 84 3d
       0.2738069 0.11902585 0.22037803 0.064662896
0002f0 08 18 78 3e 55 50 5c 3e e4 5c 6c 3e ab 4e 85 3d
       0.24227917 0.21515019 0.2308231 0.06509145
000300 c2 13 91 bd d1 e5 26 bd 48 4d cd 3b b6 bb 62 3e
       -0.07083847 -0.040746514 0.006265316 0.22141919
000310 c7 3b 61 3d bd 06 0d bd 81 9d a9 bd 47 fe 9f 3d
       0.05498865 -0.034430254 -0.082819946 0.078121714
000320 90 b2 80 3d 27 4d 57 bc 52 6d 0d be 0f a7 0d be
       0.06284058 -0.013140953 -0.13811234 -0.13833259
000330 a1 46 85 bd 1a 49 0f be d0 5e dd 3d 40 ad ec bd
       -0.06507612 -0.1399273 0.108091 -0.11556482
000340 98 39 22 bd 8a 46 d4 3b 86 90 35 39 fa d4 55 3d
       -0.039605707 0.0064781355 0.00017315344 0.052205063
000350 af 35 d1 3d b3 31 ea 3d e2 08 64 3d 1e 00 dd 3c
       0.102153175 0.114352606 0.055672534 0.026977595
000360 8d cf 63 3e e5 36 1a 3e 0a 70 d8 3d 63 c2 c5 bc
       0.22247143 0.15060003 0.10568245 -0.024140542
000370 33 fa b4 3b 9b fd dd 3c f0 12 99 bc 11 98 8a 3d
       0.00552299 0.027098468 -0.018685788 0.067672856
000380 98 f7 ab bd 60 de 1b bc 35 84 59 3d 55 33 24 3e
       -0.08396834 -0.009513468 0.053104598 0.16035207
000390 93 bf f5 3b ac 02 18 be 82 56 79 3d d0 54 41 bc
       0.007499644 -0.14844769 0.060873516 -0.011800006
0003a0 ca 07 20 3c cb 01 ea 3d 9f d6 44 3e e1 73 6f bd
       0.009767482 0.11426123 0.19222496 -0.05846012
0003b0 48 63 be 3d 93 4a 0b 3c 4d 69 03 3e b8 8d 54 3e
       0.0929628 0.008501667 0.12833138 0.20757186
0003c0 60 c3 6e bc 33 61 0e bd 43 d0 38 3e 56 2d 59 bc
       -0.014572948 -0.034760665 0.18048196 -0.013255438
0003d0 9c cf 5c be c0 69 22 be 9e 31 04 be e0 5e ef bd
       -0.21563572 -0.15860653 -0.12909552 -0.11688018
0003e0 eb 16 8f 3c 2e 0d 9a 3d 73 ba 0c 3e 49 84 87 3d
       0.017466983 0.07522045 0.13743 0.06617028
0003f0 8b c6 51 bd c8 79 6a 3e 08 94 6a 3e d0 32 d5 bc
       -0.051214736 0.22898018 0.22908032 -0.026025206

fc0.bias f4 [32]
000000 d9 2d 91 3d 33 34 39 3e 2e fe 53 3d bb e0 c9 bd
       0.07088823 0.18086319 0.051756077 -0.09857317
000010 4c b8 a3 3d 13 bf 3b 3e a4 c7 38 be 1b 09 25 be
       0.07994136 0.18334608 -0.18044907 -0.16116755
000020 eb a0 ef 3c fa 76 31 bc 07 37 52 be 96 5d 82 bd
       0.029251536 -0.010831589 -0.20528804 -0.06365506
000030 a8 87 ed bd 46 93 17 3e 1a 45 f8 3d 6a 92 91 3d
       -0.1159814 0.14802274 0.12122555 0.071080044
000040 f7 e7 34 be 27 e3 58 3e 3b d0 fd 3d f1 b1 75 3d
       -0.17666613 0.21180402 0.123932324 0.05998415
000050 5c 02 ba bc 17 cb 98 ba 4f b7 32 bd b3 16 18 3e
       -0.022706203 -0.0011657205 -0.043631848 0.14852409
000060 f7 4c a9 bd e4 48 02 be 34 e3 19 3e 2b df 08 be
       -0.08266633 -0.12723118 0.15028077 -0.13366382
000070 b6 83 21 be aa 90 43 be 25 22 5a be 0e 09 18 3e
       -0.157729 -0.19098154 -0.21302088 0.14847204

fc1.weight f4 [16, 32]
000000 56 67 86 be 0a 5a 81 3e b5 e9 85 3d f8 72 8f bc
       -0.26250714 0.25264007 0.06538717 -0.017510876
000010 7f 5e fe be 4e 23 c7 3e cb 7c 19 be 16 ee 6b 3e
       -0.4968147 0.38894123 -0.14989011 0.23040041
000020 85 53 e8 3e 75 2f 20 3f ae 0a c8 be 11 ed 15 3f
       0.4537622 0.62572414 -0.39070648 0.5856486
000030 04 2e cf bb 69 31 bc bd 31 2c 08 3f 8b 41 c0 3e
       -0.006322624 -0.09189112 0.5319243 0.37550005
000040 d8 33 1b 3e ca e4 be be 9b 21 6a be ca d5 53 bd
       0.15156496 -0.37283927 -0.22864382 -0.051717557
000050 45 a5 9d be 4d ec 91 bd 14 ce 02 3f ee 29 1d 3f
       -0.30790153 -0.07125149 0.510957 0.61392105
000060 0a 20 11 be e4 00 da be b5 25 8b be a2 d8 11 bf
       -0.14172378 -0.42578804 -0.27177206 -0.5697118
000070 95 0e 24 bf ef e2 50 bc ea ca f5 bd 39 91 0d 3f
       -0.6408475 -0.012749418 -0.120015934 0.5529972
000080 a8 ba 92 be 4b 09 92 3d 6a 44 32 3f 63 5a 70 be
       -0.28658032 0.07130679 0.6963564 -0.2347198
000090 f0 f6 33 3f b1 54 d3 3e d6 d2 a6 be 1b 4d fd be
       0.7029867 0.41275552 -0.3258273 -0.4947289
0000a0 39 17 96 be ee db 3d 3f fa 03 cc 3e 7f 5e 92 be
       -0.29314592 0.7416371 0.39846784 -0.2858772
0000b0 63 a5 2c be 0a 63 8b bc e2 93 f2 3e 6a a4 2b 3f
       -0.16859965 -0.017014999 0.4737845 0.6704775
0000c0 9d cd 60 3e de 65 9f 3e 1b 26 60 3e fb bd 81 3e
       0.21953435 0.31132406 0.21889536 0.25340256
0000d0 1b 79 d5 3e 0b aa af be 8d d5 df be 26 36 e6 3d
       0.4169396 -0.3430942 -0.43717614 0.11240797
0000e0 61 f8 0b bf 52 01 e0 3e 27 7a 3f bd 99 9a 9a 3e
       -0.5467587 0.43751007 -0.046747353 0.30196074
0000f0 7f c9 ff 3d a9 23 6b be a5 ae 31 bf 4d 05 ad bc
       0.12489604 -0.22962822 -0.6940711 -0.021120692
000100 cd 80 55 3e 10 0e 3b bf ec e6 ba be 2a 04 0a 3f
       0.20849915 -0.7306833 -0.36504304 0.53912604
000110 11 9a 02 be f8 78 c0 be a3 f0 c1 3e fb d8 78 bd
       -0.12754084 -0.37592292 0.37878904 -0.060753804
000120 1a 03 6d be 94 a8 21 3e b7 bd 08 bd ea 9c 17 3c
       -0.23145714 0.15786964 -0.03338405 0.00925372
000130 47 d1 4e be 7b 8a 04 bf 83 2d 8d 3e 88 8e 9f 3c
       -0.2019702 -0.51773804 0.27573785 0.019477144
000140 b1 a8 09 3f a5 70 8f be c6 05 bd 3e ef 4b 4c 3c
       0.5377303 -0.28015628 0.36918467 0.012469276
000150 b0 95 e3 3d 5e c8 b4 3e 01 3a 66 3e bf 5d ae 3e
       0.11112535 0.35309118 0.22483064 0.34055898
000160 81 d1 83 3e 50 d0 c8 be 77 46 21 bf 78 9e 9f 3e
       0.25745776 -0.3922143 -0.62998146 0.3117559
000170 65 b7 bc 3e 03 61 5f 3e a9 77 21 3e 38 05 b6 bb
       0.3685867 0.21814351 0.15768303 -0.0055548213
000180 ae 69 52 3e 1a d0 99 be 72 3f 15 3e 47 ec 54 bc
       0.20548126 -0.3004158 0.14574984 -0.012995786
000190 a6 47 38 be 2f 25 f1 3e 4d 58 d4 3e 3c 7c 99 3e
       -0.17996082 0.4709868 0.41473618 0.29977596
0001a0 02 9a a1 bd b7 aa 2e 3f 7d 60 fe be f7 e0 c1 be
       -0.07890703 0.6822924 -0.4968299 -0.37866947
0001b0 fb 64 00 3f 00 1d 29 3e 1e 1b fc 3e 23 ae 71 3e
       0.50154084 0.16514969 0.4923944 0.23601584
0001c0 2f 3d dc 3e 7c b6 0e bd 21 4c db be 1a a8 c5 3e
       0.4301543 -0.034842 -0.4283152 0.38604814
0001d0 8e 1d 89 bd b2 37 f0 bd 45 c7 e1 3e bd ab ed 3e
       -0.0669509 -0.11729373 0.44097343 0.46420088
0001e0 5d a4 d1 be 1d 7c 10 bf ba 61 fb be 3f 6e 48 be
       -0.40945712 -0.5643938 -0.49097997 -0.19573306
0001f0 a3 d5 e3 be b1 ed 9d be 8b 16 21 3f d0 bf f8 3e
       -0.4449893 -0.30845407 0.6292502 0.4858384
000200 5b db 18 3d ab 98 d5 be e9 b6 b1 be 48 cb f8 3e
       0.03731857 -0.4171804 -0.34709862 0.4859259
000210 52 75 63 be c9 20 83 3e 9c 3f 3c be e3 b6 db 3e
       -0.22212723 0.2561095 -0.1838364 0.4291297
000220 bb 4f 43 be bc 8a ec 3e 1d c2 dc 3b 06 0c 08 3f
       -0.19073384 0.46199596 0.0067370073 0.53143346
000230 c6 7e 23 3f ed 17 a9 3e 52 d1 aa be 1d ca 3d be
       0.63865316 0.33026066 -0.33362824 -0.18534131
000240 59 55 d9 3e 69 de cb be 50 30 d7 bd ac ae 99 be
       0.42447928 -0.39818123 -0.10507262 -0.30016077
000250 f7 26 07 3f 95 47 51 be a6 22 cd 3e fa 20 22 bf
       0.5279383 -0.20437463 0.40065497 -0.6333157
000260 77 4d 2c 3e d1 63 10 3f 00 b5 20 be 5c 0c 06 3e
       0.16826425 0.5640231 -0.15694046 0.13090652
000270 33 38 23 be 48 69 1c 3f 5f 2e 83 be fd 2b 56 bd
       -0.15939407 0.61098146 -0.25621316 -0.052288044
000280 a4 c9 39 be d7 a9 5d be 86 c4 41 3f 3b 4c 41 3e
       -0.18143326 -0.2164682 0.75690496 0.18876736
000290 29 86 1f 3f c3 da a8 3e 91 df 3f bf ce 0b de be
       0.6231409 0.32979402 -0.7495051 -0.4336838
0002a0 4b 34 07 bf c0 e8 e1 be 3f f2 87 bc 85 6b 92 be
       -0.5281417 -0.44122887 -0.016595004 -0.28597656
0002b0 11 fb f6 be 04 6f 22 3f 83 91 97 3e 95 4f 81 3d
       -0.48238423 0.63450646 0.29603204 0.06314007
0002c0 83 03 7b 3e 98 55 af 3e 86 88 25 3f c8 09 14 be
       0.24513058 0.3424499 0.64661443 -0.14456856
0002d0 76 dd dc 3e 71 99 9b be 24 c0 b0 be c8 2b 23 3f
       0.4313771 -0.30390504 -0.34521592 0.6373868
0002e0 5b a1 a5 3e 62 46 2d be e2 79 55 3e 0f 81 16 3e
       0.32349667 -0.1692138 0.20847276 0.1469767
0002f0 6b ea 3e be 22 98 a3 bd b3 00 0f bf 2f 7f 1f 3e
       -0.18644111 -0.079880014 -0.5586044 0.1557586
000300 e6 b6 1e 3e fd 41 7e 3e 08 3c 5b 3e 96 7e 05 3f
       0.15499458 0.2482986 0.21409619 0.5214628
000310 1a 48 42 3e e8 ec 17 3e dd 8c 73 3e 7e 30 26 be
       0.18972817 0.14836466 0.23784204 -0.16229436
000320 17 15 dc 3d 14 80 27 be 5d fd ef 3e 11 f8 f4 3e
       0.1074621 -0.16357452 0.46872988 0.4784551
000330 64 5d 8d be 2f 83 2d 3c cf 92 91 3c 82 1b 7b be
       -0.27610314 0.010590359 0.0177702 -0.24522212
000340 d3 91 6b 3e c0 17 48 be d8 20 bb be b6 28 1e bf
       0.23004846 -0.1954031 -0.36548495 -0.6178087
000350 17 17 21 3f 1c 7b ec be 86 77 a6 3e 03 26 0c 3c
       0.6292586 -0.46187675 0.32513064 0.008553985
000360 05 a8 15 3f 3a 43 1c bf 9b 6e 41 bf 4e 9c 50 be
       0.584595 -0.6104008 -0.75559396 -0.20372126
000370 d7 49 14 3f ef c7 68 3e 9f 13 0b 3f 90 6a 2b bf
       0.5792517 0.22732519 0.54326814 -0.66959476
000380 d4 0b 3c 3f 3d c5 71 3c 60 11 fe 3e 8e d5 d1 3e
       0.7345555 0.014756498 0.4962263 0.40983242
000390 44 c2 77 3e cd f2 1e 3f 04 c8 82 be b9 21 74 bd
       0.241952 0.62089235 -0.25543225 -0.059602473
0003a0 74 b5 f2 be e0 e0 0d 3d f4 b0 39 3f f8 96 0e bf
       -0.47404063 0.034638286 0.72535634 -0.5569911
0003b0 be f6 3b be 97 06 ae 3e 01 74 02 bf af f0 13 be
       -0.18355843 0.33989403 -0.5095826 -0.14447282
0003c0 a6 d8 04 bf 4f 47 e1 be df 81 67 3c f0 98 f3 3e
       -0.5189308 -0.43999717 0.014130085 0.4757762
0003d0 16 97 5f 3e 71 27 42 bf bf 61 2e 3e 8f 45 7e 3d
       0.21834978 -0.7584143 0.17029475 0.062078055
0003e0 4c 4d 27 3e f3 f9 ea 3d ee 95 9b be cb 3a e4 be
       0.1633808 0.11473455 -0.30387825 -0.44576105
0003f0 cb 6c 71 be 18 8e f5 3e 16 a7 10 3f 92 ef 49 3c
       -0.23576657 0.4795997 0.5650495 0.012325184

fc1.bias f4 [16]
000000 13 6a 0b 3d bc fe 34 bd 2a 9c 69 be 39 c2 02 3e
       0.034036707 -0.044188246 -0.22813478 0.12769403
000010 e0 d2 5f 3c e8 af 5f 3e 2c e6 a9 3b 09 31 bd 3d
       0.013661116 0.21844447 0.0051849093 0.09237868
000020 2e 3c 4c 3e 65 3a 92 bd 45 27 eb 3d 6f 17 d3 3d
       0.19944832 -0.07140044 0.114820994 0.10307204
000030 1f ca a5 bc e7 4f df bc 7b 2c 2d be 9f 7d 91 be
       -0.02023798 -0.02725978 -0.16911499 -0.28416154

fc2.weight f4 [1, 16]
000000 fb 4a af bf 5d b2 c6 be ba a4 c2 3f f7 43 10 bf
       -1.3694757 -0.38807955 1.520652 -0.56353706
000010 59 cc ad 3f 69 44 44 bf fd 62 99 3f f4 15 39 bf
       1.3577987 -0.76666886 1.1983334 -0.7229912
000020 2e ba 45 bf 9f 77 ad 3f 5f 8b be be 56 82 e4 be
       -0.7723721 1.355213 -0.37215707 -0.44630688
000030 e1 03 41 bf 64 5e b1 bf 7e 75 8b 3f c8 b3 5e 3f
       -0.75396544 -1.3856931 1.0895231 0.86993074
