.unorganised_code/binary_ffn_6.pth (torch, 105809 bytes, 5 tensors)

fc0.weight f4 [32, 784]
00000000: 1eb5 eabb d9cc 0bbd 440b 6bbc 01c6 90bd
00000010: a19f acbd 499b 63bd e4b7 abbd 03e6 41bd
00000020: 895f 63bd b88a 7abd 3eb5 233d 7877 93bd
00000030: 5711 fe3c 45d2 983d c579 0a3c 96fd eebc
00000040: ffbe 0e3d 045f c63d a32d c9bd 1383 743c
00000050: 6ecd 583d c0ad cfbd d43b e5bc ce3f 88bd
00000060: 30c2 a9bc d53a 4d3b 2172 9ebc b34a 7bbc
00000070: 34b8 313d b04a 483b b63c 693d 8c5f 083d
00000080: 9c52 43bd 7698 e43b 1f03 493a c11a f13d
00000090: 25f9 453d db4a fc3d 4c14 a73d 4c10 293d
000000a0: 73a6 9e3b 9601 a1bd cc94 fd3d 45ca d13c
000000b0: d4d3 8f3d 7d8e 86bd 9db2 caba 3bc0 043e
000000c0: fa34 d9b9 1bed cd3c 353c e03b ea40 f33d
000000d0: f728 773c cf9c 5b3b b1ab 5abd 9514 41bc
000000e0: 7361 683b 031d 473d fa83 84bd 3944 a23c
000000f0: 6114 f93d e92f c63d 691b ed3d ebe8 2f3e
00000100: ed5d b53d bbf7 7c3c 14b6 123e bad0 3c3e
00000110: d145 843d 121d b8bd ef76 083d 4cdf 4b3d
00000120: d9f0 093d 6844 1a3d f08d 363d a627 283d
00000130: 54fd 403d af90 98bd 89c3 97bc f207 6f3d
00000140: b434 db3d 1b8d 393c 2d6f 293d 1876 f83b
00000150: 8270 0bbd 54d0 a73d 30aa 15be ade8 b6bd
00000160: 8294 dcbd 62b2 9d3d 309d fa3d 79a5 26bc
00000170: 5d75 e7bd 36a1 ec3b 89b7 353e 62e9 2c3e
00000180: 83e0 a23d a22e 0bbc b2dc 2ebe 0f32 abbd
00000190: b1ff 5ebd c3b3 6cbc 1b32 a13d 91f8 693e
000001a0: 9102 243e 64ce 393d c9b7 033d f889 9e3d
000001b0: 550a 893d 78fd 423d 4a9f 3ebd 72f3 7e3d
000001c0: d692 43bd 7a24 10bd d19c 19bd e4c8 59bd
000001d0: dc61 46be 3d45 ff3d 1fdb a83b f57e b8bd
000001e0: 5ecc 73bd 0bb4 8fbd 1872 073e 031a 933d
000001f0: 3f1f 733d f521 29be c5c8 81be c0f9 53be
00000200: 7898 b3bd 8829 ca3d c9ca d43d 1c79 4ebd
00000210: 367e 18bb 45d5 bb3d 0932 ba38 ae38 16be
00000220: 89c3 e1bd 0ff6 b3bd cf1a 82bd 7a37 15bc
00000230: 0dc6 a53d ffa2 143d 9f13 99bd f369 11be
00000240: a800 bcbd f049 7b3b 96c9 a6bd a0f8 643b
00000250: a00b a3bd 1740 a53d bfb1 323e 6a3e 323d
00000260: 9e6e c23b 87d4 4fbe 07fa 6fbe d095 42be
00000270: 49a5 f7bb 556e b63d 0db6 103d 3c08 a2bd
00000280: 8a97 f13c 4906 4e3d bc00 d5bd 37ef abbd
00000290: c202 39be 0716 52be 0bfa c3bd b393 83bc
000002a0: c988 1b3d 2d23 163c 75f0 48bd 65ad 353d
000002b0: 944f 6f3d c6bc 203c cc39 af3a 414e c13c
000002c0: 5c4b 74bd ec9f 0c3d 7cc2 2e3e 6246 b93d
000002d0: 387c d5bc a1b9 10be 7f87 09be 40c7 10bc
000002e0: 39b3 b73b cf3a 683d 8fe9 a7bd 06a8 15be
000002f0: 9431 56bd 7de8 42bd 4b16 06bd 6d46 55bc
00000300: 39a6 17be d8a2 8fbd 1ff2 0ebe 1513 68bd
00000310: ae3a 953d 1a92 e53b 300c 67bc 7832 253a
00000320: 7d8f 37bd 1b4e efbd 4d35 20be 42f1 bdbc
00000330: 88c6 1dbd 7311 1bbd 36b0 a03d b085 f13d
00000340: bb50 1ebe 03f4 76be 0a2b 56bd 988e f2bd
00000350: 119a 533d 487c ed3d ef46 a6bd 74d7 e3bd
00000360: a04c 1dbe ff1a 00be 3b5f 14bd a24a b7bd
00000370: 6e61 96bd be06 ebbd 41ed 85bc f192 83bd
00000380: 005b 8b3c 3103 62bd c64a 8cbc 8c6c a93c
00000390: a158 acbd 2b06 c2bd 0a20 b3bd 30ec adbd
000003a0: 5892 d0b9 8591 003e a25f de3d f497 373d
000003b0: 8dc3 1cbd a1fe 8fbd 8427 4b3b 278f bb3d
000003c0: a59f 02bd ec44 003c 70a0 c2bd 4425 a9bd
000003d0: 6156 d2bd 0837 60be 2ef8 3cbe b1f8 b9bc
000003e0: 0cea 8bbd 6bb3 10bd 7dee b5bd a104 5fbd
000003f0: c98a 8ebd 43c4 2fbd eb7d 9ebd 95d9 9fbd
-0.007162704 -0.034130905 -0.014345948 -0.07069016 -0.08428884 -0.055568013 -0.08384684 -0.047338497
-0.05551103 -0.06116745 0.039967768 -0.07200521 0.031014128 0.07461981 0.008451884 -0.029173654
0.034850117 0.096860915 -0.09823158 0.014923829 0.052930288 -0.10140562 -0.02798263 -0.06652795
-0.020722479 0.0031315584 -0.01934153 -0.015337634 0.04338856 0.0030562095 0.056942664 0.033294246
-0.047686204 0.0069761826 0.00076680066 0.11772681 0.048333306 0.12318965 0.08158168 0.041275308
0.0048416196 -0.078616306 0.123818964 0.025609145 0.07022825 -0.06570146 -0.0015464608 0.12963955
-0.00041428936 0.025137475 0.0068431147 0.11877616 0.01508545 0.0033510213 -0.053386394 -0.011784692
0.0035458475 0.048611652 -0.06470485 0.019807922 0.1216209 0.09677107 0.11577494 0.17178695
0.088558055 0.015439923 0.1432727 0.18438998 0.06458629 -0.0898992 0.03331655 0.0497735
0.033676956 0.037662894 0.044568956 0.041053437 0.047116593 -0.07449471 -0.018525856 0.058357187
0.10703412 0.011325146 0.04136579 0.0075824372 -0.034042843 0.08194032 -0.14615703 -0.08931098
-0.10770513 0.077000394 0.122370124 -0.010171288 -0.11301682 0.0072213663 0.17745794 0.16885903
0.079529785 -0.008495005 -0.17076376 -0.08359157 -0.054443065 -0.014447155 0.07870885 0.22848727
0.16016604 0.045362845 0.032157693 0.07741159 0.06691424 0.047605008 -0.04653863 0.062243886
-0.047747456 -0.035191037 -0.037503067 -0.0531701 -0.19373268 0.12464378 0.0051530744 -0.0900859
-0.05952107 -0.07016762 0.13227117 0.07182696 0.05935597 -0.1651686 -0.25348487 -0.20700741
-0.087693155 0.09871203 0.10390241 -0.050408468 -0.0023268587 0.09171537 8.878491e-05 -0.14670059
-0.110236235 -0.08787166 -0.063527696 -0.009107465 0.08094416 0.036288258 -0.074744456 -0.14200573
-0.09179813 0.003834363 -0.08143918 0.003493823 -0.07961202 0.08068865 0.17450617 0.043516554
0.0059335968 -0.20295916 -0.23435222 -0.19002461 -0.0075575453 0.08907763 0.035329867 -0.07911727
0.029491205 0.050298963 -0.10400531 -0.08395236 -0.18067458 -0.20516215 -0.09569176 -0.01606164
0.037972245 0.00916366 -0.049057443 0.044354815 0.0584255 0.009810632 0.0013368665 0.023596885
-0.05964218 0.0343322 0.17066377 0.090466276 -0.026060209 -0.14133312 -0.13430594 -0.008836567
0.005606082 0.05669671 -0.08198845 -0.14614877 -0.052293375 -0.047585 -0.032736104 -0.013017279
-0.14809503 -0.07013482 -0.1395955 -0.056658823 0.07286583 0.007005942 -0.014102027 0.0006301771
-0.044814575 -0.11684819 -0.15645333 -0.02318633 -0.038519412 -0.037858438 0.078461096 0.11793077
-0.15460484 -0.2411652 -0.05228714 -0.11843604 0.0516606 0.115959704 -0.08118998 -0.11125079
-0.15361261 -0.12510298 -0.03622363 -0.08949782 -0.07342802 -0.11475895 -0.016348483 -0.06424511
0.017011166 -0.055178825 -0.017125499 0.020681642 -0.08415342 -0.09473833 -0.08746345 -0.08492315
-0.00039781886 0.12555511 0.10858084 0.04482265 -0.03827243 -0.070309885 0.0030998895 0.091581635
-0.03189053 0.007828932 -0.09503257 -0.08259061 -0.10270382 -0.21895993 -0.18454048 -0.022701593
-0.0683175 -0.035327356 -0.08883379 -0.054447774 -0.06960065 -0.04291178 -0.07738861 -0.07805172

fc0.bias f4 [32]
00000000: cdea e03c d66b 5cbd 6955 463e ab8f d4bb
00000010: b2d6 f5bc be1b 093d 1356 68bd 5774 873d
00000020: cddc 7c3e 2d93 a6bd 928a 233d 467d 613d
00000030: 715c 013d 68ff 823d e543 24bd e3da c73d
00000040: 5a8c b23c 4f9c b13c 1dc6 bc3d f335 19ba
00000050: 29b1 3bbd ee7d 093e 55ae 313d c8de a23d
00000060: 8785 51bd 0226 bdbd 631f 243e 3e49 8ebc
00000070: 753b ca3c 74fd 043e 1c54 223e 9c65 c23d
0.027455712 -0.053813778 0.19368519 -0.006486853 -0.030009601 0.033473723 -0.05672271 0.06613987
0.24693604 -0.0813354 0.039927073 0.05505111 0.0315823 0.06396371 -0.04010381 0.09758546
0.02179544 0.021680979 0.092174746 -0.0005844526 -0.04582325 0.13426945 0.043379147 0.079526484
-0.051152732 -0.09235765 0.16027598 -0.017368909 0.024686554 0.1298731 0.15852398 0.09492037

fc1.weight f4 [16, 32]
00000000: f821 733f 0908 a9be 110d 99bd cc33 353f
00000010: 40a7 42bd ef81 d8be 3d10 e23d 7a2e 6abe
00000020: 68e9 4a3d 8316 dabe 5b16 8bbd ff15 9a3e
00000030: 65ec dcbe 946d 06bf ce8a 9e3d 348f 5e3e
00000040: 323a d8bd 585e 96bd 2f06 f3bd 0a85 0d3e
00000050: 3e99 fabe 51ca a7be 5ef5 7bbe f200 943c
00000060: 7672 48be e9b9 ccbe e0d5 2ebd 40b8 d3be
00000070: 450a b93e f24d 903e 122e e33d 8455 073e
00000080: f2db 483e 44e1 f1bd 523e 423e cad5 3f3e
00000090: d8a3 3bbe 9005 783d 4395 03bd e63f 923d
000000a0: ec18 fdbe d6b2 0e3f 51d2 00bf 81ce 9e3d
000000b0: 9854 21bf 5607 633d 520c a23d 89bd 93be
000000c0: 34d4 18bf 65f7 0dbe cfcb b9be 01e0 83be
000000d0: 825d 823e af5c a9bd 4719 b2be 3d2a e2be
000000e0: 2ba5 133f 1833 f53e 6d89 85be 0de0 5dbe
000000f0: 27a2 fabe 0ea7 0b3f 312a 82be b484 9cbd
00000100: 01c4 d03e e656 1abf aeb4 f2bd 8aa2 7b3e
00000110: 7bf8 3cbe ba29 dbbd 9c9b e3bd 9172 183e
00000120: b37e 04bf 9660 793e d468 1abe 1e84 863e
00000130: 4cc0 28be da37 96bb fd7d 2c3e d4d3 7abd
00000140: 7ecc 5fbe deb9 59be 0b97 5cbe 5a2b ffbe
00000150: 6e23 f13e f077 a8bd 2459 763e 2293 0bbf
00000160: e2d5 8e3f dde4 2abe 8570 14bf 816a c7be
00000170: 582d b2be 4f4c 373f 00e9 08be 0e8a 8cbe
00000180: 7c66 f8be 5019 8ebe 1186 72bb 6142 c5be
00000190: 3469 f1bd c4b6 a2be d995 d1bd 61ec b03c
000001a0: 72f5 ea3e e08d cbbd aa85 3c3f 56ab 39bc
000001b0: 6174 cb3e 3b6e 3f3e da41 d23d 6bd7 b13d
000001c0: 4e56 b93e 62a2 963e 742e 813d bc88 f13e
000001d0: 9b54 8bbd ff65 a73e 4247 bb3c 28aa 83be
000001e0: b3c7 16bd c62e abbe fb23 e03d 2354 133f
000001f0: 7480 8e3e 9ac7 293e 0b63 963f 776e 853e
00000200: 4b59 00be 521c 483f ed13 e33d 891b fcbd
00000210: 77fc f93e 1d05 9a3e a916 0ebf 98a0 e4be
00000220: a14d 993e 6ac9 65be 84d0 a6be 493e c9be
00000230: 967c 92bd aa36 8dbe 48cd 97bd b637 e9be
00000240: c7b6 1b3d 316c aa3d 7c97 b8be 99b8 053f
00000250: 4ff1 493c aa8a 253f ce5f 27be d8c2 16be
00000260: 2078 a4be e1ea 75be a2e3 5ebe 7711 9abd
00000270: d132 8cbe 657f 9c3d de4b a43e 0a9b 9d3d
00000280: 2b32 12bf f813 333e 94d2 67be 59c8 8dbd
00000290: 45cf 25bf e71b 7abc 8ed0 ebbe fa09 743e
000002a0: 4e8d 433f f0b3 bdbd 31aa f13e d653 873e
000002b0: 7ae3 633e 4d80 303e c5c2 ebbc 5834 183f
000002c0: c1d4 e53e 8983 f43e 58da 4dbd e352 9dbe
000002d0: eb00 4fbd a64d d03e 007b 8cbd edc0 073f
000002e0: 2f1a 35bd ac3d e73d 5d59 393f 265a 013f
000002f0: d55d 02bf 39e9 193e 3d1e 24bf c242 883c
00000300: 93cc acbd 5c27 59be 7eff ea3e 5aca 87bf
00000310: 0381 1bbf 1070 063e 1f63 59be 1eff 5f3e
00000320: 34db fb3e fa0a 86be a66a 7cbe 40c6 a23d
00000330: 202e adbb f053 5fbe 1477 113e 3ce7 833e
00000340: 423c 11be 4245 4fbc 7f2c c13e b1d3 e63d
00000350: 4b89 03bf db66 c33e e00a cf3e 4a43 173f
00000360: 1ce8 b8be 41f0 e0bc 3b04 e23e 76ef e43e
00000370: 5c28 033f 9852 b73d 7fec 0e3c b5ed 1f3e
00000380: 5b4d 53bc 5ca4 213f 5edb 18be efda 06be
00000390: 3500 bebd 54ba 0b3e 356f 17bd 22f7 053f
000003a0: 6863 8a3e 2d57 29be 81d9 893e bbc2 8cbd
000003b0: 1b75 9dbc d429 6fbd aa58 12be 07fa ce3e
000003c0: 4470 e73d e377 ec3d ada9 b93e 89de 48be
000003d0: 6982 d7bd f9c9 40be c02c 9fbe 1078 1a3d
000003e0: 6f73 13bd f111 fb3d 4bc7 033f 7e32 82be
000003f0: 4c04 aebe 958c f03e 7f8d 05bf 0704 c33d
0.9497371 -0.33013943 -0.07473195 0.7078216 -0.047522783 -0.4228663 0.110382535 -0.22869292
0.049539 -0.425953 -0.06791373 0.30094907 -0.43149105 -0.5251095 0.07741319 0.21734315
-0.10557975 -0.073422134 -0.11866414 0.13820282 -0.4894504 -0.32771543 -0.24605319 0.018066857
-0.19574913 -0.39985588 -0.042684436 -0.4135151 0.36140648 0.28184468 0.110927716 0.13216215
0.19615152 -0.11810544 0.18969086 0.18733898 -0.1832422 0.06055218 -0.03212477 0.07141094
-0.49433076 0.5574163 -0.5032092 0.07754231 -0.63019705 0.055426918 0.07912506 -0.2885554
-0.59698796 -0.13863905 -0.36288306 -0.2575684 0.25461966 -0.08269631 -0.3478491 -0.4417285
0.576739 0.47890544 -0.2608141 -0.216675 -0.48951837 0.5455178 -0.25422814 -0.076424986
0.4077454 -0.60288846 -0.11850868 0.24573722 -0.18454163 -0.10701318 -0.111136645 0.14887454
-0.5175583 0.24353251 -0.15079051 0.26272672 -0.16479605 -0.0045842947 0.16844936 -0.06123717
-0.21855351 -0.21262309 -0.21541993 -0.49837762 0.47097343 -0.08226001 0.24057442 -0.5452138
1.1159022 -0.16688867 -0.5798419 -0.38948444 -0.3480022 0.7160081 -0.13370132 -0.27449077
-0.4851569 -0.27753687 -0.003700618 -0.38527206 -0.11787644 -0.31780064 -0.10233659 0.02159709
0.45890385 -0.0993917 0.73641455 -0.011332354 0.39737228 0.18694393 0.102664664 0.08683666
0.36198658 0.29420763 0.06307688 0.47174633 -0.068032466 0.32695004 0.022861127 -0.25715756
-0.03681154 -0.33434123 0.10944363 0.5755026 0.27832377 0.16580048 1.1748976 0.2606084
-0.12534063 0.78168213 0.11087785 -0.123099394 0.48825428 0.30082026 -0.55503327 -0.44653773
0.2994204 -0.22440115 -0.3258096 -0.39305332 -0.07152669 -0.27580768 -0.07412201 -0.45550317
0.038016107 0.08321417 -0.36053073 0.522348 0.012325599 0.6466471 -0.1634514 -0.14722764
-0.32122898 -0.2401538 -0.21766523 -0.075228624 -0.2738252 0.07641486 0.32089132 0.07695587
-0.571078 0.17488086 -0.22638923 -0.06922979 -0.64769393 -0.0152654415 -0.46057552 0.23831931
0.7638749 -0.09262836 0.47200158 0.2643115 0.22254744 0.17236443 -0.028779397 0.5945487
0.4488888 0.47756603 -0.050257057 -0.307273 -0.050537985 0.4068424 -0.06859398 0.53028756
-0.044214424 0.1129106 0.7240198 0.5052818 -0.50924426 0.15030374 -0.6410864 0.016633395
-0.08437457 -0.2120642 0.4589805 -1.0608628 -0.6074373 0.13128686 -0.21229218 0.21874663
0.49190676 -0.2618025 -0.24650058 0.079479694 -0.0052850395 -0.21809363 0.14205581 0.25762355
-0.14183143 -0.01265079 0.3772926 0.11270846 -0.5138137 0.3816441 0.40437984 0.5908705
-0.36114585 -0.027458312 0.44143853 0.44713944 0.5123346 0.089513004 0.008723377 0.15618022
-0.012896861 0.6314142 -0.14927432 -0.13169454 -0.09277383 0.13645297 -0.03697129 0.5233022
0.27028966 -0.16537161 0.26923755 -0.068730794 -0.01922088 -0.0583895 -0.14291635 0.4042513
0.1130071 0.11546304 0.36262265 -0.1961614 -0.10522921 -0.18827046 -0.3108883 0.037712157
-0.035998758 0.122592814 0.5147597 -0.25429147 -0.33987653 0.46982256 -0.5216903 0.095222525

fc1.bias f4 [16]
00000000: 2193 153e e440 0e3d 710b f63d c9e9 6e3e
00000010: d308 3abd 0651 1b3d 5ebb dc3d b0d9 b7bb
00000020: de22 ff3d 7e64 14be 7c72 e63d ad00 2c3e
00000030: 1eaa 263e 8a27 b33d 5a0c 163e 8f39 803e
0.14606906 0.034729853 0.12013901 0.2333137 -0.04541857 0.037919067 0.10777925 -0.005610667
0.12457822 -0.1449146 0.11252305 0.16797133 0.16275832 0.08747776 0.14653149 0.25043914

fc2.weight f4 [1, 16]
00000000: 88c6 993e 73a9 333f 6e4d 4c3e fd83 30bf
00000010: e1dc 72be 63d0 aebe cfdf 9dbf 5ff1 4abf
00000020: 35d9 21bf e9a8 b93e e534 3dbf 5d4a 13bf
00000030: 6561 0a3f c7c4 27bf 8463 823e ec2c 883e
0.3003428 0.70180434 0.19951412 -0.689514 -0.23717071 -0.3414336 -1.2333926 -0.79274553
-0.63222057 0.3626168 -0.73908836 -0.57535344 0.5405486 -0.65534633 0.2546655 0.26596773
