unorganised_code/binary_ffn_5.pth (torch, 105809 bytes, 5 tensors)

fc0.weight f4 [32, 784]
0	0xbcbd01cb	-0.023072144
1	0xbe059827	-0.13046323
2	0x3d1874de	0.03722083
3	0xbd2974e4	-0.04137124
4	0xbca7752d	-0.020441616
5	0x3d5accab	0.053417843
6	0x3cfd92da	0.030953813
7	0xbc9a61f5	-0.018845538
8	0x3d413bd0	0.047176182
9	0x3c9d6160	0.019211471
10	0x3b712ea0	0.0036801472
11	0xbd4a8648	-0.049444467
12	0xbc5e937f	-0.0135849705
13	0xbad4a21e	-0.0016222631
14	0x3e0729ba	0.13199511
15	0xbd1b4d37	-0.037915435
16	0xbc53185a	-0.012884224
17	0xbca2efc8	-0.019889727
18	0xbc076be9	-0.008265474
19	0xbcb8ab12	-0.02254251
20	0xbcd89c14	-0.026441611
21	0x3d3037df	0.043022033
22	0xbd14ecb7	-0.03635856
23	0x3bf8ecde	0.007596596
24	0x3c7af0a5	0.015316163
25	0x3cb0f0cf	0.021599201
26	0xbc090324	-0.008362565
27	0xbdcbc9a0	-0.09950566
28	0xbd90db93	-0.070731305
29	0xbc620d0b	-0.013797055
30	0x3b8b021d	0.0042421953
31	0x3d9251d4	0.07144514
32	0xbcb8ac4f	-0.0225431
33	0x3cc84cdc	0.024450712
34	0x3b9d5242	0.0048010657
35	0x3d1320dc	0.03592001
36	0x3d39b74a	0.045340814
37	0x3d0cdf27	0.034392502
38	0x3da698d3	0.08134618
39	0x3c8d9574	0.017283179
40	0x3d38261f	0.04495823
41	0x3db80699	0.089856334
42	0x3e0c7e73	0.13720112
43	0x3e1e850f	0.15480445
44	0xbdc13270	-0.09433448
45	0x3e17c078	0.14819515
46	0xbd1305c8	-0.035894185
47	0x3dd1993b	0.102343045
48	0x3dafbc42	0.08580829
49	0x3e3b577f	0.18295096
50	0x3dad074b	0.08448657
51	0xbdb59b9f	-0.08867573
52	0x3d3fb08d	0.04679923
53	0xbc374662	-0.011186214
54	0x3c41e026	0.011833226
55	0x3cfe55b6	0.03104673
56	0xbc3d1d7c	-0.011542674
57	0x3c298abf	0.010348021
58	0x3daeae1e	0.08529304
59	0x3d87040b	0.06592568
60	0x3d1df46b	0.038563173
61	0x3d0cdd51	0.03439075
62	0x3d7b9635	0.061422545
63	0x3deb98b3	0.115037344
64	0x3df70c3c	0.120628804
65	0x3e978206	0.29591388
66	0x3ec0ecf5	0.37680784
67	0x3ed28c8c	0.41122854
68	0x3ee13b65	0.43990627
69	0x3efa24e4	0.4885627
70	0x3eed7a6e	0.4638247
71	0x3e6d4ce0	0.23173857
72	0xbdd6a8cd	-0.10481415
73	0xbe889ec5	-0.26683632
74	0xbdf0dcb3	-0.11760845
75	0xbd50b4df	-0.050953742
76	0xbd86fbb9	-0.06590981
77	0x3e05bec0	0.13061047
78	0x3e456d62	0.19280007
79	0x3de052bd	0.10953281
80	0x3e84d71a	0.2594536
81	0x3d2e2e70	0.042524755
82	0x3c9e1884	0.0192988
83	0xbcb33c84	-0.021879442
84	0x3af56415	0.0018721843
85	0x3c42029c	0.011841442
86	0x3e13b936	0.14426121
87	0xba0ea26a	-0.00054410717
88	0x3e4a44f7	0.1975287
89	0x3e8631cf	0.26209876
90	0x3e473917	0.19455372
91	0x3df6a2ab	0.12042745
92	0x3dea6245	0.11444525
93	0x3dfdd2f7	0.12393754
94	0x3d32556c	0.043538496
95	0x3e3bea50	0.18351102
96	0x3e817dff	0.2529144
97	0x3e1fb3ce	0.15595934
98	0xbd924430	-0.07141912
99	0xbe80611c	-0.2507409
100	0xbe69abd9	-0.22819461
101	0xbe624cbf	-0.22099589
102	0xbe7ae499	-0.24501266
103	0xbd9a0820	-0.07521081
104	0x3ddb8c80	0.107201576
105	0xbe12cdfa	-0.14336386
106	0xbe298b14	-0.1655696
107	0x3e151a03	0.14560704
108	0x3e09c190	0.13452744
109	0x3e87d114	0.265267
110	0x3ce75db7	0.028242929
111	0xbda5fd55	-0.0810496
112	0xbc40845a	-0.011750305
113	0x3d50aedc	0.05094801
114	0x3de01424	0.109413415
115	0x3e84561c	0.25846946
116	0x3edd991a	0.4328087
117	0x3eb6e893	0.35724315
118	0x3d1a7682	0.037710674
119	0x3c937cb6	0.018003803
120	0x3e96c412	0.29446465
121	0xbcf22c74	-0.029562213
122	0x3e27d513	0.16389875
123	0x3e0bb09a	0.13641587
124	0x3e07dc8d	0.13267727
125	0x3d9d90e1	0.07693649
126	0xbdbb0d42	-0.09133388
127	0x3c0b84e5	0.008515571
128	0x3c99e9bb	0.01878821
129	0xbe01336e	-0.12617275
130	0xbe3db182	-0.18524745
131	0xbf04fc7f	-0.5194778
132	0xbec2fd22	-0.3808375
133	0xbe8ff28c	-0.28114736
134	0xbeba912b	-0.3643888
135	0xbd7c7bd9	-0.061641548
136	0x3d8458b6	0.06462233
137	0x3d80a112	0.06280722
138	0xbb734751	-0.0037121365
139	0xbbe4f05b	-0.0069866604
140	0x3ce4efef	0.02794644
141	0x3b14df23	0.0022716008
142	0x3e429e2f	0.19005655
143	0x3ea3cbf0	0.3199153
144	0x3f17eb3d	0.5934332
145	0x3e6d96bc	0.23202032
146	0x3dc48400	0.095954895
147	0x3dd7f04a	0.105438784
148	0x3c87d9e9	0.0165834
149	0xbda4f4bb	-0.08054491
150	0x3cf3d9fa	0.029767025
151	0x3d81562b	0.06315263
152	0x3e7c457e	0.24635884
153	0x3de3792c	0.11107096
154	0x3e263d20	0.16234255
155	0x3e7dc9a2	0.24783948
156	0x3d704ed8	0.05866894
157	0xbb9503ff	-0.0045475955
158	0xbdf755da	-0.12076922
159	0xbeceaf9d	-0.40368357
160	0xbf25315c	-0.6452844
161	0xbe7a13c0	-0.24421597
162	0xbeefd736	-0.4684388
163	0xbef5c81e	-0.4800424
164	0xbe23b070	-0.15985274
165	0x3d83fb2a	0.0644439
166	0x3d920810	0.07130444
167	0x3db1b483	0.08677008
168	0x3d6190b2	0.055069633
169	0x3d5593ed	0.052143026
170	0x3d39c7a8	0.045356423
171	0x3eb18463	0.34671316
172	0xbe24479f	-0.16042946
173	0x3b2ca7f1	0.0026345218
174	0x3c644f9e	0.013934998
175	0x3d5efe3d	0.05444168
176	0x3c44dff0	0.0120162815
177	0x3d3eb708	0.04656127
178	0x3d9076be	0.07053898
179	0x3d9e03af	0.07715546
180	0xbc922556	-0.017840069
181	0x3d600918	0.054696172
182	0x3d5ca14c	0.053864762
183	0xbd6c9256	-0.057756744
184	0x3d05c11d	0.03265487
185	0xbcadb89b	-0.02120619
186	0xbe3c60a0	-0.18396235
187	0xbebcfdcd	-0.36912385
188	0xbedd9ec6	-0.43285197
189	0xbed9f137	-0.42566845
190	0xbed32528	-0.41239285
191	0xbed7f34b	-0.42177805
192	0xbe8b3d76	-0.27195328
193	0xbe04da7c	-0.1297397
194	0x3cc5e4a7	0.024156881
195	0xbc2291eb	-0.009922485
196	0xbd854f66	-0.06509285
197	0x3e35e034	0.17761308
198	0x3e2af1b2	0.16693762
199	0x3f17884f	0.59192365
200	0x3dfbb489	0.12290294
201	0xbdedf945	-0.1161981
202	0x3e4155bb	0.1888036
203	0x3d81f548	0.06345612
204	0x3cca058a	0.024660844
205	0x3c769564	0.015050266
206	0x3d996f67	0.074919514
207	0x3d808920	0.062761545
208	0xbd6ab6db	-0.05730329
209	0xbb96da05	-0.0046036267
210	0x3d96ae62	0.0735748
211	0x3d69f407	0.05711749
212	0x3d8986fc	0.06715199
213	0xbcd02745	-0.02540935
214	0xbd69d2aa	-0.05708567
215	0xbec6caec	-0.38826692
216	0xbecf519e	-0.40491956
217	0xbf1ee7c7	-0.62072414
218	0xbf034ffc	-0.5129392
219	0xbdd92538	-0.10602802
220	0xbe23bfce	-0.15991136
221	0x3d437f79	0.04772899
222	0x3cc99b9e	0.024610337
223	0xbc120cd5	-0.008914192
224	0x3c28dc09	0.010306367
225	0x3e21127d	0.15729709
226	0x3e12e437	0.1434487
227	0x3ef68319	0.48146895
228	0x3e987b18	0.29781413
229	0x3c271f28	0.010200299
230	0xbcbcb654	-0.02303616
231	0xbd0f6b4f	-0.035014447
232	0xbd2acae7	-0.04169741
233	0xbce275f4	-0.027644135
234	0x3cba3225	0.022728989
235	0xbdb92b0d	-0.090414144
236	0xbc64d0df	-0.013965814
237	0x3dbbfa9f	0.091786616
238	0x3e43fe2a	0.19139925
239	0x3ea40cd0	0.32041025
240	0x3e4414f1	0.19148614
241	0x3e0543d3	0.13014154
242	0xbd3df4a9	-0.046375904
243	0xbea58d5a	-0.32334405
244	0xbf0249d3	-0.50893897
245	0xbf133bb9	-0.57513005
246	0xbf0048a9	-0.5011087
247	0xbe9996a9	-0.29997757
248	0xbe1a1985	-0.15048797
249	0x3de0149e	0.109414324
250	0x3c538e5c	0.012912359
251	0xbd884a97	-0.06654852
252	0x3e6242c5	0.22095783
253	0x3e42f7ef	0.19039892
254	0x3e31ece5	0.17375524
255	0x3eeaea4a	0.45881873

fc0.bias f4 [32]
0	0xbcfb53e0	-0.030679643
1	0x3d9fea8c	0.07808408
2	0x3c0b608b	0.008506904
3	0xbb7c663f	-0.0038513092
4	0xbe1eb85d	-0.15500017
5	0xbd7de249	-0.06198338
6	0x3cce5ed1	0.025191696
7	0xbd05c7ea	-0.032661356
8	0x3dc08865	0.09401015
9	0x3d874b2d	0.066061355
10	0xbdfa61c1	-0.12225676
11	0xbdb07903	-0.08616831
12	0xbd2a105c	-0.041519508
13	0xbb44d9f3	-0.0030037134
14	0x3d246562	0.04013575
15	0xbd3ec03b	-0.046570044
16	0xbe119fa1	-0.1422105
17	0xbd502a5c	-0.050821647
18	0xbd5548a9	-0.052071247
19	0x3dad09f8	0.08449167
20	0x3d5e404e	0.054260544
21	0xbc603760	-0.013685077
22	0xbd9deb52	-0.077108994
23	0xbc7c7b16	-0.015410205
24	0xbcbb7a51	-0.022885473
25	0xbd46e100	-0.04855442
26	0x3dadb3a9	0.08481533
27	0x3e6a4328	0.2287718
28	0xbdd4421f	-0.10364174
29	0x3e2dee14	0.16985351
30	0xbd898947	-0.06715637
31	0x3e59951d	0.21248288

fc1.weight f4 [16, 32]
0	0xbe9ea70c	-0.30986822
1	0xbe130ac5	-0.14359577
2	0x3ee7c1b9	0.45264986
3	0xb9b6ac74	-0.00034842233
4	0x3eee1212	0.46498162
5	0xbe38c9bd	-0.18045707
6	0xbe43dc02	-0.19126895
7	0x3eb41b68	0.3517716
8	0xbe923399	-0.2855499
9	0xbf158050	-0.58398914
10	0x3ea06421	0.31326392
11	0x3c69feee	0.014281971
12	0x3e970ca9	0.29501846
13	0x3e59a1eb	0.21253173
14	0x3e809caa	0.25119525
15	0xbe565e65	-0.20934446
16	0x3ddf7be2	0.10912301
17	0xbbe2e6d5	-0.00692449
18	0xbf24ea89	-0.6442037
19	0xbd6dc07e	-0.058044903
20	0xbed6b8c2	-0.41937834
21	0xbe9a4fa0	-0.30138874
22	0xbdf8752d	-0.121317245
23	0xbe7a319e	-0.2443299
24	0x3dd4d15e	0.10391496
25	0x3ed69aef	0.4191508
26	0xbe62d94b	-0.22153203
27	0xbf5cb95c	-0.86220336
28	0x3e1c2bbc	0.15251058
29	0xbe186136	-0.14880833
30	0x3e5128d2	0.20425728
31	0xbf3ec786	-0.745232
32	0x3f23871b	0.6387803
33	0xbe84878b	-0.2588466
34	0xbf565e27	-0.83737415
35	0x3e9551f8	0.291641
36	0x3e76dc09	0.24107374
37	0xbe288a85	-0.16459091
38	0xbd29c50b	-0.04144768
39	0x3d63e2a0	0.05563605
40	0x3f031835	0.5120881
41	0xbdda2179	-0.10650916
42	0x3e0a9d29	0.13536514
43	0xbe68dfb9	-0.22741593
44	0x3f11188e	0.5667809
45	0x3e96f55d	0.29484072
46	0xbf30e975	-0.6910623
47	0x3e5eb105	0.21747215
48	0x3f0d38a9	0.5516458
49	0xbba981cf	-0.005172945
50	0x3f04531a	0.516893
51	0xbf206e73	-0.6266853
52	0xbf8b6d39	-1.0892707
53	0x3f0edc5c	0.5580499
54	0xbdd36696	-0.10322301
55	0xbeffb280	-0.49940872
56	0x3dc533df	0.09629034
57	0x3e43642c	0.19081181
58	0xbf158402	-0.5840455
59	0xbdbeaf4e	-0.093107805
60	0x3eb49dfd	0.35276785
61	0x3eea6068	0.45776677
62	0x3dba9a58	0.0911147
63	0xbf1a5243	-0.6028177
64	0x3eacb508	0.33731866
65	0xbf471a8b	-0.77774876
66	0xbe5845b2	-0.21120337
67	0x3ee8e6c9	0.45488575
68	0x3dee93e3	0.11649301
69	0x3d81fcb0	0.063470244
70	0xbd9283a9	-0.071540184
71	0x3d01a6fe	0.031653397
72	0x3e99f9a2	0.30073267
73	0x3f1ca694	0.6119168
74	0x3ef4eb78	0.47835898
75	0x3eb4aa03	0.3528596
76	0x3df27ed5	0.118405975
77	0x3eb1051a	0.34574205
78	0xbe9f72cf	-0.3114228
79	0x3ed1b28b	0.4095653
80	0xbd6832c5	-0.056689043
81	0x3e04a51e	0.12953612
82	0xbe6c1d84	-0.23058134
83	0xbece355a	-0.4027508
84	0xbf0f97fe	-0.56091297
85	0xbdd3e070	-0.103455424
86	0x3ef30ac3	0.47469148
87	0x3db278b3	0.08714428
88	0x3ec64f2b	0.38732275
89	0x3f1338de	0.5750865
90	0xbf2671a6	-0.65017164
91	0xbf08a905	-0.53382903
92	0x3eca21df	0.39478967
93	0x3ec954d0	0.3932252
94	0xbf04be78	-0.5185313
95	0xbf072bb4	-0.5280106
96	0xbf2a54ef	-0.6653585
97	0xbe637c21	-0.2221532
98	0x3e3b3bd6	0.18284544
99	0xbe2f8f0b	-0.1714441
100	0x3e5a9ec4	0.21349627
101	0x3cba613c	0.022751443
102	0x3ee23401	0.441803
103	0x3e89f81f	0.26947114
104	0x3ef29fcd	0.47387543
105	0xbe9013ff	-0.28140256
106	0x3f293113	0.66090506
107	0x3ec11913	0.37714443
108	0xbd738fb0	-0.059463203
109	0x3d76e0d9	0.060273025
110	0xbe58b77e	-0.21163747
111	0xbd27c5d1	-0.040960137
112	0xbe90a74d	-0.2825264
113	0x3bdd2d77	0.0067498046
114	0xbeb80438	-0.3594072
115	0xbe3cd268	-0.18439639
116	0xbeb43653	-0.35197696
117	0xbe8c5c2a	-0.27414066
118	0x3e8136d4	0.25237143
119	0xbe7adec8	-0.24499047
120	0x3e6a9ce5	0.22911413
121	0x3e96abd8	0.2942798
122	0xbe460c44	-0.19340616
123	0xbf45f5a5	-0.7732795
124	0xbd39afae	-0.045333557
125	0x3d5b3834	0.053520396
126	0xbeb2702e	-0.3485121
127	0x3d905178	0.07046789
128	0x3cb6c838	0.022312269
129	0x3d640865	0.05567207
130	0x3efe6afb	0.49690995
131	0xbeaec525	-0.34134784
132	0x3db9c874	0.090714365
133	0x3d9c1da8	0.07622844
134	0xbe7e92e2	-0.24860719
135	0x3b8dbadc	0.004325254
136	0x3b054394	0.002033447
137	0xbf12df9a	-0.5737244
138	0x3d0e3846	0.034721635
139	0x3e42aedb	0.19012015
140	0x3e4dac4c	0.20085257
141	0xbe56b34f	-0.20966838
142	0x3f353ed2	0.7079898
143	0x3ece096a	0.40241557
144	0xbc9d14d2	-0.019174967
145	0x3c57fa20	0.013182193
146	0xbf0f337e	-0.55937946
147	0x3eaaa0fa	0.3332594
148	0xbd8cbee5	-0.06872348
149	0xbf43f916	-0.7655195
150	0x3ecc2e82	0.39879233
151	0xbe8980b5	-0.26856008
152	0xbebbe3e7	-0.36697313
153	0x3dedce38	0.11611599
154	0xbf0fb5bc	-0.5613668
155	0xbf614d46	-0.88008535
156	0x3e5ee1cf	0.21765827
157	0xbea3127c	-0.3185004
158	0xbe60d7ac	-0.21957272
159	0xbf4b305c	-0.79370666
160	0x3dd8d124	0.105867654
161	0xbee32935	-0.44367376
162	0xbdb0ee23	-0.08639171
163	0x3e6bacad	0.2301509
164	0x3e600d57	0.21880089
165	0x3d79ed50	0.061017334
166	0x3e68a60b	0.2271959
167	0xbceed88d	-0.029155994
168	0x3f06aa2d	0.5260342
169	0x3df05328	0.11734611
170	0x3e89f04d	0.26941147
171	0x3ebe2514	0.37137663
172	0x3e90d0a4	0.2828418
173	0x3ecc40fa	0.39893323
174	0xbe2d7ea0	-0.16942835
175	0xbe649500	-0.22322464
176	0x3f0498d6	0.5179571
177	0xbe00c5ee	-0.12575504
178	0xbd910a21	-0.0708201
179	0xbf213f1c	-0.6298692
180	0xbf64ccfc	-0.8937528
181	0xbe94eafc	-0.2908553
182	0x3e958427	0.29202387
183	0x3d0dc5ea	0.034612574
184	0x3f40d333	0.75322264
185	0x3f16ccc0	0.58906174
186	0xbf030f3b	-0.51195115
187	0xbf47f0e9	-0.78101975
188	0x3f1c60c3	0.61085147
189	0x3eca7055	0.39538828
190	0xbf092fb6	-0.53588426
191	0xbe91957d	-0.28434363
192	0x3f240461	0.6406918
193	0xbeaf5b09	-0.34249142
194	0x3ec8aca6	0.3919422
195	0x3e0aefae	0.13567993
196	0x3eb6a134	0.35669863
197	0x3e01a340	0.12659931
198	0x3f2f5bfa	0.6849972
199	0x3e9c5131	0.30530694
200	0xbe150d97	-0.14555965
201	0x3e8d363a	0.27580434
202	0x3f0e4ef4	0.5558922
203	0xbec336ba	-0.3812769
204	0x3f026eb5	0.50950176
205	0x3ed3ca0c	0.41365087
206	0x3e96aa72	0.29426914
207	0xbe6843ac	-0.22682065
208	0x3ee08a3b	0.4385546
209	0xbc80429a	-0.015656758
210	0xbf00c650	-0.503026
211	0xbe7a364d	-0.24434777
212	0xbf0282cc	-0.5098083
213	0xbf15e8a2	-0.58558095
214	0x3ea46a30	0.32112265
215	0xbe5e2188	-0.21692479
216	0x3e968523	0.2939845
217	0x3ea49e60	0.3215208
218	0xbe29b7c6	-0.1657401
219	0xbf6986c5	-0.91221267
220	0x3eb666a9	0.35625198
221	0xbdd4aeb2	-0.10384883
222	0x3e6d40a6	0.23169193
223	0xbf6cba18	-0.92471457
224	0x3ee8ff4a	0.4550727
225	0xbe6ff312	-0.23432568
226	0xbd46f638	-0.048574656
227	0x3f2068d0	0.6265993
228	0x3ece3cb8	0.402807
229	0xbe7a7d52	-0.24461868
230	0xbeb7d073	-0.35901222
231	0x3d1e1ccc	0.03860168
232	0xbe2d00dd	-0.1689486
233	0xbdc60ba2	-0.096701875
234	0x3eb12743	0.34600267
235	0x3cd5e15e	0.02610844
236	0x3f134892	0.5753261
237	0x3f251bc2	0.6449548
238	0x3eb99f52	0.36254364
239	0x3e894535	0.26810613
240	0x3eac1131	0.33606866
241	0x3e398c5e	0.18119952
242	0xbec5ffbf	-0.3867168
243	0xbe9dc2b7	-0.30812618
244	0xbf59dbda	-0.8510109
245	0xbeab5382	-0.3346215
246	0x3ef8bf30	0.48583364
247	0xbe715b84	-0.23570067
248	0x3f21e31a	0.63237154
249	0x3e5295ed	0.20565005
250	0xbec97d92	-0.39353615
251	0xbf3aae01	-0.7292176
252	0xbd803d0e	-0.06261645
253	0x3dd19527	0.10233527
254	0xbdaade06	-0.08343129
255	0xbebec19b	-0.37257084

fc1.bias f4 [16]
0	0xbbd75714	-0.00657166
1	0xbcf91e5d	-0.030409986
2	0x3d4fe476	0.050754987
3	0xbda5c074	-0.08093348
4	0xbe149203	-0.14508824
5	0x3c81412e	0.01577815
6	0xbe2c1b37	-0.16807257
7	0x3e511cec	0.20421189
8	0x3e16229c	0.1466164
9	0x3e203a77	0.15647303
10	0xbdd6a211	-0.104801305
11	0x3db71d84	0.089411765
12	0x3e89ed7a	0.26938993
13	0xbe352f91	-0.17693926
14	0x3ca66b89	0.020314949
15	0xbe0092b3	-0.12555961

fc2.weight f4 [1, 16]
0	0xbea529a9	-0.32258347
1	0xbf720c58	-0.94550085
2	0xbeff1c31	-0.49826196
3	0xbe8c5ed6	-0.27416104
4	0xbf3b90d4	-0.73267865
5	0xbf733e8e	-0.95017326
6	0xbf336ff1	-0.70092684
7	0xbed1b76a	-0.40960246
8	0xbf3da42a	-0.7407862
9	0x3fac3da8	1.3456316
10	0x3f1f6c22	0.6227437
11	0x3eda61cb	0.42652735
12	0x3eb0cd8f	0.3453183
13	0xbeb9e931	-0.36310723
14	0x3f75f868	0.9608216
15	0x3dafeccc	0.08590087
