unorganised_code/conceptual_model_0.pth (torch, 51438 bytes, 8 tensors)

fc0.weight f4 [11, 784]
0.0 0.0 0.0 0.0 0.0 0.0 0.0 0.0
0.0 0.0 0.0 0.0 0.0 0.0 0.0 0.0
0.0 0.0 0.0 0.0 0.0 0.0 0.0 0.0
0.0 0.0 0.0 0.0 0.0 0.0 0.0 0.0
0.0 0.0 0.0 0.0 0.0 0.0 0.0 0.0
0.0 0.0 0.0 0.0 0.0 0.0 0.0 0.0
0.0 0.0 0.0 0.0 0.0 0.0 0.0 0.0
0.0 0.0 0.0 0.0 0.0 0.0 0.0 0.0
0.0 0.0 0.0 0.0 0.0 0.0 0.0 0.0
0.0 0.0 0.0 0.0 0.0 0.0 0.0 0.0
0.0 0.0 0.0 0.0 0.0 0.0 0.0 0.0
0.0 0.0 0.0 0.0 0.0 0.0 0.0 0.0
0.0 0.0 0.0 0.0 0.0 0.0 0.0 0.0
0.0 0.0 0.0 0.0 0.0 0.0 0.0 0.0
0.0 0.0 0.0 0.0 0.0 0.0 0.0 -0.5018163
2.2182086 -0.5 -0.5 2.1702032 -0.5077533 1.6262481 -0.51778495 0.0
0.0 0.0 0.0 0.0 0.0 0.0 0.0 0.0
0.0 0.0 0.0 0.0 0.0 0.0 0.0 0.0
0.0 0.0 1.6887727 -0.5 -0.5 -0.5 -0.5 1.9379891
-0.5046143 -0.5029873 -0.5076853 1.2129835 0.0 0.0 0.0 0.0
0.0 0.0 0.0 0.0 0.0 0.0 0.0 0.0
0.0 0.0 0.0 0.0 0.0 1.4239272 -0.5 -0.501151
1.8605139 1.6177208 1.5932264 1.6811589 -0.5097785 1.4594173 -0.51641285 1.0161191
1.0384893 0.0 0.0 0.0 0.0 0.0 0.0 0.0
0.0 0.0 0.0 0.0 0.0 0.0 0.0 0.0
0.0 -0.5 -0.5041704 1.2035166 0.957784 1.0675637 -0.50037813 2.0508642
-0.5132319 0.8658363 1.2793765 -0.5015803 0.9076604 -0.5 0.0 0.0
0.0 0.0 0.0 0.0 0.0 0.0 0.0 0.0
0.0 0.0 0.0 0.0 0.0 -0.5 0.8535657 -0.8560869
0.50118005 1.2147723 -0.5058779 -0.5106615 0.759624 0.5391286 -0.5001824 -0.53589123
0.5 -0.5092873 -0.50081193 0.0 0.0 0.0 0.0 0.0
0.0 0.0 0.0 0.0 0.0 0.0 0.0 0.0
00000000: 0000 0000 0000 0000 0000 0000 0000 0000
00000010: 0000 0000 0000 0000 0000 0000 0000 0000
00000020: 0000 0000 0000 0000 0000 0000 0000 0000
00000030: 0000 0000 0000 0000 0000 0000 0000 0000
00000040: 0000 0000 0000 0000 0000 0000 0000 0000
00000050: 0000 0000 0000 0000 0000 0000 0000 0000
00000060: 0000 0000 0000 0000 0000 0000 0000 0000
00000070: 0000 0000 0000 0000 0000 0000 0000 0000
00000080: 0000 0000 0000 0000 0000 0000 0000 0000
00000090: 0000 0000 0000 0000 0000 0000 0000 0000
000000a0: 0000 0000 0000 0000 0000 0000 0000 0000
000000b0: 0000 0000 0000 0000 0000 0000 0000 0000
000000c0: 0000 0000 0000 0000 0000 0000 0000 0000
000000d0: 0000 0000 0000 0000 0000 0000 0000 0000
000000e0: 0000 0000 0000 0000 0000 0000 0000 0000
000000f0: 0000 0000 0000 0000 0000 0000 0000 0000
00000100: 0000 0000 0000 0000 0000 0000 0000 0000
00000110: 0000 0000 0000 0000 0000 0000 0000 0000
00000120: 0000 0000 0000 0000 0000 0000 0000 0000
00000130: 0000 0000 0000 0000 0000 0000 0000 0000
00000140: 0000 0000 0000 0000 0000 0000 0000 0000
00000150: 0000 0000 0000 0000 0000 0000 0000 0000
00000160: 0000 0000 0000 0000 0000 0000 0000 0000
00000170: 0000 0000 0000 0000 0000 0000 0000 0000
00000180: 0000 0000 0000 0000 0000 0000 0000 0000
00000190: 0000 0000 0000 0000 0000 0000 0000 0000
000001a0: 0000 0000 0000 0000 0000 0000 0000 0000
000001b0: 0000 0000 0000 0000 0000 0000 0000 0000
000001c0: 0000 0000 0000 0000 0000 0000 0000 0000
000001d0: 0000 0000 0000 0000 0000 0000 0877 00bf
000001e0: 21f7 0d40 0000 00bf 0000 00bf 9ce4 0a40
000001f0: 1ffc 01bf e628 d03f 8e8d 04bf 0000 0000
00000200: 0000 0000 0000 0000 0000 0000 0000 0000
00000210: 0000 0000 0000 0000 0000 0000 0000 0000
00000220: 0000 0000 0000 0000 0000 0000 0000 0000
00000230: 0000 0000 0000 0000 0000 0000 0000 0000
00000240: 0000 0000 0000 0000 b429 d83f 0000 00bf
00000250: 0000 00bf 0000 00bf 0000 00bf 0710 f83f
00000260: 672e 01bf c7c3 00bf aaf7 01bf 0b43 9b3f
00000270: 0000 0000 0000 0000 0000 0000 0000 0000
00000280: 0000 0000 0000 0000 0000 0000 0000 0000
00000290: 0000 0000 0000 0000 0000 0000 0000 0000
000002a0: 0000 0000 0000 0000 0000 0000 0000 0000
000002b0: 0000 0000 3f43 b63f 0000 00bf 6f4b 00bf
000002c0: 5225 ee3f 7a11 cf3f d8ee cb3f 3730 d73f
000002d0: d880 02bf 30ce ba3f a233 04bf 3110 823f
000002e0: 38ed 843f 0000 0000 0000 0000 0000 0000
000002f0: 0000 0000 0000 0000 0000 0000 0000 0000
00000300: 0000 0000 0000 0000 0000 0000 0000 0000
00000310: 0000 0000 0000 0000 0000 0000 0000 0000
00000320: 0000 0000 0000 00bf 5011 01bf d50c 9a3f
00000330: 5531 753f eda5 883f c818 00bf 5c41 0340
00000340: 2a63 03bf 73a7 5d3f 9cc2 a33f 9167 00bf
00000350: 6f5c 683f 0000 00bf 0000 0000 0000 0000
00000360: 0000 0000 0000 0000 0000 0000 0000 0000
00000370: 0000 0000 0000 0000 0000 0000 0000 0000
00000380: 0000 0000 0000 0000 0000 0000 0000 0000
00000390: 0000 0000 0000 00bf 4883 5a3f 8328 5bbf
000003a0: 564d 003f a97d 9b3f 3781 01bf b6ba 02bf
000003b0: b876 423f 5504 0a3f f40b 00bf 2b30 09bf
000003c0: 0000 003f a760 02bf 3635 00bf 0000 0000
000003d0: 0000 0000 0000 0000 0000 0000 0000 0000
000003e0: 0000 0000 0000 0000 0000 0000 0000 0000
000003f0: 0000 0000 0000 0000 0000 0000 0000 0000

fc0.bias f4 [11]
-0.35185772 -0.4320573 0.41649666 -0.05062992 -0.6127412 0.71815044 -0.017820017 -0.32413724
-0.0228864 0.77333146 -0.95122665
00000000: b226 b4be 9d36 ddbe 0d3f d53e 5261 4fbd
00000010: 9bdc 1cbf b5d8 373f 49fb 91bc 51f5 a5be
00000020: 427c bbbc 0df9 453f 9783 73bf

fc1.weight f4 [32, 11]
-0.1247191 -0.1654792 0.20219545 -0.0008817569 0.2839775 0.020451702 0.21317346 -0.5518703
-0.6237045 -0.46437696 -0.5669355 -0.59240353 0.04509253 -0.37559682 0.14473861 -0.69153357
-0.048387364 0.20977283 -0.8309995 0.12273169 -0.7129334 -0.46588564 0.3254565 0.09580485
-0.27573273 0.17448406 0.18868662 0.04005863 -0.55448806 0.4521075 0.1932682 -0.43852448
-0.008400409 0.19961049 -0.11540955 -0.51680124 0.2055456 0.10568071 0.019582134 0.10218836
-0.010479481 -0.26150587 -0.5700566 -0.16376317 0.2064629 -0.4761687 -0.28753495 -0.20491366
0.16610959 0.4348793 -0.12046694 0.19665636 0.19569816 -0.26054698 -0.2666414 -0.47363907
-0.6607962 -0.111455224 0.20424686 0.47321996 -0.23613536 0.18810077 0.12505293 -0.079647504
0.4811316 0.50147265 -0.28139552 0.5546351 -0.034612756 0.32278228 0.5193428 -0.4677493
-0.4953565 0.22304852 -0.29387152 -0.23046587 0.24105948 1.0550609 0.21996401 0.20359242
-0.10887599 -0.26932243 -0.34432563 0.61564213 -0.082047306 -0.22489351 0.17912424 -0.12420024
0.062413227 -0.7370762 0.26346162 -0.03076311 0.5440739 -0.6346539 0.47197297 0.5437329
-0.67342633 0.31852832 0.02334221 0.034809485 0.10936607 -0.048558753 -0.041057717 0.43386275
0.11712642 0.16393155 0.4331927 -0.22433387 -1.3838602 1.0340301 -0.017947163 -0.85481054
0.5731356 -0.09305195 -0.34512973 -0.17420985 -0.13596377 0.4392256 0.1555757 -0.049753487
0.52004254 -0.41637874 0.81753904 -0.37423846 0.3838985 0.24921125 0.31066537 0.1880992
-0.37982726 0.22492485 0.536102 0.50896 -0.18700048 0.18989423 -0.5476506 0.2701591
0.44050878 -0.47873914 0.7356973 -0.05356915 -0.4700854 0.41584897 -0.578444 0.15264739
-0.19080512 0.043818027 -0.059215896 -0.14182043 0.7744838 -0.29861522 -0.40880078 0.44462824
0.4084404 0.1259861 0.00867369 -0.14637554 -0.20558631 0.39281628 -0.5168984 0.14890592
0.6321861 -0.14854337 0.28084722 0.10864217 0.5297152 -0.07591431 0.0024753823 -0.2555671
-0.0044575403 -0.09884367 0.50087935 -0.72775686 0.20634222 0.44783625 0.35822535 -0.34098494
0.3719151 -0.033448897 0.29593104 0.21505567 -0.62854594 -0.36452234 0.47412398 -0.07556485
0.8143083 0.09375735 0.19387016 -0.22762917 -0.2348756 0.018107248 -0.07823069 -0.8401591
0.89385647 -0.2816747 -0.14178176 -0.18086249 -0.24307632 1.0271455 -0.2322773 -0.25469986
-0.47856602 0.0050095264 0.005327181 0.5136316 -0.2102981 -0.7701667 0.5535284 -0.546551
-0.3314235 0.7300353 0.4430154 -0.46991965 -0.3487795 -0.045927413 0.09276138 -0.75278276
-0.04700275 -0.015141148 -1.3443183 -0.26687178 -0.5743622 -0.051679138 0.82708806 0.48229986
0.34808362 -0.0021675462 -0.44717392 -0.03528373 0.2766866 -0.027198425 -0.0848564 0.84109014
0.66519684 -0.29905054 0.2609374 0.018955527 0.6080633 0.35285315 0.6812497 0.82819015
-0.24966305 -0.19241509 -0.6069501 0.026318202 0.23970523 -0.22199534 -0.7560288 0.6257439
0.18960805 -0.25008732 0.20183493 -0.51924 0.4521749 0.17475718 0.44312513 -0.5602409
00000000: ba6c ffbd 6173 29be 530c 4f3e b425 67ba
00000010: 8065 913e 548a a73c 254a 5a3e 5f47 0dbf
00000020: 19ab 1fbf d1c2 edbe af22 11bf c2a7 17bf
00000030: f2b2 383d 3a4e c0be 5c36 143e 5808 31bf
00000040: d431 46bd b0ce 563e 62bc 54bf c15a fb3d
00000050: ce82 36bf 9088 eebe 3ca2 a63e 5535 c43d
00000060: d72c 8dbe f3ab 323e 1137 413e 8514 243d
00000070: eef2 0dbf a27a e73e 19e8 453e 4886 e0be
00000080: dea1 09bc b166 4c3e d85b ecbd 164d 04bf
00000090: 8c7a 523e 216f d83d b66a a03c 2248 d13d
000000a0: 21b2 2bbc 19e4 85be 3bef 11bf 88b1 27be
000000b0: 036b 533e 62cc f3be c837 93be e3d4 51be
000000c0: a218 2a3e 80a8 de3e 5fb7 f6bd 4960 493e
000000d0: 1965 483e 6a66 85be 3985 88be d280 f2be
000000e0: f129 29bf a342 e4bd 1726 513e e349 f23e
000000f0: 78cd 71be 7d9d 403e e00d 003e 3b1e a3bd
00000100: e256 f63e 8360 003f 1313 90be 91fc 0d3f
00000110: 1bc6 0dbd b843 a53e a6f3 043f d67c efbe
00000120: 5e9f fdbe d566 643e 5476 96be 3fff 6bbe
00000130: 4cd8 763e 3c0c 873f 3f3e 613e 887a 503e
00000140: 60fa debd a1e4 89be 734b b0be b99a 1d3f
00000150: 6b08 a8bd 7c4a 66be 586c 373e b25c febd
00000160: 03a5 7f3d 07b1 3cbf 71e4 863e eb02 fcbc
00000170: 6d48 0b3f ae78 22bf 71a6 f13e 1432 0b3f
00000180: ab65 2cbf 2516 a33e 2a38 bf3c 6494 0e3d
00000190: 51fb df3d 8be5 46bd 232c 28bd 4223 de3e
000001a0: fadf ef3d acdd 273e 6fcb dd3e c7b7 65be
000001b0: 5522 b1bf 195b 843f ee05 93bc ddd4 5abf
000001c0: 04b9 123f 0592 bebd d8b4 b0be 1164 32be
000001d0: 163a 0bbe 2ee2 e03e 3c4f 1f3e 50ca 4bbd
000001e0: 8221 053f 982f d5be 3d4a 513f 2f9c bfbe
000001f0: 588e c43e 3c31 7f3e 880f 9f3e 149d 403e
00000200: b878 c2be b352 663e fb3d 093f 344b 023f
00000210: 0e7d 3fbe a273 423e d432 0cbf 4b52 8a3e
00000220: 5e8a e13e 4c1d f5be a956 3c3f 536b 5bbd
00000230: 09af f0be 28ea d43e e814 14bf 994f 1c3e
00000240: 6b62 43be 887a 333d 5e8c 72bd 6039 11be
00000250: 9244 463f 18e4 98be 564e d1be 50a6 e33e
00000260: 1a1f d13e 8002 013e 181c 0e3c 78e3 15be
00000270: 3885 52be 371f c93e 7453 04bf cb7a 183e
00000280: f3d6 213f c11b 18be 35cb 8f3e c97f de3d
00000290: 6a9b 073f f678 9bbd 063a 223b b1d9 82be
000002a0: 8f10 92bb 8d6e cabd a139 003f 464e 3abf
000002b0: 604b 533e cb4a e53e 5069 b73e 9495 aebe
000002c0: a86b be3e b601 09bd 4684 973e 8e37 5c3e
000002d0: 63e8 20bf aca2 babe 61c0 f23e bec1 9abd
000002e0: 8276 503f db03 c03d e685 463e 9f17 69be
000002f0: 3b83 70be a755 943c 6937 a0bd ab14 57bf
00000300: c7d3 643f ab37 90be 3d2f 11be 0434 39be
00000310: 00e9 78be 8179 833f 1ada 6dbe 0568 82be
00000320: 9b06 f5be f426 a43b a28f ae3b 5c7d 033f
00000330: 6358 57be a529 45bf 0ab4 0d3f c4ea 0bbf
00000340: 57b0 a9be 98e3 3a3f ead2 e23e 4f99 f0be
00000350: 3a93 b2be 621e 3cbd aef9 bd3d 5fb6 40bf
00000360: f585 40bd 9412 78bc 9f12 acbf 6ba3 88be
00000370: 6709 13bf 81ad 53bd 0bbc 533f 02f0 f63e
00000380: 0438 b23e 640d 0ebb fbf3 e4be ac85 10bd
00000390: dea9 8d3e 3bcf debc 31c9 adbd af51 573f
000003a0: 574a 2a3f 271d 99be 9699 853e 9f48 9b3c
000003b0: 09aa 1b3f 2ba9 b43e 6166 2e3f 4504 543f
000003c0: aca7 7fbe 7608 45be 1561 1bbf 4599 d73c
000003d0: 4a75 753e bf52 63be 1a8b 41bf c130 203f
000003e0: 9d28 423e 720b 80be d1ad 4e3e eaec 04bf
000003f0: 7883 e73e 8cf3 323e 4ce1 e23e f36b 0fbf

fc1.bias f4 [32]
-0.15880479 -0.089838594 0.05610453 -0.4233259 0.161131 0.2759201 -0.56802535 0.12618475
0.2317404 0.17091684 0.32692873 0.529047 -0.22565296 -0.46670517 -0.055708367 0.27353805
-0.11401237 -0.58440113 -0.23516448 0.44869635 0.051953223 -0.059128862 -0.6414438 0.33610803
-0.23244464 0.15668146 0.4330163 -0.20034024 -0.10038765 0.38743323 0.04097996 0.2852865
00000000: b99d 22be 4cfd b7bd ddcd 653d 2cbe d8be
00000010: 86ff 243e 6645 8d3e 1c6a 11bf 9336 013e
00000020: 5b4d 6d3e d304 2f3e 3463 a73e a06f 073f
00000030: 9211 67be fbf3 eebe 752e 64bd 2e0d 8c3e
00000040: 517f e9bd 509b 15bf f5ce 70be 87bb e53e
00000050: e7cc 543d 1b31 72bd a935 24bf 5a16 ac3e
00000060: f805 6ebe 1b71 203e 50b4 dd3e fe25 4dbe
00000070: 0a98 cdbd a65d c63e 9ada 273d 1211 923e

fc2.weight f4 [16, 32]
-0.11285529 -0.2927222 0.21620698 -0.109538354 0.33302748 0.1357948 -0.80927455 0.40711546
-0.11164621 0.40250084 0.5096476 -0.27823144 -0.048616454 -0.4374008 -0.7058735 0.33886626
0.5862398 0.2517253 -0.20859835 -0.2918017 0.3066495 0.18336807 -0.071735136 -0.139537
-0.23280115 0.20486884 0.1591744 0.038448166 0.29601976 0.24757351 0.45971036 0.08498131
-0.046465077 -0.367626 -0.09281723 0.074395865 0.49790043 -0.1941874 0.009990853 -0.2145608
0.3811468 0.105480626 -0.32960945 0.16303207 -0.30737984 0.23977615 0.49493426 0.209224
-0.18076178 -0.25478682 0.42569822 -0.22155888 -0.034559764 0.4479128 -0.25683588 -0.4242198
0.15507703 -0.2573776 0.6890119 -0.3442973 -0.77019686 -0.545675 0.29724687 -0.093460485
-0.026606325 0.07462401 0.3323622 -0.36555907 0.11602266 -0.12208741 0.306082 0.28457394
0.06365437 0.04413802 -0.0057516964 0.20809741 -0.3753672 0.21043074 0.06161109 0.5422706
-0.03321611 -0.3230153 -0.021117417 -0.102856874 -0.056540664 0.10389431 0.17870608 0.041119467
0.0661545 0.55343837 -0.025754005 0.034956664 -0.36667776 -0.13538817 -0.18184018 -0.035564385
0.14084613 -0.20283815 0.38696486 0.06499744 0.58597976 -0.37741795 0.3315432 -0.057780243
0.4982898 0.7160508 -0.1687188 -0.23035559 -0.5168975 0.049077783 -0.4345912 -0.04671949
0.25914404 0.095288865 0.2865966 0.09872016 0.09971763 0.46199343 0.19621451 0.03531279
-0.29436004 0.5798193 -0.4162679 0.34454176 0.13746722 0.11271283 -0.45587263 0.015944766
0.3875927 0.16564023 0.0023888948 0.0387329 -0.1506646 0.44298917 -0.035431735 -0.3158181
0.80971926 -0.6175231 0.33120453 -0.33118913 -0.30256063 0.007806683 -0.4970147 0.39196733
-0.2950231 0.15546319 -0.1250331 -0.18423615 -0.21073306 -0.05411483 -0.0083388975 -0.1086694
0.07154386 0.17583199 -0.05633629 -0.06518725 0.1516154 -0.0076870397 -0.019406712 0.34022838
-0.058100574 0.39010358 0.20603389 -0.28667253 -0.23513167 0.091282964 0.59085566 0.029271713
-0.23018001 0.24300691 0.46762532 -0.15641913 -0.47150296 -0.30505425 -0.060824722 -0.004993416
0.17824315 -0.62771404 0.08079736 0.67702395 0.47013822 -0.16089879 -0.94276065 -0.44508058
0.37128118 0.2242132 -0.20944084 -0.056373667 0.3567347 -0.1487219 -0.14879183 0.053862616
-0.5086714 0.56020385 0.10630509 0.7245576 -0.22145887 -0.4017243 -0.04179795 0.45578185
0.07080801 0.07804301 -0.1825239 0.32324263 -0.25223696 0.24222465 0.0439799 0.10873168
-0.46740282 0.14402376 0.78465307 0.29841694 -0.33017215 0.027796818 0.19845079 0.20088851
-0.40361607 -0.18904765 0.2273691 0.10489589 -0.26558754 -0.21409117 -0.18458457 0.23072329
0.74850583 -0.2352115 -0.2033127 0.4632205 0.3597943 -0.23888722 0.18293935 -0.016044179
0.24572098 -0.21281977 -0.27144298 0.118736885 -0.11718442 -0.13328277 -0.2237726 -0.028901685
0.0079707205 -0.24752107 0.15955648 -0.026447404 0.24837306 0.27364823 -0.17358294 -0.32595703
0.29055443 0.0032817565 0.23898122 -0.737125 -0.4991234 0.0077060284 -0.16580127 0.19637036
00000000: ad20 e7bd afdf 95be 5d65 5d3e a555 e0bd
00000010: 9482 aa3e cb0d 0b3e 9e2c 4fbf 7071 d03e
00000020: c5a6 e4bd 9714 ce3e 4478 023f 5a74 8ebe
00000030: 0c22 47bd fff2 dfbe 20b4 34bf e17f ad3e
00000040: d013 163f 23e2 803e ce9a 55be 0867 95be
00000050: 2a01 9d3e d7c4 3b3e dfe9 92bd cae2 0ebe
00000060: 6d63 6ebe 23c9 513e 9dfe 223e d37b 1d3d
00000070: e78f 973e e983 7d3e 285f eb3e ae0a ae3d
00000080: 2a52 3ebd 7a39 bcbe f616 bebd dc5c 983d
00000090: ceec fe3e 10d9 46be adb0 233c d4b5 5bbe
000000a0: ac25 c33e 3a06 d83d 92c2 a8be e1f1 263e
000000b0: e460 9dbe e187 753e 0668 fd3e d13e 563e
000000c0: 9e19 39be 6b73 82be 1ef5 d93e 55e0 62be
000000d0: 8a8e 0dbd d454 e53e fe7f 83be 5633 d9be
000000e0: 83cc 1e3e ffc6 83be 1563 303f bc47 b0be
000000f0: 9f2b 45bf 5bb1 0bbf be30 983e 3668 bfbd
00000100: 82f5 d9bc 79d4 983d 612b aa3e 8f2a bbbe
00000110: 4a9d ed3d f708 fabd c8b6 9c3e adb3 913e
00000120: 395d 823d 12ca 343d ba78 bcbb 7d17 553e
00000130: 2130 c0be 287b 573e e95b 7c3d 3fd2 0a3f
00000140: 9e0d 08bd 4362 a5be 6ffe acbc a0a6 d2bd
00000150: 2f97 67bd 8ac6 d43d bafe 363e e36c 283d
00000160: 037c 873d 23ae 0d3f 10fa d2bc b82e 0f3d
00000170: 30bd bbbe 32a3 0abe 5034 3abe f6ab 11bd
00000180: f839 103e ceb4 4fbe 4220 c63e 611d 853d
00000190: c502 163f ed3c c1be 08c0 a93e faaa 6cbd
000001a0: d71f ff3e 1b4f 373f 9fc4 2cbe 56e2 6bbe
000001b0: 6553 04bf c905 493d bd82 debe f05c 3fbd
000001c0: 87ae 843e cf26 c33d cabc 923e cc2d ca3d
000001d0: c238 cc3d 678a ec3e 75ec 483e 25a4 103d
000001e0: 5cb6 96be 0a6f 143f 1121 d5be c767 b03e
000001f0: 35c4 0c3e fcd5 e63d 2368 e9be 999e 823c
00000200: 8d72 c63e 989d 293e 018f 1c3b 64a6 1e3d
00000210: d247 1abe 7acf e23e de20 11bd e9b2 a1be
00000220: c349 4f3f fe15 1ebf a493 a93e 9f91 a9be
00000230: 3ae9 9abe 34cf ff3b b678 febe f1af c83e
00000240: 450d 97be be31 1f3e ad08 00be 67a8 3cbe
00000250: 68ca 57be 83a7 5dbd df9f 08bc 108e debd
00000260: 9685 923d 4d0d 343e e2c0 66bd e580 85bd
00000270: 1141 1b3e 90e3 fbbb d3fa 9ebc 6a32 ae3e
00000280: defa 6dbd a8bb c73e 8cfa 523e bec6 92be
00000290: 5bc6 70be 90f2 ba3d 5142 173f 3bcb ef3c
000002a0: 4fb4 6bbe ced6 783e 966c ef3e 562c 20be
000002b0: d668 f1be 1230 9cbe 5823 79bd cf9f a3bb
000002c0: 5f85 363e deb1 20bf 1679 a53d 7151 2d3f
000002d0: f5b5 f03e a7c2 24be c358 71bf 9ae1 e3be
000002e0: 9118 be3e 2598 653e a977 56be 13e8 66bd
000002f0: eea5 b63e 8e4a 18be e35c 18be 0c9f 5c3d
00000300: 4a38 02bf 8569 0f3f 7cb6 d93d 9b7c 393f
00000310: 1dc6 62be cfae cdbe 5434 2bbd 3d5c e93e
00000320: ca03 913d 03d5 9f3d 8ce7 3abe 0f80 a53e
00000330: 3425 81be bd09 783e 4524 343d b7ae de3d
00000340: 6c4f efbe f77a 133e 06df 483f 1bca 983e
00000350: 530c a9be 27b6 e33c af36 4b3e b8b5 4d3e
00000360: c4a6 cebe b595 41be 72d3 683e a8d3 d63d
00000370: 17fb 87be b73a 5bbe bd03 3dbe ba42 6c3e
00000380: 149e 3f3f 49db 70be 3431 50be 3d2b ed3e
00000390: f536 b83e da9e 74be 7454 3b3e 156f 83bc
000003a0: 489e 7b3e 6ded 59be 93fa 8abe 532c f33d
000003b0: 63fe efbd 477b 08be a524 65be 3ac3 ecbc
000003c0: a097 023c 2a76 7dbe c662 233e 3aa8 d8bc
000003d0: 8255 7e3e 9f1b 8c3e babf 31be d7e3 a6be
000003e0: 8dc3 943e bd12 573b 7eb7 743e 39b4 3cbf
000003f0: 1a8d ffbe da82 fc3b cfc7 29be 5015 493e

fc2.bias f4 [16]
0.19869553 0.10141873 -0.21321069 -0.07775924 -0.17748432 -0.07820475 -0.14873031 -0.031020919
0.23647757 -0.062102307 -0.17711566 0.017917383 -0.019433504 0.16842082 0.19625089 -0.22772522
00000000: d776 4b3e a0b4 cf3d e753 5abe 3d40 9fbd
00000010: 73be 35be d029 a0bd c24c 18be 951f febc
00000020: 2d27 723e fd5e 7ebd cf5d 35be 7ac7 923c
00000030: 0333 9fbc 8276 2c3e fef5 483e cd30 69be

fc3.weight f4 [10, 16]
0.5185801 0.10209286 0.0103781745 0.4880551 -0.6730855 -1.282081 0.6842305 -0.92063665
1.1061645 -0.9668344 -0.63247097 -0.081042506 0.06864847 -1.5731529 0.13352129 -0.31365755
-1.5411261 -1.0908608 0.70757353 -0.8680933 -0.4951753 0.43664524 -0.28504527 -0.5212077
-0.36279655 1.1503829 -0.5966962 0.5875272 1.2802404 0.08130441 -0.98771006 -1.7903173
0.051573806 -0.5190895 0.50290275 0.051414993 -1.0415207 0.46805084 0.4097142 -0.6283504
-0.17385426 0.33919877 -1.2981273 -0.7752532 -1.1404612 -0.210594 -0.40516093 0.77338326
-0.24715047 1.3181198 0.7724022 0.47178176 -0.41694736 0.077484034 0.35021734 0.08810332
-0.9451611 -1.1242647 -0.85811716 -0.099940196 -0.27933282 0.99785304 -0.4535312 0.1881736
0.19540824 -0.490954 -0.6712494 -1.2179812 0.3414305 0.115534864 -0.4146291 0.3521651
-0.80142653 -0.70074576 0.56587243 0.29273865 -0.53981334 -0.16361848 1.1617512 0.9229028
0.7579401 1.0565021 0.061458077 0.4546118 0.21629673 0.32124335 0.40332356 -0.027092086
1.2712637 -0.15871146 -0.855559 -0.44245958 -0.23985863 0.9074096 0.38137737 -0.83919346
0.3336462 -0.74542826 0.22590299 1.0322489 0.6128985 0.047943678 -0.21194303 -1.7619876
0.46858242 0.488288 0.45282403 0.6912755 -0.4942934 -0.42881942 0.22809403 0.42143294
-1.3221717 0.9530715 0.025517484 -0.76450425 0.49099687 -0.12627544 1.0539619 0.8201124
-0.58272004 1.2447851 0.21143313 -0.6231826 0.23171243 -0.46258718 0.30628178 0.24727371
0.3001158 -0.6719615 -0.6511358 1.0199326 0.5680853 0.2601814 -0.4734425 0.23445038
-0.25343904 -0.23363821 -0.5789518 -0.5429994 0.6160039 0.65083474 -1.5866451 0.027607858
0.595046 1.0648137 -0.7897529 -0.60629785 -0.12513949 -1.0643535 -0.32077804 0.28238556
-0.63873345 0.2409547 -0.04378821 0.43564683 0.2832802 0.19299534 -0.38012266 0.48887876
00000000: aac1 043f 1016 d13d 3809 2a3c 5ce2 f93e
00000010: 554f 2cbf 3b1b a4bf bb29 2f3f d8ae 6bbf
00000020: cc96 8d3f 7682 77bf 9ee9 21bf 9df9 a5bd
00000030: 9297 8c3d 135d c9bf ceb9 083e b997 a0be
00000040: 9f43 c5bf 54a1 8bbf 8a23 353f 5d3b 5ebf
00000050: 9e87 fdbe f78f df3e 74f1 91be de6d 05bf
00000060: 78c0 b9be bf3f 933f 15c1 18bf 2f68 163f
00000070: ebde a33f ed82 a63d 91da 7cbf 1e29 e5bf
00000080: 0e3f 533d 0de3 04bf 3cbe 003f 8798 523d
00000090: 8d50 85bf 5ca4 ef3e 0fc6 d13e 92db 20bf
000000a0: da06 32be 76ab ad3e 0929 a6bf fe76 46bf
000000b0: a2fa 91bf f4a5 57be 4171 cfbe 72fc 453f
000000c0: 0315 7dbe 26b8 a83f 27bc 453f 618d f13e
000000d0: 207a d5be f3af 9e3d b04f b33e 836f b43d
000000e0: 14f6 71bf e8e7 8fbf 91ad 5bbf 72ad ccbd
000000f0: b604 8fbe 4c73 7f3f 3e35 e8be 95b0 403e
00000100: 1919 483e 535e fbbe 00d7 2bbf cfe6 9bbf
00000110: facf ae3e 8b9d ec3d 444a d4be fc4e b43e
00000120: 4a2a 4dbf 1364 33bf 04dd 103f d7e1 953e
00000130: 3531 0abf 9a8b 27be 43b4 943f 5c43 6c3f
00000140: 5d08 423f 763b 873f 77bb 7b3d e1c2 e83e
00000150: e47c 5d3e 027a a43e 6d80 ce3e 39f0 ddbc
00000160: c5b8 a23f 4285 22be ea05 5bbf 108a e2be
00000170: 809d 75be ff4b 683f e543 c33e 62d5 56bf
00000180: add3 aa3e 63d4 3ebf 1d53 673e bb20 843f
00000190: ebe6 1c3f 9760 443d 9807 59be cf88 e1bf
000001a0: 09ea ef3e e200 fa3e 8dd8 e73e 6ef7 303f
000001b0: 0614 fdbe 388e dbbe 7b91 693e 0fc6 d73e
000001c0: ec3c a9bf 7efc 733f 0b0a d13c 8db6 43bf
000001d0: f163 fb3e 594e 01be 39e8 863f e3f2 513f
000001e0: 242d 15bf 1e55 9f3f ed81 583e e588 1fbf
000001f0: 0646 6d3e 3ad8 ecbe f7d0 9c3e 5235 7d3e
00000200: c7a8 993e ab05 2cbf d6b0 26bf 278d 823f
00000210: 0a6e 113f 7f36 853e 0e67 f2be c313 703e
00000220: c3c2 81be db3e 6fbe 2f36 14bf 0202 0bbf
00000230: 6eb2 1d3f 1b9d 263f 3017 cbbf e029 e23c
00000240: ef54 183f d14b 883f 3f2d 4abf 5636 1bbf
00000250: 9124 00be bc3c 88bf 053d a4be d794 903e
00000260: 0984 23bf d4bc 763e 445b 33bd 1a0d df3e
00000270: 1a0a 913e 92a0 453e 709f c2be 514e fa3e

fc3.bias f4 [10]
0.08646432 -0.3176587 0.25939494 0.18672633 -0.25986868 0.14909555 -0.18168096 0.2539715
-0.09837808 0.3309373
00000000: 3514 b13d 29a4 a2be 6acf 843e 3035 3f3e
00000010: 820d 85be 81ac 183e 930a 3abe 8d08 823e
00000020: 727a c9bd 9d70 a93e
