stored_model_weights_binary/ffn_mnist_binary_5.pth (torch, 105881 bytes, 5 tensors)

fc0.weight f4 [32, 784]
000000 3f 74 02 be 20 ed b3 bc fa ca e6 3c ac b1 33 3d
       -0.12739657 -0.021963656 0.028172959 0.043870613
000010 8a 9a 9e bc 8c 14 c4 bd 4b 81 dd bd e3 b4 c4 3d
       -0.0193608 -0.095742315 -0.10815676 0.09604814
000020 30 7d fd 3d ed 1d 30 3d 2d ea 2d bc 43 21 16 bc
       0.12377393 0.04299729 -0.010614914 -0.009163204
000030 7e 1b 0d 3e dd 71 90 3b 4a 06 9d 3d 46 d6 f7 3c
       0.13780019 0.004408105 0.07667215 0.03025354
000040 b0 c4 29 3d 0f c8 d4 3c 70 87 fc 3d a6 d1 1f 3d
       0.04144734 0.025974302 0.1233052 0.039018296
000050 13 14 98 3d 3e 8f ae bb da 82 91 3d 70 9d d3 3d
       0.07425704 -0.0053271344 0.07105036 0.10332763
000060 fe 3f 30 bd aa 22 f2 bc ee b1 cf 3d df 84 e2 3d
       -0.043029778 -0.029557545 0.10141359 0.110604994
000070 7a 92 a7 3d 9a 9b c0 bd d6 d7 c6 bd 2a 4c 6a 3d
       0.08182235 -0.09404679 -0.09709136 0.057201542
000080 9b 4b e3 bd 21 69 e2 3c 3e 4a 86 3e 70 8b 9e 3e
       -0.11098405 0.02763802 0.26228517 0.30965757
000090 94 c0 b1 3e 4c 47 d1 3e eb 4f 65 3f 66 c8 6b 3f
       0.34717238 0.40874708 0.8957507 0.9210266
0000a0 ff 22 8b 3f bc be 8f 3f 83 cd 90 3f d1 4d a9 3f
       1.0870055 1.1230083 1.1312717 1.3226873
0000b0 cb 76 5b 3f 58 bb 23 3f b3 0b 90 3e 69 f9 b0 3e
       0.8572814 0.6395774 0.28133926 0.34565285
0000c0 72 87 13 3f 8b b3 c2 3e 71 1c 27 3e dc 6f 98 bd
       0.5762855 0.38027605 0.16319443 -0.074432105
0000d0 6c c7 07 3d 76 dd 03 be a8 0e 6a 3d e2 75 cd bd
       0.033149168 -0.1287745 0.057142884 -0.1003225
0000e0 d6 f4 a1 3d fd b1 e5 bd aa e2 96 3b 19 56 76 3c
       0.07908027 -0.11215589 0.004604657 0.015035176
0000f0 b6 73 f6 3d ec 01 20 3e ac 82 01 3f 9f 46 19 3f
       0.12033789 0.15625733 0.50590014 0.59873384
000100 48 22 5d 3f 3d a5 42 3f d3 db 53 3f 0b 73 a9 3f
       0.86380434 0.76033384 0.827573 1.3238233
000110 38 0a 2a 40 3c 75 37 40 29 7e 93 3e 0c 04 f1 3d
       2.6568737 2.8665304 0.2880719 0.1176835
000120 0d 28 84 be f7 8c 9e be 9a 26 18 3d df 00 0a 3e
       -0.25811806 -0.30966923 0.03714619 0.13476895
000130 5a 51 13 3f 2a dd ac 3e 1c 2f c1 3d 73 25 33 3e
       0.5754601 0.33762485 0.094328135 0.17494754
000140 59 cb 35 3f cc ff 25 3e 71 be 03 3e 90 70 eb bd
       0.7101341 0.1621086 0.12865616 -0.11496079
000150 93 a1 04 bc 87 f5 da bc ff 1f a6 3d 3e 60 7f be
       -0.008095163 -0.026728405 0.081115715 -0.24939057
000160 1e 4a 94 be b9 cf fb 3e ef 4c 80 3f f6 89 68 3f
       -0.28962797 0.49181917 1.0023478 0.9083551
000170 4a bf 3e 3f 17 02 1f 3f 9b e7 f8 3e 15 f5 42 3e
       0.74510634 0.62112564 0.486142 0.19038804
000180 d3 9b 2a bc 46 97 f5 3c 6e d4 ac 3e da 71 88 3e
       -0.010413128 0.02997936 0.3375582 0.26649362
000190 be 21 d7 3e 6f 42 86 3d e9 bb b8 3d 83 7d 3c be
       0.4201793 0.0655564 0.09020216 -0.18407254
0001a0 ef af 1d be 42 b9 9e be 1a 4c 3d 3d 13 cb 2c 3f
       -0.15399145 -0.31000715 0.046215154 0.67497367
0001b0 3a cc aa 3d cf 2b 3c 3f a0 95 97 bb 93 41 bd bd
       0.083397344 0.73504347 -0.004625991 -0.09241023
0001c0 3e 0c 0e 3e a3 60 52 bc 38 4f c8 3e 09 06 9c be
       0.13871858 -0.012840423 0.3912294 -0.30473354
0001d0 cd 36 43 3f ce a6 83 3e 46 2d c2 3e a2 b5 1e 3f
       0.76255494 0.257132 0.37925166 0.619959
0001e0 f6 eb 09 3f 77 fe a5 3e 83 67 2d 3e e6 fc f0 3d
       0.5387567 0.32420704 0.16934018 0.117669865
0001f0 fa a0 91 3e ff 5d 4d 3e 2c c9 36 3e bb e5 cb 3d
       0.28443128 0.20055388 0.17850178 0.09955927
000200 ea 5b dc 3d 07 06 b1 3c 32 f0 d8 3d 57 35 11 3d
       0.10759719 0.02160932 0.105926886 0.03545126
000210 72 7a b6 bd d8 13 4c 3d 0e eb 68 bc e7 92 4f be
       -0.08910073 0.049823612 -0.014216198 -0.20270883
000220 20 cc ae be f8 a5 92 3e 0f 2b 8e 3c 80 70 55 3e
       -0.3414011 0.2864225 0.017354516 0.20843697
000230 74 84 42 bd df 6b d0 3d b2 53 ec 3e 1f 3f 7a be
       -0.0474896 0.10176825 0.46157604 -0.24438141
000240 b1 80 7d 3e f9 60 31 3f 22 5b 0a 3f ca 7d 83 3d
       0.24756123 0.69288594 0.5404531 0.06420477
000250 b9 ae d8 3e 7f c7 44 3e 2b c7 bc 3e b1 d0 77 bd
       0.42320803 0.19216727 0.36870703 -0.060501758
000260 ac 6e 9e 3d a5 81 28 3c 00 e1 6a 3c 36 1d af 3e
       0.07735953 0.010284816 0.014335871 0.34201974
000270 43 fa 63 3e df 36 db 3e 23 5b 64 3e 3e 36 bc 3e
       0.22263436 0.428153 0.22300391 0.36760134
000280 e1 c0 de 3e ac d9 f7 3c 20 e3 f4 bb 4b 6a 37 3d
       0.4350653 0.030255161 -0.0074733645 0.044779103
000290 22 aa c0 bb ae be 2b 3e be 90 a6 3e 2e 63 57 3d
       -0.0058796564 0.16771957 0.32532305 0.05258482
0002a0 cc bf 35 bd 8f dc 65 3e 79 06 61 3e 31 8d 89 3f
       -0.044372365 0.22447418 0.21975125 1.0746213
0002b0 54 53 29 3f 95 dd 3f 3f ba 47 6c 3e 78 f9 a5 3e
       0.66142774 0.7494748 0.23074237 0.32416892
0002c0 4d f7 8b 3d ec da 0a 3e 36 4b e4 3d 65 39 8e 3c
       0.06834278 0.13560075 0.11147158 0.017361352
0002d0 2d 20 26 be f3 c4 a5 3c 6b 89 2c be a2 62 38 3d
       -0.16223212 0.020235514 -0.16849296 0.04501594
0002e0 4f 19 96 3e 96 b4 02 3f a0 e1 03 3f aa 34 bf 3e
       0.29316184 0.510568 0.5151615 0.37344867
0002f0 4e fc 0f 3e ab c5 6b bd 2b a1 97 3d 4f ef 54 be
       0.1406109 -0.057561558 0.07403787 -0.20794414
000300 a9 da af bc 19 fb 1b bd 51 8b b0 3e b9 51 ac 3e
       -0.02146657 -0.038081262 0.3448129 0.336561
000310 2e d8 c3 bd c1 a4 1a 3f 05 5b 44 3a 62 34 9e 3f
       -0.095627174 0.60407645 0.00074903696 1.2359736
000320 65 7b c0 3e 1d df f0 3e e0 cc 35 3e 64 03 a2 3e
       0.37594143 0.47045222 0.17753935 0.31643212
000330 96 a4 7a bc 8b 18 13 3e a8 f9 15 3d 83 1d d8 3b
       -0.015298029 0.14364831 0.036615044 0.006595315
000340 14 88 b3 3d fe b9 6a be 67 e0 3d be 41 49 e2 3d
       0.08766189 -0.22922513 -0.18542634 0.11049128
000350 4b 64 01 3e d7 c7 a2 3e d8 57 00 3f f8 c6 bb 3e
       0.12635915 0.3179309 0.5013404 0.3667524
000360 5a 83 1d 3e 00 5b 1a 3e b8 62 8b bc af af 07 3d
       0.15382138 0.15073776 -0.017014846 0.03312653
000370 6a 70 ae bd fc 7e 03 3d 47 ef 6a bd 82 7e 2f 3e
       -0.08517535 0.032103524 -0.0573571 0.17138103
000380 6d 43 65 bd 34 13 c6 3e 5e ac 1c 3f f8 04 98 3f
       -0.055972505 0.38686526 0.6120051 1.1876516
000390 a0 e8 7c 3e b4 f8 6f 3e c7 85 f9 3d 60 9a 45 3e
       0.24698114 0.23434716 0.12183719 0.1929717
0003a0 5f 2d 4a 3e c1 98 34 3e 0b a7 78 3e ea 4b 25 be
       0.1974387 0.17636396 0.24282472 -0.1614224
0003b0 5f 59 1a be de 41 3d 3d 44 6f 0f bd f0 e2 d8 bd
       -0.15073155 0.046205394 -0.03501822 -0.1059016
0003c0 3b 81 b8 3d be 4c a3 3e be 42 91 3e 13 ac af 3e
       0.09009024 0.31894487 0.28371233 0.3431097
0003d0 b4 40 83 3e 7e c4 53 3e 0a f6 33 3e 50 db e1 bc
       0.25635302 0.20680425 0.17574325 -0.027570397
0003e0 72 73 c8 be d1 7d e7 be 76 e1 bf 3d 7e 3c 6b bc
       -0.39150578 -0.45213178 0.09369175 -0.014357684
0003f0 5d a5 ed 3d e5 75 92 3e 58 ec 15 3f a9 11 f8 3f
       0.11603806 0.2860557 0.58563757 1.938039

fc0.bias f4 [32]
000000 a8 c0 fe 3f 28 55 16 c0 95 27 3d 3f 53 aa d9 3f
       1.9902544 -2.3489475 0.7388852 1.7005104
000010 9a 4a fe bf 42 77 91 3f 9d 6f 1a 40 7d 7f d3 3f
       -1.9866517 1.136452 2.4130623 1.6523281
000020 46 0f ac 3f 48 06 27 40 f3 f8 e8 3d eb 3c 11 bf
       1.3442161 2.6097584 0.11375608 -0.5673358
000030 6d b3 af 3e a0 3e 0e c0 5e af 0f 3e c7 b0 c2 bf
       0.34316579 -2.2225723 0.14031741 -1.5210198
000040 94 c2 b4 3f d0 f9 9b bf 7c aa bb bf 26 52 27 3f
       1.412188 -1.2185612 -1.4661403 0.65359724
000050 07 3b 96 3f e7 06 01 3f 1b cc da bf ee 32 c0 bf
       1.1736764 0.5040116 -1.7093538 -1.5015543
000060 79 29 e2 3e e9 a5 3c c0 e5 8b f8 bf d6 50 08 40
       0.44172266 -2.9476264 -1.9417692 2.1299338
000070 af e1 13 40 d2 c0 3e bf 51 2b fe 3f d6 bd df bf
       2.3106496 -0.7451297 1.9856969 -1.7479808

fc1.weight f4 [16, 32]
000000 e2 2d 8a 3e 43 9c 64 3d 6c cf ec 3e 07 c2 89 3e
       0.2698813 0.055813085 0.46252 0.26905844
000010 8e 29 95 3f 4e 7c ce be 24 2d 21 be 75 b2 66 3e
       1.1653306 -0.40329212 -0.15739876 0.22529013
000020 63 de 22 bf 5e 3c b5 bd b9 d8 19 3e 56 91 98 3f
       -0.63620585 -0.08849405 0.1502408 1.1919353
000030 73 4e 5b 3e bf 76 d0 3e 13 3b e2 bd ce bd da 3d
       0.21416645 0.40715596 -0.11046424 0.106807336
000040 5e 11 50 bf aa 88 1c bf bf 41 bc 3e 3c bd 64 be
       -0.812765 -0.6114603 0.3676891 -0.22337812
000050 fb 49 4d 3f 19 2c fe bd 9d 1d a3 bd 33 e2 b9 be
       0.8019101 -0.12410755 -0.07964633 -0.3630539
000060 cd 7f 3b 3f 38 49 94 3e 16 91 45 3e 81 3c e7 be
       0.73241884 0.2896211 0.19293627 -0.45163348
000070 43 94 d9 be d3 d3 87 3e ee e5 80 be f9 16 ca 3d
       -0.42495927 0.26528797 -0.25175422 0.09867663
000080 0f 5e c9 be 88 96 44 3f 97 60 65 bd e3 41 ee 3e
       -0.39329574 0.7679219 -0.05600032 0.46534643
000090 a9 86 6f 3e b8 8d b4 3e b9 42 b8 be ad ae 01 bf
       0.23391213 0.35264373 -0.35988405 -0.5065716
0000a0 d3 42 6d be 32 1b 20 bf c3 be d2 be 27 f9 9e 3e
       -0.23170023 -0.62541497 -0.41161165 0.31049463
0000b0 7b c7 1a 3e b3 8b f4 3e 64 17 3d 3f c0 7f 1f 3e
       0.15115158 0.47762832 0.73863816 0.15576077
0000c0 d0 2b d0 be d4 dd 3f be 5e 5c ad 3d 7e 76 a0 be
       -0.40658426 -0.18736964 0.08464883 -0.31340402
0000d0 8e 46 08 bd 4f 81 9a be 90 50 38 3f 8d 38 d0 3e
       -0.03327041 -0.3017678 0.7199793 0.40668145
0000e0 62 47 c0 be b7 b2 13 3f 1c 7a 11 3f 83 fb 06 bf
       -0.3755446 0.5769457 0.5682695 -0.52727526
0000f0 0e c1 02 bf 23 0a 8b 3d 10 be 72 bf 3f 5e e0 be
       -0.5107583 0.06789043 -0.9482126 -0.43821904
000100 37 45 81 3e 2f 5c 1b bf 90 1d b7 3e 2d a6 a1 3e
       0.2524812 -0.60687536 0.35764742 0.31572095
000110 e7 14 8b 3c d4 72 d7 bd 2d 74 bd 3e cf 00 e8 3e
       0.01697774 -0.105199486 0.37002698 0.45313117
000120 46 f8 86 be 12 cc fd 3e b0 fd 29 bd 9b d1 b1 3e
       -0.26361293 0.49569756 -0.0415017 0.3473023
000130 b4 03 5a 3e 04 c1 83 3d 54 da f1 3d 8f 2a 0c 3f
       0.21290475 0.06433299 0.11809221 0.5475244
000140 1a 67 0e 3f e9 a1 1c bf d9 d6 51 3e bd e3 0d 3f
       0.5562607 -0.61184555 0.20492114 0.55425626
000150 e4 99 b0 3d 72 13 50 3e 85 49 3c bf a3 bd 90 bd
       0.08623102 0.20319918 -0.7354968 -0.0706742
000160 5c 68 67 3e 43 54 2c bf 75 81 3d bd 05 0e 68 3e
       0.22598404 -0.67316073 -0.046266038 0.22661598
000170 4e fe 3e be 58 1d 00 3c f8 9f 37 3f de e0 44 bf
       -0.18651697 0.007819496 0.7172847 -0.7690562
000180 f2 2c 31 3f 01 31 a3 bd 0f 60 9a 3d 2f 9a fc 3e
       0.69209206 -0.07968331 0.07537853 0.49336383
000190 da 6e 22 bf 70 4e 8f bf 11 7a 93 3e 1c 59 8c be
       -0.63450396 -1.1195812 0.28804067 -0.27411735
0001a0 56 b3 53 3f e8 50 90 be a4 b7 94 3e 26 3a 52 3d
       0.8269552 -0.28186727 0.29046357 0.051324986
0001b0 4f 19 88 be a0 d2 95 3d 58 4a 44 bf 52 02 da 3e
       -0.2658181 0.07315564 -0.7667594 0.42579895
0001c0 16 c3 95 3e 5c c6 92 3e d3 d8 b8 be 91 30 1d 3f
       0.292504 0.2866696 -0.36102924 0.6140223
0001d0 f4 31 bf bd da bb b8 be ed 15 3b 3f 16 5c 51 be
       -0.093357 -0.3608082 0.7308033 -0.20445284
0001e0 29 2c 24 3f 27 80 96 3e 08 bc 83 3e c9 98 b0 be
       0.64129883 0.29394647 0.25729394 -0.34491566
0001f0 69 49 87 3d 94 e6 99 3d 35 fc 5d 3f a3 9e bb 3d
       0.06605799 0.075146824 0.8671296 0.09161117
000200 f1 38 ac 3e 27 6a 29 3e e4 b4 1b bf 6a bf af 3d
       0.33637193 0.165444 -0.6082289 0.08581431
000210 84 6d 30 bf b9 41 5b 3e ac 78 2f 3f 01 d5 af 3e
       -0.6891711 0.2141179 0.68543506 0.34342197
000220 a3 cf 38 3f 3a 64 1c 3e df 06 35 be 51 3d b2 3d
       0.7219183 0.15272608 -0.17678402 0.087031014
000230 72 e6 0a 3e 9a 73 3f bf f0 f6 8c 3e 31 7f 0b bf
       0.1356447 -0.7478577 0.27532148 -0.54490954
000240 4f 95 ef 3e bc 53 28 bf 9d cf 8c be be f3 c7 3e
       0.467936 -0.6575277 -0.27502146 0.39053148
000250 b0 0c b8 be 18 9c cd 3e 86 46 74 3d f8 4a 2f bf
       -0.3594718 0.40158153 0.05963757 -0.6847377
000260 b7 b6 03 be 7d 7d c7 bc e5 d7 c6 bd 28 7c d7 be
       -0.12862669 -0.02435183 -0.09709147 -0.4208691
000270 e9 e8 ac 3e e8 b0 71 3d 7f bf ef 3e 8e 5f 05 3e
       0.33771446 0.0590066 0.46825787 0.13024732
000280 57 0e 2b 3e 9b da e7 be 93 89 0f bd eb 59 bc 3e
       0.16704689 -0.4528397 -0.03504331 0.36787352
000290 8a 36 bf 3e 82 8b a7 3e cb 69 e7 3e a6 0e e4 3e
       0.37346298 0.32723624 0.451979 0.44542426
0002a0 2a fd 0d bf a6 37 ed 3e a9 06 cc 3e 26 dc b7 be
       -0.5546442 0.4633152 0.3984883 -0.35910147
0002b0 55 e9 26 3f f0 67 b6 be 93 7a 07 be e5 41 90 be
       0.65199786 -0.35626173 -0.13230352 -0.28175274
0002c0 37 ea 17 3f 6b 46 34 bf f3 1a 92 be c5 d0 66 be
       0.5934176 -0.7041995 -0.28536186 -0.22540577
0002d0 07 82 f6 3e a0 e6 76 3e d7 97 8f bf 30 b3 a2 be
       0.48146078 0.24111414 -1.1218213 -0.31777334
0002e0 27 9c 68 bd 02 b4 06 bf 0d d4 f5 be b4 12 4f 3e
       -0.056789543 -0.5261842 -0.48013344 0.20221978
0002f0 8a c4 48 3e 43 1d 00 bf 7f e7 f6 3e fb 9c ef 3d
       0.19606224 -0.5004465 0.48223493 0.116998635
000300 16 26 b4 3e 32 5e d9 be 6b 41 f6 3e 65 30 65 be
       0.35185307 -0.42454678 0.48096785 -0.22381742
000310 28 eb 37 be 58 75 6d be 74 34 33 3e f0 e0 18 3f
       -0.17960799 -0.23189294 0.17500478 0.5971823
000320 77 8d dc 3e 81 6b 4f be 61 58 04 bf 46 b1 a6 be
       0.4307668 -0.20255853 -0.51697356 -0.32557124
000330 4f e1 36 3e 01 2a 84 bf 7c 83 a9 3a 9c 48 08 3e
       0.17859386 -1.0325319 0.0012932862 0.13308948
000340 cd df 5c 3e b4 92 e8 be 0f 42 d2 3d b0 82 f6 3e
       0.21569748 -0.45424426 0.10266506 0.48146582
000350 8b c1 71 3e b3 1c 36 bd 49 db 99 3c 55 9d 58 3d
       0.23608987 -0.044460963 0.018781321 0.05288442
000360 b1 a5 04 3f c8 40 61 bf 6f 16 81 3e f0 08 96 3e
       0.51815325 -0.87989473 0.25212428 0.29303694
000370 99 38 58 bc 74 80 73 be d9 15 53 3f c8 95 e0 3e
       -0.013197088 -0.2377947 0.8245521 0.43864274
000380 5c 56 a9 3e 5d 74 11 bf a4 c1 ea be 3a 28 9f be
       0.330737 -0.5681818 -0.4585086 -0.31085378
000390 4c 05 f6 3e 84 c6 11 bf b9 88 f0 3e ff fe d7 3c
       0.48050916 -0.56943536 0.4697931 0.026366709
0003a0 8d a7 14 bf 33 68 cf 3e c3 4f 9a 3e cc e3 ab 3e
       -0.5806816 0.40509185 0.30138978 0.33572233
0003b0 8b 42 82 3d 1b af 8e be dd 11 3c be 90 7f 1f bf
       0.06360348 -0.2786797 -0.1836619 -0.6230402
0003c0 16 11 29 bf bc 3d 88 3d 57 29 6a 3d 14 54 6c be
       -0.66041696 0.066524 0.05716833 -0.23078948
0003d0 a3 34 24 bf cd f7 d9 be 17 12 97 be 94 25 d3 3e
       -0.6414282 -0.4257187 -0.2950599 0.41239607
0003e0 ee ab 6d be 3c 9d c5 be 43 08 da 3e c6 02 7a 3e
       -0.23210117 -0.38596523 0.42584428 0.2441512
0003f0 f6 8b 7c be 99 20 ef 3d a7 8a 65 3f 9a df d3 3e
       -0.24662766 0.116761394 0.8966469 0.41381532

fc1.bias f4 [16]
000000 0d 99 b1 3d 31 72 19 3f ba d6 3d bf 93 3f c8 be
       0.0867177 0.5993987 -0.7415577 -0.39111003
000010 1b f7 b7 be 33 94 39 bf 0d c7 f2 be c8 69 71 bf
       -0.35930714 -0.7249176 -0.4741749 -0.94302034
000020 f5 87 05 bf 64 7c 09 bf e9 0d 52 3f a0 42 5b 3f
       -0.5216058 -0.5370543 0.82052475 0.85648537
000030 42 57 14 bf 6d 07 f6 be 24 1a 82 be 3c 2d ec be
       -0.57945645 -0.4805254 -0.2541057 -0.4612826

fc2.weight f4 [1, 16]
000000 30 06 8d 3f 61 72 d3 3f 6a 22 a9 bf 10 74 ef be
       1.1017513 1.6519281 -1.3213627 -0.46768236
000010 74 df a3 bf 16 63 e3 bf f9 8b 83 bf a6 52 c6 bf
       -1.2802567 -1.7764614 -1.0277091 -1.5493972
000020 f6 fa 9e bf 43 81 a8 bf 15 41 cd 3f 8e ff 90 3f
       -1.2420337 -1.3164448 1.6035486 1.1327989
000030 28 5d ea be d7 6f 1b bf e5 53 87 bf f9 1d 56 bf
       -0.45774198 -0.6071753 -1.0572478 -0.83639485
