stored_model_weights_binary/ffn_mnist_binary_1.pth (torch, 105881 bytes, 5 tensors)

fc0.weight f4 [32, 784]
0	0x3db7aef5	0.08968917
1	0xbd25fe79	-0.040525887
2	0xbcf2f3a4	-0.029657193
3	0xbd17b20d	-0.037035037
4	0xbcb196eb	-0.021678409
5	0x3db03df2	0.08605565
6	0x3def06f9	0.11671252
7	0x3d063346	0.032763742
8	0xbddf88a6	-0.109147355
9	0x3dd373c5	0.10324816
10	0x3d8c3463	0.068459295
11	0x3d82f807	0.06394964
12	0xbdac227f	-0.08405017
13	0xbdc27e5c	-0.094967574
14	0xbd761f6f	-0.06008857
15	0x3c439f98	0.011939906
16	0x3df7a426	0.12091856
17	0x3ca5b3e4	0.02022738
18	0xbdd01ac7	-0.101613574
19	0xbe02d536	-0.12776646
20	0x3e0342bf	0.1281843
21	0x3d4a2e94	0.049360827
22	0xbd30f97a	-0.04320667
23	0x3bc8843e	0.00611928
24	0xbd09e30e	-0.0336638
25	0xbde782e0	-0.11304259
26	0xbd828378	-0.06372732
27	0xbcb09635	-0.021556
28	0xbdb64d07	-0.089014105
29	0xbd86fd9e	-0.065913424
30	0x3d840a24	0.06447247
31	0xbdc2589d	-0.09489558
32	0xbd59d1f8	-0.053178757
33	0x3d555956	0.05208715
34	0x3d33d8fb	0.0439081
35	0xbb98b615	-0.0046603777
36	0x3e12456e	0.14284298
37	0xbcfc0a20	-0.030766547
38	0x3ddc063f	0.10743379
39	0xbd895a0c	-0.06706628
40	0x3dda5736	0.106611654
41	0x3e6c6a37	0.23087393
42	0xbe32ae65	-0.17449339
43	0xbe255f49	-0.1614963
44	0xbd855a6e	-0.06511389
45	0x3de4c7db	0.11170932
46	0xbdd61bd8	-0.104545295
47	0x3d0c794f	0.034295376
48	0xbde411e3	-0.11136224
49	0x3c1c4271	0.009537325
50	0x3e2a55c1	0.16634275
51	0x3d2563dd	0.04037844
52	0xbdb60221	-0.08887125
53	0xbe08ae65	-0.13347776
54	0xbde2dbf6	-0.110771105
55	0xbdb660e9	-0.08905203
56	0xbaf746fc	-0.001886576
57	0x3c273768	0.010206081
58	0x3df78568	0.12085992
59	0x3daeca92	0.08534731
60	0x3e5039e6	0.20334587
61	0x3d03ba6c	0.032160208
62	0x3dc0ca91	0.094136365
63	0x3e2e57a1	0.17025615
64	0x3dba7c37	0.09105723
65	0x3e745663	0.23861079
66	0x3e300d22	0.1719251
67	0x3b77c248	0.003780501
68	0xbc41e900	-0.011835337
69	0xbe54daef	-0.20786642
70	0xbd99d0af	-0.07510506
71	0xbdd079d7	-0.10179489
72	0xbe5e006b	-0.21679847
73	0x3e7823aa	0.24232355
74	0x3e94c330	0.29055166
75	0x3df90f19	0.12161083
76	0x3d909b8c	0.07060918
77	0x3d99d434	0.07511178
78	0x3e268a71	0.16263749
79	0x3e23dc70	0.16002059
80	0x3e43afd8	0.19110048
81	0xbda729a8	-0.08162242
82	0xbb10aad5	-0.002207448
83	0x3ce31817	0.027721448
84	0x3dbec40b	0.09314736
85	0x3d9428b5	0.07234327
86	0xbb8b9633	-0.0042598485
87	0x3d788a22	0.06067861
88	0xbdcdbe3e	-0.100460514
89	0x3dab84ef	0.083749644
90	0x3eafa8cc	0.3430847
91	0x3d58f0f4	0.052964166
92	0x3ed4ad12	0.41538292
93	0x3dcc36c4	0.09971383
94	0x3d9f3981	0.0777464
95	0x3eac8da3	0.3370181
96	0xbdc18e43	-0.094509624
97	0xbebf54b7	-0.3736932
98	0xbd6abbce	-0.05730801
99	0x3e2da5cb	0.16957776
100	0xbd4d6068	-0.05014077
101	0x3ecc310f	0.3988118
102	0x3e7767c0	0.24160671
103	0xbe1784b6	-0.14796719
104	0xbdd2686e	-0.10273825
105	0x3e068cca	0.13139644
106	0xbd1f6a94	-0.03892
107	0x3e1a1855	0.15048344
108	0x3e588fc3	0.2114859
109	0x3da172c9	0.07883222
110	0xbd83f9b4	-0.064441115
111	0xbd71187c	-0.05886124
112	0xbdf15056	-0.11782901
113	0xbbdc0a26	-0.006715077
114	0x3cb8dd8b	0.022566577
115	0xbe1b847c	-0.15187258
116	0xbc794a1f	-0.015215426
117	0xbd122fb2	-0.035690017
118	0xbd615a47	-0.055017736
119	0xbe304399	-0.17213286
120	0x3da57810	0.08079541
121	0xbd1378db	-0.03600393
122	0xbe35a10e	-0.17737219
123	0xbd9b0515	-0.07569329
124	0xbe5a8571	-0.21339966
125	0xbec22643	-0.37919816
126	0x3c02a701	0.007974387
127	0x3dfa9812	0.12236036
128	0x3e83ab9f	0.25716874
129	0x3f002cbb	0.50068253
130	0x3e9cb388	0.3060572
131	0x3dce42db	0.100713454
132	0xbde67989	-0.1125365
133	0x3c83b6bc	0.016078345
134	0xbda3ee7a	-0.0800447
135	0x3dff086b	0.124527775
136	0x3e33ab9d	0.17545934
137	0x3df5b36e	0.11997114
138	0x3e024a7c	0.12723726
139	0x3da89e20	0.08233285
140	0x3df6fc29	0.120598145
141	0x3ce32d50	0.027731568
142	0xbd9ca05c	-0.076477736
143	0xbde224b6	-0.11042158
144	0xbb757555	-0.0037453969
145	0xbe15565c	-0.14583725
146	0xbe0e4f38	-0.13897407
147	0xbd4f1321	-0.050555352
148	0x3ca058bf	0.019573567
149	0x3e67700a	0.22601333
150	0x3c4f119a	0.012638474
151	0xbd5487c0	-0.051887274
152	0xbd8078a6	-0.06273012
153	0xbde6152d	-0.11234508
154	0xba88ac1a	-0.0010427267
155	0x3e6b18e0	0.22958708
156	0x3ecb68fc	0.39728534
157	0x3eca840c	0.3955387
158	0x3e06a3b2	0.13148382
159	0xbc4b4dfd	-0.012408731
160	0xbdfed0de	-0.12442182
161	0xbc8c7aa9	-0.017148333
162	0xbd5ca13e	-0.05386471
163	0x3d2c5781	0.042075638
164	0x3bd4ca38	0.006493833
165	0x3e1b8776	0.15188393
166	0x3de57a80	0.11205006
167	0x3def80b0	0.11694467
168	0xbdbb7f66	-0.09155159
169	0xbcde85ea	-0.027163465
170	0xbcd21f96	-0.025649827
171	0x3d8719f9	0.06596751
172	0x3d9ba3b9	0.07599587
173	0xbdcef3cd	-0.10105095
174	0x3d39e43f	0.045383688
175	0xbbd382f8	-0.0064548217
176	0x3e6642f6	0.22486481
177	0x3e168765	0.14700086
178	0x3e20aa83	0.15690045
179	0xbd2d155c	-0.042256698
180	0xbcfeb4f5	-0.031092146
181	0xbd76bd24	-0.060238972
182	0x3e1d722c	0.15375584
183	0x3e898f65	0.26867214
184	0x3eba970f	0.36443374
185	0x3ee662a6	0.44997138
186	0xbd92d0be	-0.07168721
187	0xbe0bc1ba	-0.1364812
188	0xbe2428d6	-0.16031203
189	0xbdcae459	-0.09906835
190	0xbdf76918	-0.12080592
191	0xbda46d47	-0.080286555
192	0x3d2bf6f4	0.04198356
193	0x3d401038	0.046890467
194	0x3cdea9a4	0.0271805
195	0xbd866bd4	-0.06563535
196	0xbd8642fd	-0.06555746
197	0x3e405c43	0.18785195
198	0xbd0424d2	-0.032261677
199	0x3e698efc	0.2280845
200	0x3d99c74e	0.075087175
201	0x3e2bfa66	0.16794738
202	0x3d6276f4	0.055289224
203	0x3b7d0644	0.003860847
204	0x3e5040b7	0.20337187
205	0xbd9d56f4	-0.076826006
206	0xbe0507dd	-0.12991281
207	0xbdc2eaf5	-0.09517471
208	0x3d669ff8	0.0563049
209	0xbd8e413e	-0.06946038
210	0x3db5539f	0.0885384
211	0x3ea8669a	0.3289078
212	0x3ecac1c6	0.39600962
213	0x3ea6e95b	0.3259991
214	0xbdaab2a4	-0.08334854
215	0x3c5911c6	0.013248866
216	0x3c696df8	0.01424741
217	0xbd522be7	-0.0513114
218	0xbdd33af2	-0.10313977
219	0xbdf740bb	-0.12072893
220	0x3db34822	0.087539926
221	0x3e1dfd7a	0.15428725
222	0xbd9a7cb3	-0.07543316
223	0x3e5413df	0.20710705
224	0xbdc3fc84	-0.09569648
225	0x3d908b40	0.0705781
226	0x3c610551	0.013734178
227	0x3e386b39	0.18009652
228	0x3e94bb8b	0.29049334
229	0x3e575108	0.21027005
230	0x3d754a33	0.059885215
231	0xbd10511b	-0.0352336
232	0x3e38f878	0.18063533
233	0x3c5fedb2	0.013667511
234	0xbe6c0f28	-0.23052657
235	0xbe4e1856	-0.20126471
236	0xbb3bf207	-0.0028678195
237	0xbda23daa	-0.07921918
238	0x3e4a69c8	0.19766915
239	0x3db6f14b	0.08932742
240	0x3e0a1c23	0.13487296
241	0x3e780e11	0.24224116
242	0x3dc69e93	0.096982144
243	0x3e0d6412	0.13807705
244	0x3dde6830	0.10859716
245	0xbdfb2094	-0.12262073
246	0xbcef31b4	-0.029198505
247	0xbd0e938d	-0.034808684
248	0x3e781713	0.24227552
249	0x3d5ab506	0.053395294
250	0x3dd0f6a4	0.10203293
251	0x3da70399	0.08154983
252	0x3e2a4bff	0.16630553
253	0x3dd70567	0.10499077
254	0xbd011121	-0.031510476
255	0x3e89c851	0.26910642

fc0.bias f4 [32]
0	0x3dad6b97	0.08467787
1	0xbc18b936	-0.0093215015
2	0xbdd92ecf	-0.10604631
3	0xbd8cf81c	-0.068832606
4	0xbd245c89	-0.04012731
5	0x3d07b75c	0.03313385
6	0x3d760912	0.060067244
7	0x3df1d326	0.118078515
8	0x3bf2dc92	0.007411548
9	0xbd3dbed7	-0.046324577
10	0x3cdc5212	0.026894603
11	0x3dfc6338	0.12323612
12	0xbd0a9c0d	-0.033840228
13	0x3d20ea7f	0.039286133
14	0xbc454c6a	-0.012042144
15	0x3ceac572	0.028658602
16	0xbbd732e7	-0.0065673473
17	0xbd0c7811	-0.03429419
18	0xbd91fb3e	-0.07127999
19	0xbd2be03d	-0.041961897
20	0x3d0217bf	0.031760927
21	0x3d1ddb5b	0.03853927
22	0x3d323278	0.043505162
23	0xbdc1f3d0	-0.09470332
24	0xbd4d83ee	-0.050174646
25	0x3dddc5bc	0.108287305
26	0x3d8337d6	0.06407134
27	0x3d7d36c1	0.061819796
28	0x3dcf1fd4	0.101134926
29	0xbd41de2c	-0.04733102
30	0xbd4b7f9f	-0.049682256
31	0x3d5e0903	0.054207813

fc1.weight f4 [16, 32]
0	0x3f08e3ec	0.5347278
1	0xbd86e3c3	-0.06586411
2	0xbd48f00b	-0.049057048
3	0xbe70b5f6	-0.23506913
4	0x3dfdbab1	0.12389124
5	0x3e52f441	0.20600988
6	0xbe21516d	-0.15753718
7	0x3e869e24	0.26292527
8	0x3e70b96e	0.23508236
9	0xbf064c3f	-0.5246009
10	0x3ee87b85	0.45406738
11	0x3d047ae8	0.032343775
12	0x3f4242ae	0.75882995
13	0xbde6ae89	-0.11263759
14	0x3d9e5146	0.077303454
15	0xbefbd1b2	-0.49183422
16	0xbe8514ff	-0.2599258
17	0xbef138b8	-0.47113585
18	0xbed8877d	-0.4229087
19	0xbf2463a8	-0.64214563
20	0x3e85ff57	0.2617137
21	0xbc8bac83	-0.017050033
22	0x3d2f51c3	0.042802583
23	0xbf24e769	-0.64415604
24	0x3e609335	0.21931155
25	0x3ea67ae4	0.32515633
26	0xbf2813f3	-0.6565544
27	0x3b06d0da	0.0020571263
28	0xbdd87956	-0.10570018
29	0xbef41d62	-0.47678667
30	0x3b221ee4	0.002473765
31	0x3eb7d99e	0.35908216
32	0xbe5da3c5	-0.21644504
33	0xbf37d07b	-0.7180249
34	0x3eafc3cc	0.3432907
35	0x3ee80496	0.45316
36	0xbe9e1d1f	-0.30881593
37	0xbbd4d436	-0.006495024
38	0x3e4264c3	0.1898375
39	0xbe6ac6be	-0.22927377
40	0x3ce489e3	0.02789778
41	0x3e21554f	0.15755199
42	0x3ea501c1	0.322279
43	0xbecb3c8c	-0.3969463
44	0xbf20b124	-0.62770295
45	0xbe87f7de	-0.26556295
46	0xbe6de2ae	-0.23231003
47	0x3f516ef4	0.81809926
48	0xbea80863	-0.328189
49	0xbdbe07fd	-0.092788674
50	0x3f1727a2	0.5904485
51	0xbd27b903	-0.040947925
52	0x3c8868b4	0.016651489
53	0xbf478f11	-0.77952677
54	0xbd130378	-0.03589198
55	0xbec88886	-0.3916666
56	0xbec3f9dd	-0.38276568
57	0xbea6ac62	-0.32553393
58	0xbda0a1c1	-0.07843352
59	0xbe39189c	-0.18075794
60	0x3a5ac495	0.0008345333
61	0x3ec3fef3	0.38280448
62	0xbed90011	-0.42382863
63	0xbe17db63	-0.14829783
64	0xbd8f9070	-0.07009971
65	0xbf2978ae	-0.6619977
66	0x3eacb480	0.3373146
67	0x3f076e3e	0.5290259
68	0x3e08246a	0.13295141
69	0xbe50d4ef	-0.20393728
70	0x3f38d37d	0.72197706
71	0x3edafb46	0.4276983
72	0x3ec332ca	0.38124686
73	0x3dc3e175	0.09564487
74	0x3eb266f7	0.3484418
75	0x3e535068	0.20636141
76	0xbf294207	-0.66116375
77	0xb746568b	-1.18218695e-05
78	0x3e3b08df	0.18265103
79	0xbd9f6499	-0.07782859
80	0x3d08e136	0.033417903
81	0xbeabb481	-0.3353615
82	0xbee68ad6	-0.45027798
83	0x3e810d1d	0.25205317
84	0xbf4fc4f2	-0.8115989
85	0x3e9b7e6c	0.3036989
86	0xbf03420f	-0.5127267
87	0x3f1183a8	0.56841516
88	0x3ee97292	0.45595223
89	0xbf294ddb	-0.66134423
90	0x3e81e074	0.25366557
91	0xbe85076f	-0.25982234
92	0xbe02205d	-0.12707658
93	0x3a9d4c95	0.0012000973
94	0xbf1b159b	-0.6057984
95	0x3f00cc75	0.50311977
96	0x3dcd897c	0.10035989
97	0x3da41c19	0.08013172
98	0x3f0804f1	0.5313254
99	0xbf12571d	-0.57164174
100	0x3f1b1968	0.6058564
101	0x3f01916f	0.5061254
102	0xbb49d153	-0.0030794933
103	0xbeab0ee6	-0.33409804
104	0xbee9488f	-0.4556317
105	0x3edd3526	0.43204612
106	0xbec0c029	-0.37646607
107	0xbcb10a39	-0.02161132
108	0x3f406b3f	0.75163645
109	0x3f49c679	0.7881847
110	0xbe249b45	-0.16074856
111	0xbd8a0ef1	-0.06741131
112	0xbf1b284f	-0.6060838
113	0x3f01cca4	0.5070288
114	0xbe180f65	-0.14849623
115	0xbec1d2db	-0.37856182
116	0x3ef7be36	0.48387307
117	0x3f0a0edc	0.53928924
118	0xbd404872	-0.04694409
119	0x3e716086	0.23571977
120	0x3e244183	0.16040616
121	0xbf182e17	-0.5944533
122	0xbe5c5b4f	-0.21519206
123	0xbeeb7d80	-0.45994186
124	0x3ebac522	0.36478525
125	0xbf39a4f8	-0.7251735
126	0x3d8d4b1e	0.06899093
127	0xbdf08f6d	-0.11746106
128	0xbe43c80a	-0.19119278
129	0x3e3cbc5a	0.18431225
130	0x3e80dddd	0.25169268
131	0x3e990f7b	0.29894623
132	0x3f1d2ace	0.6139344
133	0x3e25a32e	0.1617553
134	0x3d038a13	0.0321141
135	0xbe5e1402	-0.2168732
136	0xbe530df8	-0.20610797
137	0x3f339c31	0.70160204
138	0x3e5ab131	0.21356656
139	0xbee873fa	-0.45400983
140	0x3e98846f	0.2978854
141	0xbebeb8fb	-0.37250504
142	0xbe22041e	-0.15821883
143	0x3c068be8	0.008212067
144	0xbeb38388	-0.35061288
145	0x3be0c874	0.0068598334
146	0xbf005af4	-0.50138783
147	0x3f1d332d	0.61406213
148	0x3ea157bc	0.3151225
149	0xbf2f28d7	-0.6842169
150	0x3e2a0121	0.16601993
151	0x3e98e48d	0.2986187
152	0x3eb11bb0	0.34591436
153	0xbea588a0	-0.323308
154	0x3e10e51d	0.141499
155	0xbf12a346	-0.57280385
156	0xbe7100fa	-0.23535529
157	0x3f4c94bd	0.79914457
158	0xbdaa649a	-0.083199695
159	0xbf1786de	-0.59190166
160	0x3eb64d0c	0.35605657
161	0xbeca860e	-0.395554
162	0xbf01ec9a	-0.5075165
163	0x3ea8d457	0.32974502
164	0xbba8a0e5	-0.0051461332
165	0x3f17e260	0.59329796
166	0xbe9c2ae6	-0.3050148
167	0xbf2683c6	-0.6504482
168	0x3e7f55d4	0.24935085
169	0xbe033413	-0.12812833
170	0x3e987786	0.2977869
171	0x3dae263a	0.08503385
172	0xbe0e324c	-0.13886374
173	0x3ede4ee0	0.43419552
174	0x3f04c74d	0.5186661
175	0x3e6c17f2	0.2305601
176	0x3e2cd582	0.16878322
177	0xbe7549cb	-0.23953931
178	0xbefb91ff	-0.49134824
179	0x3ead3111	0.33826497
180	0xbec243ce	-0.37942356
181	0xbf277f29	-0.65428406
182	0x3f45f9e7	0.77334446
183	0xbec95e5a	-0.39329797
184	0x3db6a468	0.08918077
185	0xbda74ebc	-0.08169314
186	0xbe859952	-0.26093537
187	0xbec5544a	-0.3854087
188	0x3ec6d39e	0.38833326
189	0x3cfe2693	0.031024253
190	0x3e96f235	0.29481664
191	0xbdfb7587	-0.12278276
192	0xbe2e9d65	-0.17052229
193	0xbe24e34a	-0.16102329
194	0xbd9fc705	-0.07801632
195	0x3e2ccd23	0.16875128
196	0xbeb2a311	-0.34890035
197	0xbefecd85	-0.49766174
198	0xbe18d637	-0.14925466
199	0x3f25d4b7	0.647777
200	0xbe88dd5e	-0.2673139
201	0x3ef56c01	0.47933963
202	0x3ed5941d	0.41714564
203	0x3ea752c0	0.3268032
204	0x3f226406	0.63433874
205	0x3f2d16c6	0.67612875
206	0x3ea8b175	0.3294789
207	0xbeb243f2	-0.34817463
208	0xbf14ba93	-0.5809719
209	0xbe582d5a	-0.2111105
210	0xbe1303ae	-0.14356872
211	0xbed0304b	-0.40661845
212	0xbe7b7821	-0.24557544
213	0xbde43cf8	-0.11144441
214	0x3ed30a80	0.41218948
215	0x3bc65976	0.006053145
216	0x3eb57af4	0.35445368
217	0x3e5fe3f2	0.21864298
218	0xbe5e29c9	-0.21695627
219	0x3f2f75ff	0.6853942
220	0xbf229741	-0.63512045
221	0x3d506166	0.050874136
222	0xbe407a1f	-0.18796586
223	0x3ee1b4e3	0.44083318
224	0xbece6c45	-0.40316978
225	0xbe7a8fa3	-0.24468856
226	0xbee70aa9	-0.4512532
227	0x3e78f3c0	0.24311733
228	0x3ec2d012	0.3804937
229	0x3c82c6bb	0.015963903
230	0x3e018874	0.12649709
231	0xbf0e7224	-0.55642915
232	0x3efbbe55	0.4916865
233	0x3f0445a6	0.51668775
234	0xbf21e3e2	-0.63238347
235	0xbf0ade19	-0.54245144
236	0x3ecb8336	0.39748544
237	0x3eb692fa	0.3565901
238	0xbd4815a5	-0.048848767
239	0x3e7bee7f	0.24602698
240	0x3f112232	0.566928
241	0xbe5db134	-0.21649629
242	0x3ed13223	0.40858564
243	0x3f25ea8f	0.64811033
244	0x3e918506	0.284218
245	0xbf13b34f	-0.5769548
246	0xbf25af8a	-0.64720976
247	0x3e0ce0b3	0.13757591
248	0x3e154efe	0.14580914
249	0x3e81dd1b	0.25364003
250	0x3e1927e2	0.1495662
251	0xbeffb6b6	-0.49944085
252	0xbf12c94e	-0.57338417
253	0xbeead969	-0.45868996
254	0x3e9bddcb	0.30442652
255	0x3e7cad30	0.24675441

fc1.bias f4 [16]
0	0x3ce5b269	0.028039174
1	0x3e88e416	0.26736516
2	0xbdd2cd49	-0.10293061
3	0xbdee28f7	-0.11628907
4	0xbdf63801	-0.12022401
5	0x3dc86047	0.097839884
6	0xbe6be11f	-0.23035096
7	0xbe12fd94	-0.14354545
8	0xbc94d6dc	-0.01816886
9	0x3db01de5	0.08599452
10	0x3d53a003	0.05166627
11	0xbdef5b32	-0.11687316
12	0xbe3a7706	-0.18209466
13	0xbde09214	-0.10965362
14	0x3d85d8b8	0.065354764
15	0xbd97ec58	-0.07418126

fc2.weight f4 [1, 16]
0	0xbfe1d0e0	-1.7641869
1	0x3ef77ae6	0.48335952
2	0x3f71027a	0.94144404
3	0xbfbcdc28	-1.4754686
4	0x3f45f914	0.7733319
5	0xbf442e38	-0.76633024
6	0xbf08cb42	-0.53435147
7	0x3f63938f	0.8889703
8	0xbf58c728	-0.8467889
9	0xbf6edd14	-0.9330609
10	0xbf4fe604	-0.8121035
11	0x3e60de19	0.21959724
12	0x3f36ee57	0.7145743
13	0x3f5c2061	0.85986906
14	0x3f8a05ce	1.0783021
15	0xbf95e85e	-1.1711538
